<?xml version="1.0" ?>
<net name="buff" version="10">
	<layers>
		<layer id="0" name="images" type="Parameter" version="opset1">
			<data element_type="f16" shape="1, 3, 416, 416"/>
			<output>
				<port id="0" names="images" precision="FP16">
					<dim>1</dim>
					<dim>3</dim>
					<dim>416</dim>
					<dim>416</dim>
				</port>
			</output>
		</layer>
		<layer id="1" name="771" type="Const" version="opset1">
			<data element_type="f16" offset="0" shape="1, 2, 208, 208" size="173056"/>
			<output>
				<port id="0" names="771" precision="FP16">
					<dim>1</dim>
					<dim>2</dim>
					<dim>208</dim>
					<dim>208</dim>
				</port>
			</output>
		</layer>
		<layer id="2" name="Slice_4/Concat1049242028" type="Const" version="opset1">
			<data element_type="i64" offset="173056" shape="4" size="32"/>
			<output>
				<port id="0" precision="I64">
					<dim>4</dim>
				</port>
			</output>
		</layer>
		<layer id="3" name="Slice_4/Concat104761049341974" type="Const" version="opset1">
			<data element_type="i64" offset="173088" shape="4" size="32"/>
			<output>
				<port id="0" precision="I64">
					<dim>4</dim>
				</port>
			</output>
		</layer>
		<layer id="4" name="Slice_4/Strides1049441440" type="Const" version="opset1">
			<data element_type="i64" offset="173120" shape="4" size="32"/>
			<output>
				<port id="0" precision="I64">
					<dim>4</dim>
				</port>
			</output>
		</layer>
		<layer id="5" name="Slice_4" type="StridedSlice" version="opset1">
			<data begin_mask="1, 1, 0, 1" ellipsis_mask="0, 0, 0, 0" end_mask="1, 1, 0, 1" new_axis_mask="0, 0, 0, 0" shrink_axis_mask="0, 0, 0, 0"/>
			<input>
				<port id="0" precision="FP16">
					<dim>1</dim>
					<dim>3</dim>
					<dim>416</dim>
					<dim>416</dim>
				</port>
				<port id="1" precision="I64">
					<dim>4</dim>
				</port>
				<port id="2" precision="I64">
					<dim>4</dim>
				</port>
				<port id="3" precision="I64">
					<dim>4</dim>
				</port>
			</input>
			<output>
				<port id="4" names="653" precision="FP16">
					<dim>1</dim>
					<dim>3</dim>
					<dim>208</dim>
					<dim>416</dim>
				</port>
			</output>
		</layer>
		<layer id="6" name="Slice_9/Concat1054042217" type="Const" version="opset1">
			<data element_type="i64" offset="173056" shape="4" size="32"/>
			<output>
				<port id="0" precision="I64">
					<dim>4</dim>
				</port>
			</output>
		</layer>
		<layer id="7" name="Slice_9/Concat105241054141314" type="Const" version="opset1">
			<data element_type="i64" offset="173152" shape="4" size="32"/>
			<output>
				<port id="0" precision="I64">
					<dim>4</dim>
				</port>
			</output>
		</layer>
		<layer id="8" name="Slice_9/Strides1054242142" type="Const" version="opset1">
			<data element_type="i64" offset="173184" shape="4" size="32"/>
			<output>
				<port id="0" precision="I64">
					<dim>4</dim>
				</port>
			</output>
		</layer>
		<layer id="9" name="Slice_9" type="StridedSlice" version="opset1">
			<data begin_mask="1, 1, 1, 0" ellipsis_mask="0, 0, 0, 0" end_mask="1, 1, 1, 0" new_axis_mask="0, 0, 0, 0" shrink_axis_mask="0, 0, 0, 0"/>
			<input>
				<port id="0" precision="FP16">
					<dim>1</dim>
					<dim>3</dim>
					<dim>208</dim>
					<dim>416</dim>
				</port>
				<port id="1" precision="I64">
					<dim>4</dim>
				</port>
				<port id="2" precision="I64">
					<dim>4</dim>
				</port>
				<port id="3" precision="I64">
					<dim>4</dim>
				</port>
			</input>
			<output>
				<port id="4" names="658" precision="FP16">
					<dim>1</dim>
					<dim>3</dim>
					<dim>208</dim>
					<dim>208</dim>
				</port>
			</output>
		</layer>
		<layer id="10" name="Slice_24/Concat1068442259" type="Const" version="opset1">
			<data element_type="i64" offset="173216" shape="4" size="32"/>
			<output>
				<port id="0" precision="I64">
					<dim>4</dim>
				</port>
			</output>
		</layer>
		<layer id="11" name="Slice_24/Concat106681068541419" type="Const" version="opset1">
			<data element_type="i64" offset="173088" shape="4" size="32"/>
			<output>
				<port id="0" precision="I64">
					<dim>4</dim>
				</port>
			</output>
		</layer>
		<layer id="12" name="Slice_24/Strides1068641995" type="Const" version="opset1">
			<data element_type="i64" offset="173120" shape="4" size="32"/>
			<output>
				<port id="0" precision="I64">
					<dim>4</dim>
				</port>
			</output>
		</layer>
		<layer id="13" name="Slice_24" type="StridedSlice" version="opset1">
			<data begin_mask="1, 1, 0, 1" ellipsis_mask="0, 0, 0, 0" end_mask="1, 1, 0, 1" new_axis_mask="0, 0, 0, 0" shrink_axis_mask="0, 0, 0, 0"/>
			<input>
				<port id="0" precision="FP16">
					<dim>1</dim>
					<dim>3</dim>
					<dim>416</dim>
					<dim>416</dim>
				</port>
				<port id="1" precision="I64">
					<dim>4</dim>
				</port>
				<port id="2" precision="I64">
					<dim>4</dim>
				</port>
				<port id="3" precision="I64">
					<dim>4</dim>
				</port>
			</input>
			<output>
				<port id="4" names="673" precision="FP16">
					<dim>1</dim>
					<dim>3</dim>
					<dim>208</dim>
					<dim>416</dim>
				</port>
			</output>
		</layer>
		<layer id="14" name="Slice_29/Concat1073241272" type="Const" version="opset1">
			<data element_type="i64" offset="173056" shape="4" size="32"/>
			<output>
				<port id="0" precision="I64">
					<dim>4</dim>
				</port>
			</output>
		</layer>
		<layer id="15" name="Slice_29/Concat107161073341875" type="Const" version="opset1">
			<data element_type="i64" offset="173152" shape="4" size="32"/>
			<output>
				<port id="0" precision="I64">
					<dim>4</dim>
				</port>
			</output>
		</layer>
		<layer id="16" name="Slice_29/Strides1073441110" type="Const" version="opset1">
			<data element_type="i64" offset="173184" shape="4" size="32"/>
			<output>
				<port id="0" precision="I64">
					<dim>4</dim>
				</port>
			</output>
		</layer>
		<layer id="17" name="Slice_29" type="StridedSlice" version="opset1">
			<data begin_mask="1, 1, 1, 0" ellipsis_mask="0, 0, 0, 0" end_mask="1, 1, 1, 0" new_axis_mask="0, 0, 0, 0" shrink_axis_mask="0, 0, 0, 0"/>
			<input>
				<port id="0" precision="FP16">
					<dim>1</dim>
					<dim>3</dim>
					<dim>208</dim>
					<dim>416</dim>
				</port>
				<port id="1" precision="I64">
					<dim>4</dim>
				</port>
				<port id="2" precision="I64">
					<dim>4</dim>
				</port>
				<port id="3" precision="I64">
					<dim>4</dim>
				</port>
			</input>
			<output>
				<port id="4" names="678" precision="FP16">
					<dim>1</dim>
					<dim>3</dim>
					<dim>208</dim>
					<dim>208</dim>
				</port>
			</output>
		</layer>
		<layer id="18" name="Slice_14/Concat1058841527" type="Const" version="opset1">
			<data element_type="i64" offset="173056" shape="4" size="32"/>
			<output>
				<port id="0" precision="I64">
					<dim>4</dim>
				</port>
			</output>
		</layer>
		<layer id="19" name="Slice_14/Concat105721058941857" type="Const" version="opset1">
			<data element_type="i64" offset="173088" shape="4" size="32"/>
			<output>
				<port id="0" precision="I64">
					<dim>4</dim>
				</port>
			</output>
		</layer>
		<layer id="20" name="Slice_14/Strides1059041932" type="Const" version="opset1">
			<data element_type="i64" offset="173120" shape="4" size="32"/>
			<output>
				<port id="0" precision="I64">
					<dim>4</dim>
				</port>
			</output>
		</layer>
		<layer id="21" name="Slice_14" type="StridedSlice" version="opset1">
			<data begin_mask="1, 1, 0, 1" ellipsis_mask="0, 0, 0, 0" end_mask="1, 1, 0, 1" new_axis_mask="0, 0, 0, 0" shrink_axis_mask="0, 0, 0, 0"/>
			<input>
				<port id="0" precision="FP16">
					<dim>1</dim>
					<dim>3</dim>
					<dim>416</dim>
					<dim>416</dim>
				</port>
				<port id="1" precision="I64">
					<dim>4</dim>
				</port>
				<port id="2" precision="I64">
					<dim>4</dim>
				</port>
				<port id="3" precision="I64">
					<dim>4</dim>
				</port>
			</input>
			<output>
				<port id="4" names="663" precision="FP16">
					<dim>1</dim>
					<dim>3</dim>
					<dim>208</dim>
					<dim>416</dim>
				</port>
			</output>
		</layer>
		<layer id="22" name="Slice_19/Concat1063641383" type="Const" version="opset1">
			<data element_type="i64" offset="173248" shape="4" size="32"/>
			<output>
				<port id="0" precision="I64">
					<dim>4</dim>
				</port>
			</output>
		</layer>
		<layer id="23" name="Slice_19/Concat106201063741098" type="Const" version="opset1">
			<data element_type="i64" offset="173152" shape="4" size="32"/>
			<output>
				<port id="0" precision="I64">
					<dim>4</dim>
				</port>
			</output>
		</layer>
		<layer id="24" name="Slice_19/Strides1063841680" type="Const" version="opset1">
			<data element_type="i64" offset="173184" shape="4" size="32"/>
			<output>
				<port id="0" precision="I64">
					<dim>4</dim>
				</port>
			</output>
		</layer>
		<layer id="25" name="Slice_19" type="StridedSlice" version="opset1">
			<data begin_mask="1, 1, 1, 0" ellipsis_mask="0, 0, 0, 0" end_mask="1, 1, 1, 0" new_axis_mask="0, 0, 0, 0" shrink_axis_mask="0, 0, 0, 0"/>
			<input>
				<port id="0" precision="FP16">
					<dim>1</dim>
					<dim>3</dim>
					<dim>208</dim>
					<dim>416</dim>
				</port>
				<port id="1" precision="I64">
					<dim>4</dim>
				</port>
				<port id="2" precision="I64">
					<dim>4</dim>
				</port>
				<port id="3" precision="I64">
					<dim>4</dim>
				</port>
			</input>
			<output>
				<port id="4" names="668" precision="FP16">
					<dim>1</dim>
					<dim>3</dim>
					<dim>208</dim>
					<dim>208</dim>
				</port>
			</output>
		</layer>
		<layer id="26" name="Slice_34/Concat1078041920" type="Const" version="opset1">
			<data element_type="i64" offset="173216" shape="4" size="32"/>
			<output>
				<port id="0" precision="I64">
					<dim>4</dim>
				</port>
			</output>
		</layer>
		<layer id="27" name="Slice_34/Concat107641078142223" type="Const" version="opset1">
			<data element_type="i64" offset="173088" shape="4" size="32"/>
			<output>
				<port id="0" precision="I64">
					<dim>4</dim>
				</port>
			</output>
		</layer>
		<layer id="28" name="Slice_34/Strides1078242241" type="Const" version="opset1">
			<data element_type="i64" offset="173120" shape="4" size="32"/>
			<output>
				<port id="0" precision="I64">
					<dim>4</dim>
				</port>
			</output>
		</layer>
		<layer id="29" name="Slice_34" type="StridedSlice" version="opset1">
			<data begin_mask="1, 1, 0, 1" ellipsis_mask="0, 0, 0, 0" end_mask="1, 1, 0, 1" new_axis_mask="0, 0, 0, 0" shrink_axis_mask="0, 0, 0, 0"/>
			<input>
				<port id="0" precision="FP16">
					<dim>1</dim>
					<dim>3</dim>
					<dim>416</dim>
					<dim>416</dim>
				</port>
				<port id="1" precision="I64">
					<dim>4</dim>
				</port>
				<port id="2" precision="I64">
					<dim>4</dim>
				</port>
				<port id="3" precision="I64">
					<dim>4</dim>
				</port>
			</input>
			<output>
				<port id="4" names="683" precision="FP16">
					<dim>1</dim>
					<dim>3</dim>
					<dim>208</dim>
					<dim>416</dim>
				</port>
			</output>
		</layer>
		<layer id="30" name="Slice_39/Concat1082842340" type="Const" version="opset1">
			<data element_type="i64" offset="173248" shape="4" size="32"/>
			<output>
				<port id="0" precision="I64">
					<dim>4</dim>
				</port>
			</output>
		</layer>
		<layer id="31" name="Slice_39/Concat108121082941686" type="Const" version="opset1">
			<data element_type="i64" offset="173152" shape="4" size="32"/>
			<output>
				<port id="0" precision="I64">
					<dim>4</dim>
				</port>
			</output>
		</layer>
		<layer id="32" name="Slice_39/Strides1083041461" type="Const" version="opset1">
			<data element_type="i64" offset="173184" shape="4" size="32"/>
			<output>
				<port id="0" precision="I64">
					<dim>4</dim>
				</port>
			</output>
		</layer>
		<layer id="33" name="Slice_39" type="StridedSlice" version="opset1">
			<data begin_mask="1, 1, 1, 0" ellipsis_mask="0, 0, 0, 0" end_mask="1, 1, 1, 0" new_axis_mask="0, 0, 0, 0" shrink_axis_mask="0, 0, 0, 0"/>
			<input>
				<port id="0" precision="FP16">
					<dim>1</dim>
					<dim>3</dim>
					<dim>208</dim>
					<dim>416</dim>
				</port>
				<port id="1" precision="I64">
					<dim>4</dim>
				</port>
				<port id="2" precision="I64">
					<dim>4</dim>
				</port>
				<port id="3" precision="I64">
					<dim>4</dim>
				</port>
			</input>
			<output>
				<port id="4" names="688" precision="FP16">
					<dim>1</dim>
					<dim>3</dim>
					<dim>208</dim>
					<dim>208</dim>
				</port>
			</output>
		</layer>
		<layer id="34" name="Concat_115" type="Concat" version="opset1">
			<data axis="1"/>
			<input>
				<port id="0" precision="FP16">
					<dim>1</dim>
					<dim>2</dim>
					<dim>208</dim>
					<dim>208</dim>
				</port>
				<port id="1" precision="FP16">
					<dim>1</dim>
					<dim>3</dim>
					<dim>208</dim>
					<dim>208</dim>
				</port>
				<port id="2" precision="FP16">
					<dim>1</dim>
					<dim>3</dim>
					<dim>208</dim>
					<dim>208</dim>
				</port>
				<port id="3" precision="FP16">
					<dim>1</dim>
					<dim>3</dim>
					<dim>208</dim>
					<dim>208</dim>
				</port>
				<port id="4" precision="FP16">
					<dim>1</dim>
					<dim>3</dim>
					<dim>208</dim>
					<dim>208</dim>
				</port>
			</input>
			<output>
				<port id="5" names="773" precision="FP16">
					<dim>1</dim>
					<dim>14</dim>
					<dim>208</dim>
					<dim>208</dim>
				</port>
			</output>
		</layer>
		<layer id="35" name="1658" type="Const" version="opset1">
			<data element_type="f16" offset="173280" shape="16, 14, 3, 3" size="4032"/>
			<output>
				<port id="0" names="1658" precision="FP16">
					<dim>16</dim>
					<dim>14</dim>
					<dim>3</dim>
					<dim>3</dim>
				</port>
			</output>
		</layer>
		<layer id="36" name="Conv_116/WithoutBiases" type="Convolution" version="opset1">
			<data auto_pad="explicit" dilations="1, 1" pads_begin="1, 1" pads_end="1, 1" strides="1, 1"/>
			<input>
				<port id="0" precision="FP16">
					<dim>1</dim>
					<dim>14</dim>
					<dim>208</dim>
					<dim>208</dim>
				</port>
				<port id="1" precision="FP16">
					<dim>16</dim>
					<dim>14</dim>
					<dim>3</dim>
					<dim>3</dim>
				</port>
			</input>
			<output>
				<port id="2" precision="FP16">
					<dim>1</dim>
					<dim>16</dim>
					<dim>208</dim>
					<dim>208</dim>
				</port>
			</output>
		</layer>
		<layer id="37" name="Conv_116/Dims9550" type="Const" version="opset1">
			<data element_type="f16" offset="177312" shape="1, 16, 1, 1" size="32"/>
			<output>
				<port id="0" precision="FP16">
					<dim>1</dim>
					<dim>16</dim>
					<dim>1</dim>
					<dim>1</dim>
				</port>
			</output>
		</layer>
		<layer id="38" name="Conv_116" type="Add" version="opset1">
			<data auto_broadcast="numpy"/>
			<input>
				<port id="0" precision="FP16">
					<dim>1</dim>
					<dim>16</dim>
					<dim>208</dim>
					<dim>208</dim>
				</port>
				<port id="1" precision="FP16">
					<dim>1</dim>
					<dim>16</dim>
					<dim>1</dim>
					<dim>1</dim>
				</port>
			</input>
			<output>
				<port id="2" names="1657" precision="FP16">
					<dim>1</dim>
					<dim>16</dim>
					<dim>208</dim>
					<dim>208</dim>
				</port>
			</output>
		</layer>
		<layer id="39" name="77641422" type="Const" version="opset1">
			<data element_type="f16" offset="177344" shape="1, 1, 1, 1" size="2"/>
			<output>
				<port id="0" names="776" precision="FP16">
					<dim>1</dim>
					<dim>1</dim>
					<dim>1</dim>
					<dim>1</dim>
				</port>
			</output>
		</layer>
		<layer id="40" name="Add_118" type="Add" version="opset1">
			<data auto_broadcast="numpy"/>
			<input>
				<port id="0" precision="FP16">
					<dim>1</dim>
					<dim>16</dim>
					<dim>208</dim>
					<dim>208</dim>
				</port>
				<port id="1" precision="FP16">
					<dim>1</dim>
					<dim>1</dim>
					<dim>1</dim>
					<dim>1</dim>
				</port>
			</input>
			<output>
				<port id="2" names="777" precision="FP16">
					<dim>1</dim>
					<dim>16</dim>
					<dim>208</dim>
					<dim>208</dim>
				</port>
			</output>
		</layer>
		<layer id="41" name="Clip_121" type="Clamp" version="opset1">
			<data max="6" min="0"/>
			<input>
				<port id="0" precision="FP16">
					<dim>1</dim>
					<dim>16</dim>
					<dim>208</dim>
					<dim>208</dim>
				</port>
			</input>
			<output>
				<port id="1" names="780" precision="FP16">
					<dim>1</dim>
					<dim>16</dim>
					<dim>208</dim>
					<dim>208</dim>
				</port>
			</output>
		</layer>
		<layer id="42" name="77941563" type="Const" version="opset1">
			<data element_type="f16" offset="177346" shape="1, 1, 1, 1" size="2"/>
			<output>
				<port id="0" names="779" precision="FP16">
					<dim>1</dim>
					<dim>1</dim>
					<dim>1</dim>
					<dim>1</dim>
				</port>
			</output>
		</layer>
		<layer id="43" name="Div_123" type="Multiply" version="opset1">
			<data auto_broadcast="numpy"/>
			<input>
				<port id="0" precision="FP16">
					<dim>1</dim>
					<dim>16</dim>
					<dim>208</dim>
					<dim>208</dim>
				</port>
				<port id="1" precision="FP16">
					<dim>1</dim>
					<dim>1</dim>
					<dim>1</dim>
					<dim>1</dim>
				</port>
			</input>
			<output>
				<port id="2" names="782" precision="FP16">
					<dim>1</dim>
					<dim>16</dim>
					<dim>208</dim>
					<dim>208</dim>
				</port>
			</output>
		</layer>
		<layer id="44" name="Mul_124" type="Multiply" version="opset1">
			<data auto_broadcast="numpy"/>
			<input>
				<port id="0" precision="FP16">
					<dim>1</dim>
					<dim>16</dim>
					<dim>208</dim>
					<dim>208</dim>
				</port>
				<port id="1" precision="FP16">
					<dim>1</dim>
					<dim>16</dim>
					<dim>208</dim>
					<dim>208</dim>
				</port>
			</input>
			<output>
				<port id="2" names="783" precision="FP16">
					<dim>1</dim>
					<dim>16</dim>
					<dim>208</dim>
					<dim>208</dim>
				</port>
			</output>
		</layer>
		<layer id="45" name="1661" type="Const" version="opset1">
			<data element_type="f16" offset="177348" shape="16, 1, 1, 3, 3" size="288"/>
			<output>
				<port id="0" names="1661" precision="FP16">
					<dim>16</dim>
					<dim>1</dim>
					<dim>1</dim>
					<dim>3</dim>
					<dim>3</dim>
				</port>
			</output>
		</layer>
		<layer id="46" name="Conv_125/WithoutBiases" type="GroupConvolution" version="opset1">
			<data auto_pad="explicit" dilations="1, 1" pads_begin="1, 1" pads_end="1, 1" strides="2, 2"/>
			<input>
				<port id="0" precision="FP16">
					<dim>1</dim>
					<dim>16</dim>
					<dim>208</dim>
					<dim>208</dim>
				</port>
				<port id="1" precision="FP16">
					<dim>16</dim>
					<dim>1</dim>
					<dim>1</dim>
					<dim>3</dim>
					<dim>3</dim>
				</port>
			</input>
			<output>
				<port id="2" precision="FP16">
					<dim>1</dim>
					<dim>16</dim>
					<dim>104</dim>
					<dim>104</dim>
				</port>
			</output>
		</layer>
		<layer id="47" name="Conv_125/Dims9622" type="Const" version="opset1">
			<data element_type="f16" offset="177636" shape="1, 16, 1, 1" size="32"/>
			<output>
				<port id="0" precision="FP16">
					<dim>1</dim>
					<dim>16</dim>
					<dim>1</dim>
					<dim>1</dim>
				</port>
			</output>
		</layer>
		<layer id="48" name="Conv_125" type="Add" version="opset1">
			<data auto_broadcast="numpy"/>
			<input>
				<port id="0" precision="FP16">
					<dim>1</dim>
					<dim>16</dim>
					<dim>104</dim>
					<dim>104</dim>
				</port>
				<port id="1" precision="FP16">
					<dim>1</dim>
					<dim>16</dim>
					<dim>1</dim>
					<dim>1</dim>
				</port>
			</input>
			<output>
				<port id="2" names="1660" precision="FP16">
					<dim>1</dim>
					<dim>16</dim>
					<dim>104</dim>
					<dim>104</dim>
				</port>
			</output>
		</layer>
		<layer id="49" name="1664" type="Const" version="opset1">
			<data element_type="f16" offset="177668" shape="32, 16, 1, 1" size="1024"/>
			<output>
				<port id="0" names="1664" precision="FP16">
					<dim>32</dim>
					<dim>16</dim>
					<dim>1</dim>
					<dim>1</dim>
				</port>
			</output>
		</layer>
		<layer id="50" name="Conv_126/WithoutBiases" type="Convolution" version="opset1">
			<data auto_pad="explicit" dilations="1, 1" pads_begin="0, 0" pads_end="0, 0" strides="1, 1"/>
			<input>
				<port id="0" precision="FP16">
					<dim>1</dim>
					<dim>16</dim>
					<dim>104</dim>
					<dim>104</dim>
				</port>
				<port id="1" precision="FP16">
					<dim>32</dim>
					<dim>16</dim>
					<dim>1</dim>
					<dim>1</dim>
				</port>
			</input>
			<output>
				<port id="2" precision="FP16">
					<dim>1</dim>
					<dim>32</dim>
					<dim>104</dim>
					<dim>104</dim>
				</port>
			</output>
		</layer>
		<layer id="51" name="Conv_126/Dims9460" type="Const" version="opset1">
			<data element_type="f16" offset="178692" shape="1, 32, 1, 1" size="64"/>
			<output>
				<port id="0" precision="FP16">
					<dim>1</dim>
					<dim>32</dim>
					<dim>1</dim>
					<dim>1</dim>
				</port>
			</output>
		</layer>
		<layer id="52" name="Conv_126" type="Add" version="opset1">
			<data auto_broadcast="numpy"/>
			<input>
				<port id="0" precision="FP16">
					<dim>1</dim>
					<dim>32</dim>
					<dim>104</dim>
					<dim>104</dim>
				</port>
				<port id="1" precision="FP16">
					<dim>1</dim>
					<dim>32</dim>
					<dim>1</dim>
					<dim>1</dim>
				</port>
			</input>
			<output>
				<port id="2" names="1663" precision="FP16">
					<dim>1</dim>
					<dim>32</dim>
					<dim>104</dim>
					<dim>104</dim>
				</port>
			</output>
		</layer>
		<layer id="53" name="77641470" type="Const" version="opset1">
			<data element_type="f16" offset="177344" shape="1, 1, 1, 1" size="2"/>
			<output>
				<port id="0" names="776" precision="FP16">
					<dim>1</dim>
					<dim>1</dim>
					<dim>1</dim>
					<dim>1</dim>
				</port>
			</output>
		</layer>
		<layer id="54" name="Add_128" type="Add" version="opset1">
			<data auto_broadcast="numpy"/>
			<input>
				<port id="0" precision="FP16">
					<dim>1</dim>
					<dim>32</dim>
					<dim>104</dim>
					<dim>104</dim>
				</port>
				<port id="1" precision="FP16">
					<dim>1</dim>
					<dim>1</dim>
					<dim>1</dim>
					<dim>1</dim>
				</port>
			</input>
			<output>
				<port id="2" names="789" precision="FP16">
					<dim>1</dim>
					<dim>32</dim>
					<dim>104</dim>
					<dim>104</dim>
				</port>
			</output>
		</layer>
		<layer id="55" name="Clip_131" type="Clamp" version="opset1">
			<data max="6" min="0"/>
			<input>
				<port id="0" precision="FP16">
					<dim>1</dim>
					<dim>32</dim>
					<dim>104</dim>
					<dim>104</dim>
				</port>
			</input>
			<output>
				<port id="1" names="792" precision="FP16">
					<dim>1</dim>
					<dim>32</dim>
					<dim>104</dim>
					<dim>104</dim>
				</port>
			</output>
		</layer>
		<layer id="56" name="77941965" type="Const" version="opset1">
			<data element_type="f16" offset="177346" shape="1, 1, 1, 1" size="2"/>
			<output>
				<port id="0" names="779" precision="FP16">
					<dim>1</dim>
					<dim>1</dim>
					<dim>1</dim>
					<dim>1</dim>
				</port>
			</output>
		</layer>
		<layer id="57" name="Div_133" type="Multiply" version="opset1">
			<data auto_broadcast="numpy"/>
			<input>
				<port id="0" precision="FP16">
					<dim>1</dim>
					<dim>32</dim>
					<dim>104</dim>
					<dim>104</dim>
				</port>
				<port id="1" precision="FP16">
					<dim>1</dim>
					<dim>1</dim>
					<dim>1</dim>
					<dim>1</dim>
				</port>
			</input>
			<output>
				<port id="2" names="794" precision="FP16">
					<dim>1</dim>
					<dim>32</dim>
					<dim>104</dim>
					<dim>104</dim>
				</port>
			</output>
		</layer>
		<layer id="58" name="Mul_134" type="Multiply" version="opset1">
			<data auto_broadcast="numpy"/>
			<input>
				<port id="0" precision="FP16">
					<dim>1</dim>
					<dim>32</dim>
					<dim>104</dim>
					<dim>104</dim>
				</port>
				<port id="1" precision="FP16">
					<dim>1</dim>
					<dim>32</dim>
					<dim>104</dim>
					<dim>104</dim>
				</port>
			</input>
			<output>
				<port id="2" names="795" precision="FP16">
					<dim>1</dim>
					<dim>32</dim>
					<dim>104</dim>
					<dim>104</dim>
				</port>
			</output>
		</layer>
		<layer id="59" name="1667" type="Const" version="opset1">
			<data element_type="f16" offset="178756" shape="16, 32, 1, 1" size="1024"/>
			<output>
				<port id="0" names="1667" precision="FP16">
					<dim>16</dim>
					<dim>32</dim>
					<dim>1</dim>
					<dim>1</dim>
				</port>
			</output>
		</layer>
		<layer id="60" name="Conv_135/WithoutBiases" type="Convolution" version="opset1">
			<data auto_pad="explicit" dilations="1, 1" pads_begin="0, 0" pads_end="0, 0" strides="1, 1"/>
			<input>
				<port id="0" precision="FP16">
					<dim>1</dim>
					<dim>32</dim>
					<dim>104</dim>
					<dim>104</dim>
				</port>
				<port id="1" precision="FP16">
					<dim>16</dim>
					<dim>32</dim>
					<dim>1</dim>
					<dim>1</dim>
				</port>
			</input>
			<output>
				<port id="2" precision="FP16">
					<dim>1</dim>
					<dim>16</dim>
					<dim>104</dim>
					<dim>104</dim>
				</port>
			</output>
		</layer>
		<layer id="61" name="Conv_135/Dims9526" type="Const" version="opset1">
			<data element_type="f16" offset="179780" shape="1, 16, 1, 1" size="32"/>
			<output>
				<port id="0" precision="FP16">
					<dim>1</dim>
					<dim>16</dim>
					<dim>1</dim>
					<dim>1</dim>
				</port>
			</output>
		</layer>
		<layer id="62" name="Conv_135" type="Add" version="opset1">
			<data auto_broadcast="numpy"/>
			<input>
				<port id="0" precision="FP16">
					<dim>1</dim>
					<dim>16</dim>
					<dim>104</dim>
					<dim>104</dim>
				</port>
				<port id="1" precision="FP16">
					<dim>1</dim>
					<dim>16</dim>
					<dim>1</dim>
					<dim>1</dim>
				</port>
			</input>
			<output>
				<port id="2" names="1666" precision="FP16">
					<dim>1</dim>
					<dim>16</dim>
					<dim>104</dim>
					<dim>104</dim>
				</port>
			</output>
		</layer>
		<layer id="63" name="77642073" type="Const" version="opset1">
			<data element_type="f16" offset="177344" shape="1, 1, 1, 1" size="2"/>
			<output>
				<port id="0" names="776" precision="FP16">
					<dim>1</dim>
					<dim>1</dim>
					<dim>1</dim>
					<dim>1</dim>
				</port>
			</output>
		</layer>
		<layer id="64" name="Add_137" type="Add" version="opset1">
			<data auto_broadcast="numpy"/>
			<input>
				<port id="0" precision="FP16">
					<dim>1</dim>
					<dim>16</dim>
					<dim>104</dim>
					<dim>104</dim>
				</port>
				<port id="1" precision="FP16">
					<dim>1</dim>
					<dim>1</dim>
					<dim>1</dim>
					<dim>1</dim>
				</port>
			</input>
			<output>
				<port id="2" names="799" precision="FP16">
					<dim>1</dim>
					<dim>16</dim>
					<dim>104</dim>
					<dim>104</dim>
				</port>
			</output>
		</layer>
		<layer id="65" name="Clip_140" type="Clamp" version="opset1">
			<data max="6" min="0"/>
			<input>
				<port id="0" precision="FP16">
					<dim>1</dim>
					<dim>16</dim>
					<dim>104</dim>
					<dim>104</dim>
				</port>
			</input>
			<output>
				<port id="1" names="802" precision="FP16">
					<dim>1</dim>
					<dim>16</dim>
					<dim>104</dim>
					<dim>104</dim>
				</port>
			</output>
		</layer>
		<layer id="66" name="77941413" type="Const" version="opset1">
			<data element_type="f16" offset="177346" shape="1, 1, 1, 1" size="2"/>
			<output>
				<port id="0" names="779" precision="FP16">
					<dim>1</dim>
					<dim>1</dim>
					<dim>1</dim>
					<dim>1</dim>
				</port>
			</output>
		</layer>
		<layer id="67" name="Div_142" type="Multiply" version="opset1">
			<data auto_broadcast="numpy"/>
			<input>
				<port id="0" precision="FP16">
					<dim>1</dim>
					<dim>16</dim>
					<dim>104</dim>
					<dim>104</dim>
				</port>
				<port id="1" precision="FP16">
					<dim>1</dim>
					<dim>1</dim>
					<dim>1</dim>
					<dim>1</dim>
				</port>
			</input>
			<output>
				<port id="2" names="804" precision="FP16">
					<dim>1</dim>
					<dim>16</dim>
					<dim>104</dim>
					<dim>104</dim>
				</port>
			</output>
		</layer>
		<layer id="68" name="Mul_143" type="Multiply" version="opset1">
			<data auto_broadcast="numpy"/>
			<input>
				<port id="0" precision="FP16">
					<dim>1</dim>
					<dim>16</dim>
					<dim>104</dim>
					<dim>104</dim>
				</port>
				<port id="1" precision="FP16">
					<dim>1</dim>
					<dim>16</dim>
					<dim>104</dim>
					<dim>104</dim>
				</port>
			</input>
			<output>
				<port id="2" names="805" precision="FP16">
					<dim>1</dim>
					<dim>16</dim>
					<dim>104</dim>
					<dim>104</dim>
				</port>
			</output>
		</layer>
		<layer id="69" name="1673" type="Const" version="opset1">
			<data element_type="f16" offset="179812" shape="16, 16, 1, 1" size="512"/>
			<output>
				<port id="0" names="1673" precision="FP16">
					<dim>16</dim>
					<dim>16</dim>
					<dim>1</dim>
					<dim>1</dim>
				</port>
			</output>
		</layer>
		<layer id="70" name="Conv_153/WithoutBiases" type="Convolution" version="opset1">
			<data auto_pad="explicit" dilations="1, 1" pads_begin="0, 0" pads_end="0, 0" strides="1, 1"/>
			<input>
				<port id="0" precision="FP16">
					<dim>1</dim>
					<dim>16</dim>
					<dim>104</dim>
					<dim>104</dim>
				</port>
				<port id="1" precision="FP16">
					<dim>16</dim>
					<dim>16</dim>
					<dim>1</dim>
					<dim>1</dim>
				</port>
			</input>
			<output>
				<port id="2" precision="FP16">
					<dim>1</dim>
					<dim>16</dim>
					<dim>104</dim>
					<dim>104</dim>
				</port>
			</output>
		</layer>
		<layer id="71" name="Conv_153/Dims9352" type="Const" version="opset1">
			<data element_type="f16" offset="180324" shape="1, 16, 1, 1" size="32"/>
			<output>
				<port id="0" precision="FP16">
					<dim>1</dim>
					<dim>16</dim>
					<dim>1</dim>
					<dim>1</dim>
				</port>
			</output>
		</layer>
		<layer id="72" name="Conv_153" type="Add" version="opset1">
			<data auto_broadcast="numpy"/>
			<input>
				<port id="0" precision="FP16">
					<dim>1</dim>
					<dim>16</dim>
					<dim>104</dim>
					<dim>104</dim>
				</port>
				<port id="1" precision="FP16">
					<dim>1</dim>
					<dim>16</dim>
					<dim>1</dim>
					<dim>1</dim>
				</port>
			</input>
			<output>
				<port id="2" names="1672" precision="FP16">
					<dim>1</dim>
					<dim>16</dim>
					<dim>104</dim>
					<dim>104</dim>
				</port>
			</output>
		</layer>
		<layer id="73" name="77641644" type="Const" version="opset1">
			<data element_type="f16" offset="177344" shape="1, 1, 1, 1" size="2"/>
			<output>
				<port id="0" names="776" precision="FP16">
					<dim>1</dim>
					<dim>1</dim>
					<dim>1</dim>
					<dim>1</dim>
				</port>
			</output>
		</layer>
		<layer id="74" name="Add_155" type="Add" version="opset1">
			<data auto_broadcast="numpy"/>
			<input>
				<port id="0" precision="FP16">
					<dim>1</dim>
					<dim>16</dim>
					<dim>104</dim>
					<dim>104</dim>
				</port>
				<port id="1" precision="FP16">
					<dim>1</dim>
					<dim>1</dim>
					<dim>1</dim>
					<dim>1</dim>
				</port>
			</input>
			<output>
				<port id="2" names="819" precision="FP16">
					<dim>1</dim>
					<dim>16</dim>
					<dim>104</dim>
					<dim>104</dim>
				</port>
			</output>
		</layer>
		<layer id="75" name="Clip_158" type="Clamp" version="opset1">
			<data max="6" min="0"/>
			<input>
				<port id="0" precision="FP16">
					<dim>1</dim>
					<dim>16</dim>
					<dim>104</dim>
					<dim>104</dim>
				</port>
			</input>
			<output>
				<port id="1" names="822" precision="FP16">
					<dim>1</dim>
					<dim>16</dim>
					<dim>104</dim>
					<dim>104</dim>
				</port>
			</output>
		</layer>
		<layer id="76" name="77941809" type="Const" version="opset1">
			<data element_type="f16" offset="177346" shape="1, 1, 1, 1" size="2"/>
			<output>
				<port id="0" names="779" precision="FP16">
					<dim>1</dim>
					<dim>1</dim>
					<dim>1</dim>
					<dim>1</dim>
				</port>
			</output>
		</layer>
		<layer id="77" name="Div_160" type="Multiply" version="opset1">
			<data auto_broadcast="numpy"/>
			<input>
				<port id="0" precision="FP16">
					<dim>1</dim>
					<dim>16</dim>
					<dim>104</dim>
					<dim>104</dim>
				</port>
				<port id="1" precision="FP16">
					<dim>1</dim>
					<dim>1</dim>
					<dim>1</dim>
					<dim>1</dim>
				</port>
			</input>
			<output>
				<port id="2" names="824" precision="FP16">
					<dim>1</dim>
					<dim>16</dim>
					<dim>104</dim>
					<dim>104</dim>
				</port>
			</output>
		</layer>
		<layer id="78" name="Mul_161" type="Multiply" version="opset1">
			<data auto_broadcast="numpy"/>
			<input>
				<port id="0" precision="FP16">
					<dim>1</dim>
					<dim>16</dim>
					<dim>104</dim>
					<dim>104</dim>
				</port>
				<port id="1" precision="FP16">
					<dim>1</dim>
					<dim>16</dim>
					<dim>104</dim>
					<dim>104</dim>
				</port>
			</input>
			<output>
				<port id="2" names="825" precision="FP16">
					<dim>1</dim>
					<dim>16</dim>
					<dim>104</dim>
					<dim>104</dim>
				</port>
			</output>
		</layer>
		<layer id="79" name="1676" type="Const" version="opset1">
			<data element_type="f16" offset="180356" shape="16, 1, 1, 3, 3" size="288"/>
			<output>
				<port id="0" names="1676" precision="FP16">
					<dim>16</dim>
					<dim>1</dim>
					<dim>1</dim>
					<dim>3</dim>
					<dim>3</dim>
				</port>
			</output>
		</layer>
		<layer id="80" name="Conv_162/WithoutBiases" type="GroupConvolution" version="opset1">
			<data auto_pad="explicit" dilations="1, 1" pads_begin="1, 1" pads_end="1, 1" strides="1, 1"/>
			<input>
				<port id="0" precision="FP16">
					<dim>1</dim>
					<dim>16</dim>
					<dim>104</dim>
					<dim>104</dim>
				</port>
				<port id="1" precision="FP16">
					<dim>16</dim>
					<dim>1</dim>
					<dim>1</dim>
					<dim>3</dim>
					<dim>3</dim>
				</port>
			</input>
			<output>
				<port id="2" precision="FP16">
					<dim>1</dim>
					<dim>16</dim>
					<dim>104</dim>
					<dim>104</dim>
				</port>
			</output>
		</layer>
		<layer id="81" name="Conv_162/Dims9238" type="Const" version="opset1">
			<data element_type="f16" offset="180644" shape="1, 16, 1, 1" size="32"/>
			<output>
				<port id="0" precision="FP16">
					<dim>1</dim>
					<dim>16</dim>
					<dim>1</dim>
					<dim>1</dim>
				</port>
			</output>
		</layer>
		<layer id="82" name="Conv_162" type="Add" version="opset1">
			<data auto_broadcast="numpy"/>
			<input>
				<port id="0" precision="FP16">
					<dim>1</dim>
					<dim>16</dim>
					<dim>104</dim>
					<dim>104</dim>
				</port>
				<port id="1" precision="FP16">
					<dim>1</dim>
					<dim>16</dim>
					<dim>1</dim>
					<dim>1</dim>
				</port>
			</input>
			<output>
				<port id="2" names="1675" precision="FP16">
					<dim>1</dim>
					<dim>16</dim>
					<dim>104</dim>
					<dim>104</dim>
				</port>
			</output>
		</layer>
		<layer id="83" name="1679" type="Const" version="opset1">
			<data element_type="f16" offset="180676" shape="16, 16, 1, 1" size="512"/>
			<output>
				<port id="0" names="1679" precision="FP16">
					<dim>16</dim>
					<dim>16</dim>
					<dim>1</dim>
					<dim>1</dim>
				</port>
			</output>
		</layer>
		<layer id="84" name="Conv_163/WithoutBiases" type="Convolution" version="opset1">
			<data auto_pad="explicit" dilations="1, 1" pads_begin="0, 0" pads_end="0, 0" strides="1, 1"/>
			<input>
				<port id="0" precision="FP16">
					<dim>1</dim>
					<dim>16</dim>
					<dim>104</dim>
					<dim>104</dim>
				</port>
				<port id="1" precision="FP16">
					<dim>16</dim>
					<dim>16</dim>
					<dim>1</dim>
					<dim>1</dim>
				</port>
			</input>
			<output>
				<port id="2" precision="FP16">
					<dim>1</dim>
					<dim>16</dim>
					<dim>104</dim>
					<dim>104</dim>
				</port>
			</output>
		</layer>
		<layer id="85" name="Conv_163/Dims9544" type="Const" version="opset1">
			<data element_type="f16" offset="181188" shape="1, 16, 1, 1" size="32"/>
			<output>
				<port id="0" precision="FP16">
					<dim>1</dim>
					<dim>16</dim>
					<dim>1</dim>
					<dim>1</dim>
				</port>
			</output>
		</layer>
		<layer id="86" name="Conv_163" type="Add" version="opset1">
			<data auto_broadcast="numpy"/>
			<input>
				<port id="0" precision="FP16">
					<dim>1</dim>
					<dim>16</dim>
					<dim>104</dim>
					<dim>104</dim>
				</port>
				<port id="1" precision="FP16">
					<dim>1</dim>
					<dim>16</dim>
					<dim>1</dim>
					<dim>1</dim>
				</port>
			</input>
			<output>
				<port id="2" names="1678" precision="FP16">
					<dim>1</dim>
					<dim>16</dim>
					<dim>104</dim>
					<dim>104</dim>
				</port>
			</output>
		</layer>
		<layer id="87" name="77642130" type="Const" version="opset1">
			<data element_type="f16" offset="177344" shape="1, 1, 1, 1" size="2"/>
			<output>
				<port id="0" names="776" precision="FP16">
					<dim>1</dim>
					<dim>1</dim>
					<dim>1</dim>
					<dim>1</dim>
				</port>
			</output>
		</layer>
		<layer id="88" name="Add_165" type="Add" version="opset1">
			<data auto_broadcast="numpy"/>
			<input>
				<port id="0" precision="FP16">
					<dim>1</dim>
					<dim>16</dim>
					<dim>104</dim>
					<dim>104</dim>
				</port>
				<port id="1" precision="FP16">
					<dim>1</dim>
					<dim>1</dim>
					<dim>1</dim>
					<dim>1</dim>
				</port>
			</input>
			<output>
				<port id="2" names="831" precision="FP16">
					<dim>1</dim>
					<dim>16</dim>
					<dim>104</dim>
					<dim>104</dim>
				</port>
			</output>
		</layer>
		<layer id="89" name="Clip_168" type="Clamp" version="opset1">
			<data max="6" min="0"/>
			<input>
				<port id="0" precision="FP16">
					<dim>1</dim>
					<dim>16</dim>
					<dim>104</dim>
					<dim>104</dim>
				</port>
			</input>
			<output>
				<port id="1" names="834" precision="FP16">
					<dim>1</dim>
					<dim>16</dim>
					<dim>104</dim>
					<dim>104</dim>
				</port>
			</output>
		</layer>
		<layer id="90" name="77941959" type="Const" version="opset1">
			<data element_type="f16" offset="177346" shape="1, 1, 1, 1" size="2"/>
			<output>
				<port id="0" names="779" precision="FP16">
					<dim>1</dim>
					<dim>1</dim>
					<dim>1</dim>
					<dim>1</dim>
				</port>
			</output>
		</layer>
		<layer id="91" name="Div_170" type="Multiply" version="opset1">
			<data auto_broadcast="numpy"/>
			<input>
				<port id="0" precision="FP16">
					<dim>1</dim>
					<dim>16</dim>
					<dim>104</dim>
					<dim>104</dim>
				</port>
				<port id="1" precision="FP16">
					<dim>1</dim>
					<dim>1</dim>
					<dim>1</dim>
					<dim>1</dim>
				</port>
			</input>
			<output>
				<port id="2" names="836" precision="FP16">
					<dim>1</dim>
					<dim>16</dim>
					<dim>104</dim>
					<dim>104</dim>
				</port>
			</output>
		</layer>
		<layer id="92" name="Mul_171" type="Multiply" version="opset1">
			<data auto_broadcast="numpy"/>
			<input>
				<port id="0" precision="FP16">
					<dim>1</dim>
					<dim>16</dim>
					<dim>104</dim>
					<dim>104</dim>
				</port>
				<port id="1" precision="FP16">
					<dim>1</dim>
					<dim>16</dim>
					<dim>104</dim>
					<dim>104</dim>
				</port>
			</input>
			<output>
				<port id="2" names="837" precision="FP16">
					<dim>1</dim>
					<dim>16</dim>
					<dim>104</dim>
					<dim>104</dim>
				</port>
			</output>
		</layer>
		<layer id="93" name="Add_172" type="Add" version="opset1">
			<data auto_broadcast="numpy"/>
			<input>
				<port id="0" precision="FP16">
					<dim>1</dim>
					<dim>16</dim>
					<dim>104</dim>
					<dim>104</dim>
				</port>
				<port id="1" precision="FP16">
					<dim>1</dim>
					<dim>16</dim>
					<dim>104</dim>
					<dim>104</dim>
				</port>
			</input>
			<output>
				<port id="2" names="838" precision="FP16">
					<dim>1</dim>
					<dim>16</dim>
					<dim>104</dim>
					<dim>104</dim>
				</port>
			</output>
		</layer>
		<layer id="94" name="1670" type="Const" version="opset1">
			<data element_type="f16" offset="181220" shape="16, 32, 1, 1" size="1024"/>
			<output>
				<port id="0" names="1670" precision="FP16">
					<dim>16</dim>
					<dim>32</dim>
					<dim>1</dim>
					<dim>1</dim>
				</port>
			</output>
		</layer>
		<layer id="95" name="Conv_144/WithoutBiases" type="Convolution" version="opset1">
			<data auto_pad="explicit" dilations="1, 1" pads_begin="0, 0" pads_end="0, 0" strides="1, 1"/>
			<input>
				<port id="0" precision="FP16">
					<dim>1</dim>
					<dim>32</dim>
					<dim>104</dim>
					<dim>104</dim>
				</port>
				<port id="1" precision="FP16">
					<dim>16</dim>
					<dim>32</dim>
					<dim>1</dim>
					<dim>1</dim>
				</port>
			</input>
			<output>
				<port id="2" precision="FP16">
					<dim>1</dim>
					<dim>16</dim>
					<dim>104</dim>
					<dim>104</dim>
				</port>
			</output>
		</layer>
		<layer id="96" name="Conv_144/Dims9436" type="Const" version="opset1">
			<data element_type="f16" offset="182244" shape="1, 16, 1, 1" size="32"/>
			<output>
				<port id="0" precision="FP16">
					<dim>1</dim>
					<dim>16</dim>
					<dim>1</dim>
					<dim>1</dim>
				</port>
			</output>
		</layer>
		<layer id="97" name="Conv_144" type="Add" version="opset1">
			<data auto_broadcast="numpy"/>
			<input>
				<port id="0" precision="FP16">
					<dim>1</dim>
					<dim>16</dim>
					<dim>104</dim>
					<dim>104</dim>
				</port>
				<port id="1" precision="FP16">
					<dim>1</dim>
					<dim>16</dim>
					<dim>1</dim>
					<dim>1</dim>
				</port>
			</input>
			<output>
				<port id="2" names="1669" precision="FP16">
					<dim>1</dim>
					<dim>16</dim>
					<dim>104</dim>
					<dim>104</dim>
				</port>
			</output>
		</layer>
		<layer id="98" name="77641410" type="Const" version="opset1">
			<data element_type="f16" offset="177344" shape="1, 1, 1, 1" size="2"/>
			<output>
				<port id="0" names="776" precision="FP16">
					<dim>1</dim>
					<dim>1</dim>
					<dim>1</dim>
					<dim>1</dim>
				</port>
			</output>
		</layer>
		<layer id="99" name="Add_146" type="Add" version="opset1">
			<data auto_broadcast="numpy"/>
			<input>
				<port id="0" precision="FP16">
					<dim>1</dim>
					<dim>16</dim>
					<dim>104</dim>
					<dim>104</dim>
				</port>
				<port id="1" precision="FP16">
					<dim>1</dim>
					<dim>1</dim>
					<dim>1</dim>
					<dim>1</dim>
				</port>
			</input>
			<output>
				<port id="2" names="809" precision="FP16">
					<dim>1</dim>
					<dim>16</dim>
					<dim>104</dim>
					<dim>104</dim>
				</port>
			</output>
		</layer>
		<layer id="100" name="Clip_149" type="Clamp" version="opset1">
			<data max="6" min="0"/>
			<input>
				<port id="0" precision="FP16">
					<dim>1</dim>
					<dim>16</dim>
					<dim>104</dim>
					<dim>104</dim>
				</port>
			</input>
			<output>
				<port id="1" names="812" precision="FP16">
					<dim>1</dim>
					<dim>16</dim>
					<dim>104</dim>
					<dim>104</dim>
				</port>
			</output>
		</layer>
		<layer id="101" name="77941278" type="Const" version="opset1">
			<data element_type="f16" offset="177346" shape="1, 1, 1, 1" size="2"/>
			<output>
				<port id="0" names="779" precision="FP16">
					<dim>1</dim>
					<dim>1</dim>
					<dim>1</dim>
					<dim>1</dim>
				</port>
			</output>
		</layer>
		<layer id="102" name="Div_151" type="Multiply" version="opset1">
			<data auto_broadcast="numpy"/>
			<input>
				<port id="0" precision="FP16">
					<dim>1</dim>
					<dim>16</dim>
					<dim>104</dim>
					<dim>104</dim>
				</port>
				<port id="1" precision="FP16">
					<dim>1</dim>
					<dim>1</dim>
					<dim>1</dim>
					<dim>1</dim>
				</port>
			</input>
			<output>
				<port id="2" names="814" precision="FP16">
					<dim>1</dim>
					<dim>16</dim>
					<dim>104</dim>
					<dim>104</dim>
				</port>
			</output>
		</layer>
		<layer id="103" name="Mul_152" type="Multiply" version="opset1">
			<data auto_broadcast="numpy"/>
			<input>
				<port id="0" precision="FP16">
					<dim>1</dim>
					<dim>16</dim>
					<dim>104</dim>
					<dim>104</dim>
				</port>
				<port id="1" precision="FP16">
					<dim>1</dim>
					<dim>16</dim>
					<dim>104</dim>
					<dim>104</dim>
				</port>
			</input>
			<output>
				<port id="2" names="815" precision="FP16">
					<dim>1</dim>
					<dim>16</dim>
					<dim>104</dim>
					<dim>104</dim>
				</port>
			</output>
		</layer>
		<layer id="104" name="Concat_173" type="Concat" version="opset1">
			<data axis="1"/>
			<input>
				<port id="0" precision="FP16">
					<dim>1</dim>
					<dim>16</dim>
					<dim>104</dim>
					<dim>104</dim>
				</port>
				<port id="1" precision="FP16">
					<dim>1</dim>
					<dim>16</dim>
					<dim>104</dim>
					<dim>104</dim>
				</port>
			</input>
			<output>
				<port id="2" names="839" precision="FP16">
					<dim>1</dim>
					<dim>32</dim>
					<dim>104</dim>
					<dim>104</dim>
				</port>
			</output>
		</layer>
		<layer id="105" name="1682" type="Const" version="opset1">
			<data element_type="f16" offset="182276" shape="32, 32, 1, 1" size="2048"/>
			<output>
				<port id="0" names="1682" precision="FP16">
					<dim>32</dim>
					<dim>32</dim>
					<dim>1</dim>
					<dim>1</dim>
				</port>
			</output>
		</layer>
		<layer id="106" name="Conv_174/WithoutBiases" type="Convolution" version="opset1">
			<data auto_pad="explicit" dilations="1, 1" pads_begin="0, 0" pads_end="0, 0" strides="1, 1"/>
			<input>
				<port id="0" precision="FP16">
					<dim>1</dim>
					<dim>32</dim>
					<dim>104</dim>
					<dim>104</dim>
				</port>
				<port id="1" precision="FP16">
					<dim>32</dim>
					<dim>32</dim>
					<dim>1</dim>
					<dim>1</dim>
				</port>
			</input>
			<output>
				<port id="2" precision="FP16">
					<dim>1</dim>
					<dim>32</dim>
					<dim>104</dim>
					<dim>104</dim>
				</port>
			</output>
		</layer>
		<layer id="107" name="Conv_174/Dims9214" type="Const" version="opset1">
			<data element_type="f16" offset="184324" shape="1, 32, 1, 1" size="64"/>
			<output>
				<port id="0" precision="FP16">
					<dim>1</dim>
					<dim>32</dim>
					<dim>1</dim>
					<dim>1</dim>
				</port>
			</output>
		</layer>
		<layer id="108" name="Conv_174" type="Add" version="opset1">
			<data auto_broadcast="numpy"/>
			<input>
				<port id="0" precision="FP16">
					<dim>1</dim>
					<dim>32</dim>
					<dim>104</dim>
					<dim>104</dim>
				</port>
				<port id="1" precision="FP16">
					<dim>1</dim>
					<dim>32</dim>
					<dim>1</dim>
					<dim>1</dim>
				</port>
			</input>
			<output>
				<port id="2" names="1681" precision="FP16">
					<dim>1</dim>
					<dim>32</dim>
					<dim>104</dim>
					<dim>104</dim>
				</port>
			</output>
		</layer>
		<layer id="109" name="77641155" type="Const" version="opset1">
			<data element_type="f16" offset="177344" shape="1, 1, 1, 1" size="2"/>
			<output>
				<port id="0" names="776" precision="FP16">
					<dim>1</dim>
					<dim>1</dim>
					<dim>1</dim>
					<dim>1</dim>
				</port>
			</output>
		</layer>
		<layer id="110" name="Add_176" type="Add" version="opset1">
			<data auto_broadcast="numpy"/>
			<input>
				<port id="0" precision="FP16">
					<dim>1</dim>
					<dim>32</dim>
					<dim>104</dim>
					<dim>104</dim>
				</port>
				<port id="1" precision="FP16">
					<dim>1</dim>
					<dim>1</dim>
					<dim>1</dim>
					<dim>1</dim>
				</port>
			</input>
			<output>
				<port id="2" names="843" precision="FP16">
					<dim>1</dim>
					<dim>32</dim>
					<dim>104</dim>
					<dim>104</dim>
				</port>
			</output>
		</layer>
		<layer id="111" name="Clip_179" type="Clamp" version="opset1">
			<data max="6" min="0"/>
			<input>
				<port id="0" precision="FP16">
					<dim>1</dim>
					<dim>32</dim>
					<dim>104</dim>
					<dim>104</dim>
				</port>
			</input>
			<output>
				<port id="1" names="846" precision="FP16">
					<dim>1</dim>
					<dim>32</dim>
					<dim>104</dim>
					<dim>104</dim>
				</port>
			</output>
		</layer>
		<layer id="112" name="77941584" type="Const" version="opset1">
			<data element_type="f16" offset="177346" shape="1, 1, 1, 1" size="2"/>
			<output>
				<port id="0" names="779" precision="FP16">
					<dim>1</dim>
					<dim>1</dim>
					<dim>1</dim>
					<dim>1</dim>
				</port>
			</output>
		</layer>
		<layer id="113" name="Div_181" type="Multiply" version="opset1">
			<data auto_broadcast="numpy"/>
			<input>
				<port id="0" precision="FP16">
					<dim>1</dim>
					<dim>32</dim>
					<dim>104</dim>
					<dim>104</dim>
				</port>
				<port id="1" precision="FP16">
					<dim>1</dim>
					<dim>1</dim>
					<dim>1</dim>
					<dim>1</dim>
				</port>
			</input>
			<output>
				<port id="2" names="848" precision="FP16">
					<dim>1</dim>
					<dim>32</dim>
					<dim>104</dim>
					<dim>104</dim>
				</port>
			</output>
		</layer>
		<layer id="114" name="Mul_182" type="Multiply" version="opset1">
			<data auto_broadcast="numpy"/>
			<input>
				<port id="0" precision="FP16">
					<dim>1</dim>
					<dim>32</dim>
					<dim>104</dim>
					<dim>104</dim>
				</port>
				<port id="1" precision="FP16">
					<dim>1</dim>
					<dim>32</dim>
					<dim>104</dim>
					<dim>104</dim>
				</port>
			</input>
			<output>
				<port id="2" names="849" precision="FP16">
					<dim>1</dim>
					<dim>32</dim>
					<dim>104</dim>
					<dim>104</dim>
				</port>
			</output>
		</layer>
		<layer id="115" name="1685" type="Const" version="opset1">
			<data element_type="f16" offset="184388" shape="32, 1, 1, 3, 3" size="576"/>
			<output>
				<port id="0" names="1685" precision="FP16">
					<dim>32</dim>
					<dim>1</dim>
					<dim>1</dim>
					<dim>3</dim>
					<dim>3</dim>
				</port>
			</output>
		</layer>
		<layer id="116" name="Conv_183/WithoutBiases" type="GroupConvolution" version="opset1">
			<data auto_pad="explicit" dilations="1, 1" pads_begin="1, 1" pads_end="1, 1" strides="2, 2"/>
			<input>
				<port id="0" precision="FP16">
					<dim>1</dim>
					<dim>32</dim>
					<dim>104</dim>
					<dim>104</dim>
				</port>
				<port id="1" precision="FP16">
					<dim>32</dim>
					<dim>1</dim>
					<dim>1</dim>
					<dim>3</dim>
					<dim>3</dim>
				</port>
			</input>
			<output>
				<port id="2" precision="FP16">
					<dim>1</dim>
					<dim>32</dim>
					<dim>52</dim>
					<dim>52</dim>
				</port>
			</output>
		</layer>
		<layer id="117" name="Conv_183/Dims9418" type="Const" version="opset1">
			<data element_type="f16" offset="184964" shape="1, 32, 1, 1" size="64"/>
			<output>
				<port id="0" precision="FP16">
					<dim>1</dim>
					<dim>32</dim>
					<dim>1</dim>
					<dim>1</dim>
				</port>
			</output>
		</layer>
		<layer id="118" name="Conv_183" type="Add" version="opset1">
			<data auto_broadcast="numpy"/>
			<input>
				<port id="0" precision="FP16">
					<dim>1</dim>
					<dim>32</dim>
					<dim>52</dim>
					<dim>52</dim>
				</port>
				<port id="1" precision="FP16">
					<dim>1</dim>
					<dim>32</dim>
					<dim>1</dim>
					<dim>1</dim>
				</port>
			</input>
			<output>
				<port id="2" names="1684" precision="FP16">
					<dim>1</dim>
					<dim>32</dim>
					<dim>52</dim>
					<dim>52</dim>
				</port>
			</output>
		</layer>
		<layer id="119" name="1688" type="Const" version="opset1">
			<data element_type="f16" offset="185028" shape="64, 32, 1, 1" size="4096"/>
			<output>
				<port id="0" names="1688" precision="FP16">
					<dim>64</dim>
					<dim>32</dim>
					<dim>1</dim>
					<dim>1</dim>
				</port>
			</output>
		</layer>
		<layer id="120" name="Conv_184/WithoutBiases" type="Convolution" version="opset1">
			<data auto_pad="explicit" dilations="1, 1" pads_begin="0, 0" pads_end="0, 0" strides="1, 1"/>
			<input>
				<port id="0" precision="FP16">
					<dim>1</dim>
					<dim>32</dim>
					<dim>52</dim>
					<dim>52</dim>
				</port>
				<port id="1" precision="FP16">
					<dim>64</dim>
					<dim>32</dim>
					<dim>1</dim>
					<dim>1</dim>
				</port>
			</input>
			<output>
				<port id="2" precision="FP16">
					<dim>1</dim>
					<dim>64</dim>
					<dim>52</dim>
					<dim>52</dim>
				</port>
			</output>
		</layer>
		<layer id="121" name="Conv_184/Dims9286" type="Const" version="opset1">
			<data element_type="f16" offset="189124" shape="1, 64, 1, 1" size="128"/>
			<output>
				<port id="0" precision="FP16">
					<dim>1</dim>
					<dim>64</dim>
					<dim>1</dim>
					<dim>1</dim>
				</port>
			</output>
		</layer>
		<layer id="122" name="Conv_184" type="Add" version="opset1">
			<data auto_broadcast="numpy"/>
			<input>
				<port id="0" precision="FP16">
					<dim>1</dim>
					<dim>64</dim>
					<dim>52</dim>
					<dim>52</dim>
				</port>
				<port id="1" precision="FP16">
					<dim>1</dim>
					<dim>64</dim>
					<dim>1</dim>
					<dim>1</dim>
				</port>
			</input>
			<output>
				<port id="2" names="1687" precision="FP16">
					<dim>1</dim>
					<dim>64</dim>
					<dim>52</dim>
					<dim>52</dim>
				</port>
			</output>
		</layer>
		<layer id="123" name="77641143" type="Const" version="opset1">
			<data element_type="f16" offset="177344" shape="1, 1, 1, 1" size="2"/>
			<output>
				<port id="0" names="776" precision="FP16">
					<dim>1</dim>
					<dim>1</dim>
					<dim>1</dim>
					<dim>1</dim>
				</port>
			</output>
		</layer>
		<layer id="124" name="Add_186" type="Add" version="opset1">
			<data auto_broadcast="numpy"/>
			<input>
				<port id="0" precision="FP16">
					<dim>1</dim>
					<dim>64</dim>
					<dim>52</dim>
					<dim>52</dim>
				</port>
				<port id="1" precision="FP16">
					<dim>1</dim>
					<dim>1</dim>
					<dim>1</dim>
					<dim>1</dim>
				</port>
			</input>
			<output>
				<port id="2" names="855" precision="FP16">
					<dim>1</dim>
					<dim>64</dim>
					<dim>52</dim>
					<dim>52</dim>
				</port>
			</output>
		</layer>
		<layer id="125" name="Clip_189" type="Clamp" version="opset1">
			<data max="6" min="0"/>
			<input>
				<port id="0" precision="FP16">
					<dim>1</dim>
					<dim>64</dim>
					<dim>52</dim>
					<dim>52</dim>
				</port>
			</input>
			<output>
				<port id="1" names="858" precision="FP16">
					<dim>1</dim>
					<dim>64</dim>
					<dim>52</dim>
					<dim>52</dim>
				</port>
			</output>
		</layer>
		<layer id="126" name="77941305" type="Const" version="opset1">
			<data element_type="f16" offset="177346" shape="1, 1, 1, 1" size="2"/>
			<output>
				<port id="0" names="779" precision="FP16">
					<dim>1</dim>
					<dim>1</dim>
					<dim>1</dim>
					<dim>1</dim>
				</port>
			</output>
		</layer>
		<layer id="127" name="Div_191" type="Multiply" version="opset1">
			<data auto_broadcast="numpy"/>
			<input>
				<port id="0" precision="FP16">
					<dim>1</dim>
					<dim>64</dim>
					<dim>52</dim>
					<dim>52</dim>
				</port>
				<port id="1" precision="FP16">
					<dim>1</dim>
					<dim>1</dim>
					<dim>1</dim>
					<dim>1</dim>
				</port>
			</input>
			<output>
				<port id="2" names="860" precision="FP16">
					<dim>1</dim>
					<dim>64</dim>
					<dim>52</dim>
					<dim>52</dim>
				</port>
			</output>
		</layer>
		<layer id="128" name="Mul_192" type="Multiply" version="opset1">
			<data auto_broadcast="numpy"/>
			<input>
				<port id="0" precision="FP16">
					<dim>1</dim>
					<dim>64</dim>
					<dim>52</dim>
					<dim>52</dim>
				</port>
				<port id="1" precision="FP16">
					<dim>1</dim>
					<dim>64</dim>
					<dim>52</dim>
					<dim>52</dim>
				</port>
			</input>
			<output>
				<port id="2" names="861" precision="FP16">
					<dim>1</dim>
					<dim>64</dim>
					<dim>52</dim>
					<dim>52</dim>
				</port>
			</output>
		</layer>
		<layer id="129" name="1691" type="Const" version="opset1">
			<data element_type="f16" offset="189252" shape="32, 64, 1, 1" size="4096"/>
			<output>
				<port id="0" names="1691" precision="FP16">
					<dim>32</dim>
					<dim>64</dim>
					<dim>1</dim>
					<dim>1</dim>
				</port>
			</output>
		</layer>
		<layer id="130" name="Conv_193/WithoutBiases" type="Convolution" version="opset1">
			<data auto_pad="explicit" dilations="1, 1" pads_begin="0, 0" pads_end="0, 0" strides="1, 1"/>
			<input>
				<port id="0" precision="FP16">
					<dim>1</dim>
					<dim>64</dim>
					<dim>52</dim>
					<dim>52</dim>
				</port>
				<port id="1" precision="FP16">
					<dim>32</dim>
					<dim>64</dim>
					<dim>1</dim>
					<dim>1</dim>
				</port>
			</input>
			<output>
				<port id="2" precision="FP16">
					<dim>1</dim>
					<dim>32</dim>
					<dim>52</dim>
					<dim>52</dim>
				</port>
			</output>
		</layer>
		<layer id="131" name="Conv_193/Dims9802" type="Const" version="opset1">
			<data element_type="f16" offset="193348" shape="1, 32, 1, 1" size="64"/>
			<output>
				<port id="0" precision="FP16">
					<dim>1</dim>
					<dim>32</dim>
					<dim>1</dim>
					<dim>1</dim>
				</port>
			</output>
		</layer>
		<layer id="132" name="Conv_193" type="Add" version="opset1">
			<data auto_broadcast="numpy"/>
			<input>
				<port id="0" precision="FP16">
					<dim>1</dim>
					<dim>32</dim>
					<dim>52</dim>
					<dim>52</dim>
				</port>
				<port id="1" precision="FP16">
					<dim>1</dim>
					<dim>32</dim>
					<dim>1</dim>
					<dim>1</dim>
				</port>
			</input>
			<output>
				<port id="2" names="1690" precision="FP16">
					<dim>1</dim>
					<dim>32</dim>
					<dim>52</dim>
					<dim>52</dim>
				</port>
			</output>
		</layer>
		<layer id="133" name="77641992" type="Const" version="opset1">
			<data element_type="f16" offset="177344" shape="1, 1, 1, 1" size="2"/>
			<output>
				<port id="0" names="776" precision="FP16">
					<dim>1</dim>
					<dim>1</dim>
					<dim>1</dim>
					<dim>1</dim>
				</port>
			</output>
		</layer>
		<layer id="134" name="Add_195" type="Add" version="opset1">
			<data auto_broadcast="numpy"/>
			<input>
				<port id="0" precision="FP16">
					<dim>1</dim>
					<dim>32</dim>
					<dim>52</dim>
					<dim>52</dim>
				</port>
				<port id="1" precision="FP16">
					<dim>1</dim>
					<dim>1</dim>
					<dim>1</dim>
					<dim>1</dim>
				</port>
			</input>
			<output>
				<port id="2" names="865" precision="FP16">
					<dim>1</dim>
					<dim>32</dim>
					<dim>52</dim>
					<dim>52</dim>
				</port>
			</output>
		</layer>
		<layer id="135" name="Clip_198" type="Clamp" version="opset1">
			<data max="6" min="0"/>
			<input>
				<port id="0" precision="FP16">
					<dim>1</dim>
					<dim>32</dim>
					<dim>52</dim>
					<dim>52</dim>
				</port>
			</input>
			<output>
				<port id="1" names="868" precision="FP16">
					<dim>1</dim>
					<dim>32</dim>
					<dim>52</dim>
					<dim>52</dim>
				</port>
			</output>
		</layer>
		<layer id="136" name="77941326" type="Const" version="opset1">
			<data element_type="f16" offset="177346" shape="1, 1, 1, 1" size="2"/>
			<output>
				<port id="0" names="779" precision="FP16">
					<dim>1</dim>
					<dim>1</dim>
					<dim>1</dim>
					<dim>1</dim>
				</port>
			</output>
		</layer>
		<layer id="137" name="Div_200" type="Multiply" version="opset1">
			<data auto_broadcast="numpy"/>
			<input>
				<port id="0" precision="FP16">
					<dim>1</dim>
					<dim>32</dim>
					<dim>52</dim>
					<dim>52</dim>
				</port>
				<port id="1" precision="FP16">
					<dim>1</dim>
					<dim>1</dim>
					<dim>1</dim>
					<dim>1</dim>
				</port>
			</input>
			<output>
				<port id="2" names="870" precision="FP16">
					<dim>1</dim>
					<dim>32</dim>
					<dim>52</dim>
					<dim>52</dim>
				</port>
			</output>
		</layer>
		<layer id="138" name="Mul_201" type="Multiply" version="opset1">
			<data auto_broadcast="numpy"/>
			<input>
				<port id="0" precision="FP16">
					<dim>1</dim>
					<dim>32</dim>
					<dim>52</dim>
					<dim>52</dim>
				</port>
				<port id="1" precision="FP16">
					<dim>1</dim>
					<dim>32</dim>
					<dim>52</dim>
					<dim>52</dim>
				</port>
			</input>
			<output>
				<port id="2" names="871" precision="FP16">
					<dim>1</dim>
					<dim>32</dim>
					<dim>52</dim>
					<dim>52</dim>
				</port>
			</output>
		</layer>
		<layer id="139" name="1697" type="Const" version="opset1">
			<data element_type="f16" offset="193412" shape="32, 32, 1, 1" size="2048"/>
			<output>
				<port id="0" names="1697" precision="FP16">
					<dim>32</dim>
					<dim>32</dim>
					<dim>1</dim>
					<dim>1</dim>
				</port>
			</output>
		</layer>
		<layer id="140" name="Conv_211/WithoutBiases" type="Convolution" version="opset1">
			<data auto_pad="explicit" dilations="1, 1" pads_begin="0, 0" pads_end="0, 0" strides="1, 1"/>
			<input>
				<port id="0" precision="FP16">
					<dim>1</dim>
					<dim>32</dim>
					<dim>52</dim>
					<dim>52</dim>
				</port>
				<port id="1" precision="FP16">
					<dim>32</dim>
					<dim>32</dim>
					<dim>1</dim>
					<dim>1</dim>
				</port>
			</input>
			<output>
				<port id="2" precision="FP16">
					<dim>1</dim>
					<dim>32</dim>
					<dim>52</dim>
					<dim>52</dim>
				</port>
			</output>
		</layer>
		<layer id="141" name="Conv_211/Dims9868" type="Const" version="opset1">
			<data element_type="f16" offset="195460" shape="1, 32, 1, 1" size="64"/>
			<output>
				<port id="0" precision="FP16">
					<dim>1</dim>
					<dim>32</dim>
					<dim>1</dim>
					<dim>1</dim>
				</port>
			</output>
		</layer>
		<layer id="142" name="Conv_211" type="Add" version="opset1">
			<data auto_broadcast="numpy"/>
			<input>
				<port id="0" precision="FP16">
					<dim>1</dim>
					<dim>32</dim>
					<dim>52</dim>
					<dim>52</dim>
				</port>
				<port id="1" precision="FP16">
					<dim>1</dim>
					<dim>32</dim>
					<dim>1</dim>
					<dim>1</dim>
				</port>
			</input>
			<output>
				<port id="2" names="1696" precision="FP16">
					<dim>1</dim>
					<dim>32</dim>
					<dim>52</dim>
					<dim>52</dim>
				</port>
			</output>
		</layer>
		<layer id="143" name="77641947" type="Const" version="opset1">
			<data element_type="f16" offset="177344" shape="1, 1, 1, 1" size="2"/>
			<output>
				<port id="0" names="776" precision="FP16">
					<dim>1</dim>
					<dim>1</dim>
					<dim>1</dim>
					<dim>1</dim>
				</port>
			</output>
		</layer>
		<layer id="144" name="Add_213" type="Add" version="opset1">
			<data auto_broadcast="numpy"/>
			<input>
				<port id="0" precision="FP16">
					<dim>1</dim>
					<dim>32</dim>
					<dim>52</dim>
					<dim>52</dim>
				</port>
				<port id="1" precision="FP16">
					<dim>1</dim>
					<dim>1</dim>
					<dim>1</dim>
					<dim>1</dim>
				</port>
			</input>
			<output>
				<port id="2" names="885" precision="FP16">
					<dim>1</dim>
					<dim>32</dim>
					<dim>52</dim>
					<dim>52</dim>
				</port>
			</output>
		</layer>
		<layer id="145" name="Clip_216" type="Clamp" version="opset1">
			<data max="6" min="0"/>
			<input>
				<port id="0" precision="FP16">
					<dim>1</dim>
					<dim>32</dim>
					<dim>52</dim>
					<dim>52</dim>
				</port>
			</input>
			<output>
				<port id="1" names="888" precision="FP16">
					<dim>1</dim>
					<dim>32</dim>
					<dim>52</dim>
					<dim>52</dim>
				</port>
			</output>
		</layer>
		<layer id="146" name="77941791" type="Const" version="opset1">
			<data element_type="f16" offset="177346" shape="1, 1, 1, 1" size="2"/>
			<output>
				<port id="0" names="779" precision="FP16">
					<dim>1</dim>
					<dim>1</dim>
					<dim>1</dim>
					<dim>1</dim>
				</port>
			</output>
		</layer>
		<layer id="147" name="Div_218" type="Multiply" version="opset1">
			<data auto_broadcast="numpy"/>
			<input>
				<port id="0" precision="FP16">
					<dim>1</dim>
					<dim>32</dim>
					<dim>52</dim>
					<dim>52</dim>
				</port>
				<port id="1" precision="FP16">
					<dim>1</dim>
					<dim>1</dim>
					<dim>1</dim>
					<dim>1</dim>
				</port>
			</input>
			<output>
				<port id="2" names="890" precision="FP16">
					<dim>1</dim>
					<dim>32</dim>
					<dim>52</dim>
					<dim>52</dim>
				</port>
			</output>
		</layer>
		<layer id="148" name="Mul_219" type="Multiply" version="opset1">
			<data auto_broadcast="numpy"/>
			<input>
				<port id="0" precision="FP16">
					<dim>1</dim>
					<dim>32</dim>
					<dim>52</dim>
					<dim>52</dim>
				</port>
				<port id="1" precision="FP16">
					<dim>1</dim>
					<dim>32</dim>
					<dim>52</dim>
					<dim>52</dim>
				</port>
			</input>
			<output>
				<port id="2" names="891" precision="FP16">
					<dim>1</dim>
					<dim>32</dim>
					<dim>52</dim>
					<dim>52</dim>
				</port>
			</output>
		</layer>
		<layer id="149" name="1700" type="Const" version="opset1">
			<data element_type="f16" offset="195524" shape="32, 1, 1, 3, 3" size="576"/>
			<output>
				<port id="0" names="1700" precision="FP16">
					<dim>32</dim>
					<dim>1</dim>
					<dim>1</dim>
					<dim>3</dim>
					<dim>3</dim>
				</port>
			</output>
		</layer>
		<layer id="150" name="Conv_220/WithoutBiases" type="GroupConvolution" version="opset1">
			<data auto_pad="explicit" dilations="1, 1" pads_begin="1, 1" pads_end="1, 1" strides="1, 1"/>
			<input>
				<port id="0" precision="FP16">
					<dim>1</dim>
					<dim>32</dim>
					<dim>52</dim>
					<dim>52</dim>
				</port>
				<port id="1" precision="FP16">
					<dim>32</dim>
					<dim>1</dim>
					<dim>1</dim>
					<dim>3</dim>
					<dim>3</dim>
				</port>
			</input>
			<output>
				<port id="2" precision="FP16">
					<dim>1</dim>
					<dim>32</dim>
					<dim>52</dim>
					<dim>52</dim>
				</port>
			</output>
		</layer>
		<layer id="151" name="Conv_220/Dims9592" type="Const" version="opset1">
			<data element_type="f16" offset="196100" shape="1, 32, 1, 1" size="64"/>
			<output>
				<port id="0" precision="FP16">
					<dim>1</dim>
					<dim>32</dim>
					<dim>1</dim>
					<dim>1</dim>
				</port>
			</output>
		</layer>
		<layer id="152" name="Conv_220" type="Add" version="opset1">
			<data auto_broadcast="numpy"/>
			<input>
				<port id="0" precision="FP16">
					<dim>1</dim>
					<dim>32</dim>
					<dim>52</dim>
					<dim>52</dim>
				</port>
				<port id="1" precision="FP16">
					<dim>1</dim>
					<dim>32</dim>
					<dim>1</dim>
					<dim>1</dim>
				</port>
			</input>
			<output>
				<port id="2" names="1699" precision="FP16">
					<dim>1</dim>
					<dim>32</dim>
					<dim>52</dim>
					<dim>52</dim>
				</port>
			</output>
		</layer>
		<layer id="153" name="1703" type="Const" version="opset1">
			<data element_type="f16" offset="196164" shape="32, 32, 1, 1" size="2048"/>
			<output>
				<port id="0" names="1703" precision="FP16">
					<dim>32</dim>
					<dim>32</dim>
					<dim>1</dim>
					<dim>1</dim>
				</port>
			</output>
		</layer>
		<layer id="154" name="Conv_221/WithoutBiases" type="Convolution" version="opset1">
			<data auto_pad="explicit" dilations="1, 1" pads_begin="0, 0" pads_end="0, 0" strides="1, 1"/>
			<input>
				<port id="0" precision="FP16">
					<dim>1</dim>
					<dim>32</dim>
					<dim>52</dim>
					<dim>52</dim>
				</port>
				<port id="1" precision="FP16">
					<dim>32</dim>
					<dim>32</dim>
					<dim>1</dim>
					<dim>1</dim>
				</port>
			</input>
			<output>
				<port id="2" precision="FP16">
					<dim>1</dim>
					<dim>32</dim>
					<dim>52</dim>
					<dim>52</dim>
				</port>
			</output>
		</layer>
		<layer id="155" name="Conv_221/Dims9334" type="Const" version="opset1">
			<data element_type="f16" offset="198212" shape="1, 32, 1, 1" size="64"/>
			<output>
				<port id="0" precision="FP16">
					<dim>1</dim>
					<dim>32</dim>
					<dim>1</dim>
					<dim>1</dim>
				</port>
			</output>
		</layer>
		<layer id="156" name="Conv_221" type="Add" version="opset1">
			<data auto_broadcast="numpy"/>
			<input>
				<port id="0" precision="FP16">
					<dim>1</dim>
					<dim>32</dim>
					<dim>52</dim>
					<dim>52</dim>
				</port>
				<port id="1" precision="FP16">
					<dim>1</dim>
					<dim>32</dim>
					<dim>1</dim>
					<dim>1</dim>
				</port>
			</input>
			<output>
				<port id="2" names="1702" precision="FP16">
					<dim>1</dim>
					<dim>32</dim>
					<dim>52</dim>
					<dim>52</dim>
				</port>
			</output>
		</layer>
		<layer id="157" name="77641863" type="Const" version="opset1">
			<data element_type="f16" offset="177344" shape="1, 1, 1, 1" size="2"/>
			<output>
				<port id="0" names="776" precision="FP16">
					<dim>1</dim>
					<dim>1</dim>
					<dim>1</dim>
					<dim>1</dim>
				</port>
			</output>
		</layer>
		<layer id="158" name="Add_223" type="Add" version="opset1">
			<data auto_broadcast="numpy"/>
			<input>
				<port id="0" precision="FP16">
					<dim>1</dim>
					<dim>32</dim>
					<dim>52</dim>
					<dim>52</dim>
				</port>
				<port id="1" precision="FP16">
					<dim>1</dim>
					<dim>1</dim>
					<dim>1</dim>
					<dim>1</dim>
				</port>
			</input>
			<output>
				<port id="2" names="897" precision="FP16">
					<dim>1</dim>
					<dim>32</dim>
					<dim>52</dim>
					<dim>52</dim>
				</port>
			</output>
		</layer>
		<layer id="159" name="Clip_226" type="Clamp" version="opset1">
			<data max="6" min="0"/>
			<input>
				<port id="0" precision="FP16">
					<dim>1</dim>
					<dim>32</dim>
					<dim>52</dim>
					<dim>52</dim>
				</port>
			</input>
			<output>
				<port id="1" names="900" precision="FP16">
					<dim>1</dim>
					<dim>32</dim>
					<dim>52</dim>
					<dim>52</dim>
				</port>
			</output>
		</layer>
		<layer id="160" name="77942280" type="Const" version="opset1">
			<data element_type="f16" offset="177346" shape="1, 1, 1, 1" size="2"/>
			<output>
				<port id="0" names="779" precision="FP16">
					<dim>1</dim>
					<dim>1</dim>
					<dim>1</dim>
					<dim>1</dim>
				</port>
			</output>
		</layer>
		<layer id="161" name="Div_228" type="Multiply" version="opset1">
			<data auto_broadcast="numpy"/>
			<input>
				<port id="0" precision="FP16">
					<dim>1</dim>
					<dim>32</dim>
					<dim>52</dim>
					<dim>52</dim>
				</port>
				<port id="1" precision="FP16">
					<dim>1</dim>
					<dim>1</dim>
					<dim>1</dim>
					<dim>1</dim>
				</port>
			</input>
			<output>
				<port id="2" names="902" precision="FP16">
					<dim>1</dim>
					<dim>32</dim>
					<dim>52</dim>
					<dim>52</dim>
				</port>
			</output>
		</layer>
		<layer id="162" name="Mul_229" type="Multiply" version="opset1">
			<data auto_broadcast="numpy"/>
			<input>
				<port id="0" precision="FP16">
					<dim>1</dim>
					<dim>32</dim>
					<dim>52</dim>
					<dim>52</dim>
				</port>
				<port id="1" precision="FP16">
					<dim>1</dim>
					<dim>32</dim>
					<dim>52</dim>
					<dim>52</dim>
				</port>
			</input>
			<output>
				<port id="2" names="903" precision="FP16">
					<dim>1</dim>
					<dim>32</dim>
					<dim>52</dim>
					<dim>52</dim>
				</port>
			</output>
		</layer>
		<layer id="163" name="Add_230" type="Add" version="opset1">
			<data auto_broadcast="numpy"/>
			<input>
				<port id="0" precision="FP16">
					<dim>1</dim>
					<dim>32</dim>
					<dim>52</dim>
					<dim>52</dim>
				</port>
				<port id="1" precision="FP16">
					<dim>1</dim>
					<dim>32</dim>
					<dim>52</dim>
					<dim>52</dim>
				</port>
			</input>
			<output>
				<port id="2" names="904" precision="FP16">
					<dim>1</dim>
					<dim>32</dim>
					<dim>52</dim>
					<dim>52</dim>
				</port>
			</output>
		</layer>
		<layer id="164" name="1706" type="Const" version="opset1">
			<data element_type="f16" offset="198276" shape="32, 32, 1, 1" size="2048"/>
			<output>
				<port id="0" names="1706" precision="FP16">
					<dim>32</dim>
					<dim>32</dim>
					<dim>1</dim>
					<dim>1</dim>
				</port>
			</output>
		</layer>
		<layer id="165" name="Conv_231/WithoutBiases" type="Convolution" version="opset1">
			<data auto_pad="explicit" dilations="1, 1" pads_begin="0, 0" pads_end="0, 0" strides="1, 1"/>
			<input>
				<port id="0" precision="FP16">
					<dim>1</dim>
					<dim>32</dim>
					<dim>52</dim>
					<dim>52</dim>
				</port>
				<port id="1" precision="FP16">
					<dim>32</dim>
					<dim>32</dim>
					<dim>1</dim>
					<dim>1</dim>
				</port>
			</input>
			<output>
				<port id="2" precision="FP16">
					<dim>1</dim>
					<dim>32</dim>
					<dim>52</dim>
					<dim>52</dim>
				</port>
			</output>
		</layer>
		<layer id="166" name="Conv_231/Dims9472" type="Const" version="opset1">
			<data element_type="f16" offset="200324" shape="1, 32, 1, 1" size="64"/>
			<output>
				<port id="0" precision="FP16">
					<dim>1</dim>
					<dim>32</dim>
					<dim>1</dim>
					<dim>1</dim>
				</port>
			</output>
		</layer>
		<layer id="167" name="Conv_231" type="Add" version="opset1">
			<data auto_broadcast="numpy"/>
			<input>
				<port id="0" precision="FP16">
					<dim>1</dim>
					<dim>32</dim>
					<dim>52</dim>
					<dim>52</dim>
				</port>
				<port id="1" precision="FP16">
					<dim>1</dim>
					<dim>32</dim>
					<dim>1</dim>
					<dim>1</dim>
				</port>
			</input>
			<output>
				<port id="2" names="1705" precision="FP16">
					<dim>1</dim>
					<dim>32</dim>
					<dim>52</dim>
					<dim>52</dim>
				</port>
			</output>
		</layer>
		<layer id="168" name="77641782" type="Const" version="opset1">
			<data element_type="f16" offset="177344" shape="1, 1, 1, 1" size="2"/>
			<output>
				<port id="0" names="776" precision="FP16">
					<dim>1</dim>
					<dim>1</dim>
					<dim>1</dim>
					<dim>1</dim>
				</port>
			</output>
		</layer>
		<layer id="169" name="Add_233" type="Add" version="opset1">
			<data auto_broadcast="numpy"/>
			<input>
				<port id="0" precision="FP16">
					<dim>1</dim>
					<dim>32</dim>
					<dim>52</dim>
					<dim>52</dim>
				</port>
				<port id="1" precision="FP16">
					<dim>1</dim>
					<dim>1</dim>
					<dim>1</dim>
					<dim>1</dim>
				</port>
			</input>
			<output>
				<port id="2" names="908" precision="FP16">
					<dim>1</dim>
					<dim>32</dim>
					<dim>52</dim>
					<dim>52</dim>
				</port>
			</output>
		</layer>
		<layer id="170" name="Clip_236" type="Clamp" version="opset1">
			<data max="6" min="0"/>
			<input>
				<port id="0" precision="FP16">
					<dim>1</dim>
					<dim>32</dim>
					<dim>52</dim>
					<dim>52</dim>
				</port>
			</input>
			<output>
				<port id="1" names="911" precision="FP16">
					<dim>1</dim>
					<dim>32</dim>
					<dim>52</dim>
					<dim>52</dim>
				</port>
			</output>
		</layer>
		<layer id="171" name="77941464" type="Const" version="opset1">
			<data element_type="f16" offset="177346" shape="1, 1, 1, 1" size="2"/>
			<output>
				<port id="0" names="779" precision="FP16">
					<dim>1</dim>
					<dim>1</dim>
					<dim>1</dim>
					<dim>1</dim>
				</port>
			</output>
		</layer>
		<layer id="172" name="Div_238" type="Multiply" version="opset1">
			<data auto_broadcast="numpy"/>
			<input>
				<port id="0" precision="FP16">
					<dim>1</dim>
					<dim>32</dim>
					<dim>52</dim>
					<dim>52</dim>
				</port>
				<port id="1" precision="FP16">
					<dim>1</dim>
					<dim>1</dim>
					<dim>1</dim>
					<dim>1</dim>
				</port>
			</input>
			<output>
				<port id="2" names="913" precision="FP16">
					<dim>1</dim>
					<dim>32</dim>
					<dim>52</dim>
					<dim>52</dim>
				</port>
			</output>
		</layer>
		<layer id="173" name="Mul_239" type="Multiply" version="opset1">
			<data auto_broadcast="numpy"/>
			<input>
				<port id="0" precision="FP16">
					<dim>1</dim>
					<dim>32</dim>
					<dim>52</dim>
					<dim>52</dim>
				</port>
				<port id="1" precision="FP16">
					<dim>1</dim>
					<dim>32</dim>
					<dim>52</dim>
					<dim>52</dim>
				</port>
			</input>
			<output>
				<port id="2" names="914" precision="FP16">
					<dim>1</dim>
					<dim>32</dim>
					<dim>52</dim>
					<dim>52</dim>
				</port>
			</output>
		</layer>
		<layer id="174" name="1709" type="Const" version="opset1">
			<data element_type="f16" offset="200388" shape="32, 1, 1, 3, 3" size="576"/>
			<output>
				<port id="0" names="1709" precision="FP16">
					<dim>32</dim>
					<dim>1</dim>
					<dim>1</dim>
					<dim>3</dim>
					<dim>3</dim>
				</port>
			</output>
		</layer>
		<layer id="175" name="Conv_240/WithoutBiases" type="GroupConvolution" version="opset1">
			<data auto_pad="explicit" dilations="1, 1" pads_begin="1, 1" pads_end="1, 1" strides="1, 1"/>
			<input>
				<port id="0" precision="FP16">
					<dim>1</dim>
					<dim>32</dim>
					<dim>52</dim>
					<dim>52</dim>
				</port>
				<port id="1" precision="FP16">
					<dim>32</dim>
					<dim>1</dim>
					<dim>1</dim>
					<dim>3</dim>
					<dim>3</dim>
				</port>
			</input>
			<output>
				<port id="2" precision="FP16">
					<dim>1</dim>
					<dim>32</dim>
					<dim>52</dim>
					<dim>52</dim>
				</port>
			</output>
		</layer>
		<layer id="176" name="Conv_240/Dims9664" type="Const" version="opset1">
			<data element_type="f16" offset="200964" shape="1, 32, 1, 1" size="64"/>
			<output>
				<port id="0" precision="FP16">
					<dim>1</dim>
					<dim>32</dim>
					<dim>1</dim>
					<dim>1</dim>
				</port>
			</output>
		</layer>
		<layer id="177" name="Conv_240" type="Add" version="opset1">
			<data auto_broadcast="numpy"/>
			<input>
				<port id="0" precision="FP16">
					<dim>1</dim>
					<dim>32</dim>
					<dim>52</dim>
					<dim>52</dim>
				</port>
				<port id="1" precision="FP16">
					<dim>1</dim>
					<dim>32</dim>
					<dim>1</dim>
					<dim>1</dim>
				</port>
			</input>
			<output>
				<port id="2" names="1708" precision="FP16">
					<dim>1</dim>
					<dim>32</dim>
					<dim>52</dim>
					<dim>52</dim>
				</port>
			</output>
		</layer>
		<layer id="178" name="1712" type="Const" version="opset1">
			<data element_type="f16" offset="201028" shape="32, 32, 1, 1" size="2048"/>
			<output>
				<port id="0" names="1712" precision="FP16">
					<dim>32</dim>
					<dim>32</dim>
					<dim>1</dim>
					<dim>1</dim>
				</port>
			</output>
		</layer>
		<layer id="179" name="Conv_241/WithoutBiases" type="Convolution" version="opset1">
			<data auto_pad="explicit" dilations="1, 1" pads_begin="0, 0" pads_end="0, 0" strides="1, 1"/>
			<input>
				<port id="0" precision="FP16">
					<dim>1</dim>
					<dim>32</dim>
					<dim>52</dim>
					<dim>52</dim>
				</port>
				<port id="1" precision="FP16">
					<dim>32</dim>
					<dim>32</dim>
					<dim>1</dim>
					<dim>1</dim>
				</port>
			</input>
			<output>
				<port id="2" precision="FP16">
					<dim>1</dim>
					<dim>32</dim>
					<dim>52</dim>
					<dim>52</dim>
				</port>
			</output>
		</layer>
		<layer id="180" name="Conv_241/Dims9532" type="Const" version="opset1">
			<data element_type="f16" offset="203076" shape="1, 32, 1, 1" size="64"/>
			<output>
				<port id="0" precision="FP16">
					<dim>1</dim>
					<dim>32</dim>
					<dim>1</dim>
					<dim>1</dim>
				</port>
			</output>
		</layer>
		<layer id="181" name="Conv_241" type="Add" version="opset1">
			<data auto_broadcast="numpy"/>
			<input>
				<port id="0" precision="FP16">
					<dim>1</dim>
					<dim>32</dim>
					<dim>52</dim>
					<dim>52</dim>
				</port>
				<port id="1" precision="FP16">
					<dim>1</dim>
					<dim>32</dim>
					<dim>1</dim>
					<dim>1</dim>
				</port>
			</input>
			<output>
				<port id="2" names="1711" precision="FP16">
					<dim>1</dim>
					<dim>32</dim>
					<dim>52</dim>
					<dim>52</dim>
				</port>
			</output>
		</layer>
		<layer id="182" name="77641929" type="Const" version="opset1">
			<data element_type="f16" offset="177344" shape="1, 1, 1, 1" size="2"/>
			<output>
				<port id="0" names="776" precision="FP16">
					<dim>1</dim>
					<dim>1</dim>
					<dim>1</dim>
					<dim>1</dim>
				</port>
			</output>
		</layer>
		<layer id="183" name="Add_243" type="Add" version="opset1">
			<data auto_broadcast="numpy"/>
			<input>
				<port id="0" precision="FP16">
					<dim>1</dim>
					<dim>32</dim>
					<dim>52</dim>
					<dim>52</dim>
				</port>
				<port id="1" precision="FP16">
					<dim>1</dim>
					<dim>1</dim>
					<dim>1</dim>
					<dim>1</dim>
				</port>
			</input>
			<output>
				<port id="2" names="920" precision="FP16">
					<dim>1</dim>
					<dim>32</dim>
					<dim>52</dim>
					<dim>52</dim>
				</port>
			</output>
		</layer>
		<layer id="184" name="Clip_246" type="Clamp" version="opset1">
			<data max="6" min="0"/>
			<input>
				<port id="0" precision="FP16">
					<dim>1</dim>
					<dim>32</dim>
					<dim>52</dim>
					<dim>52</dim>
				</port>
			</input>
			<output>
				<port id="1" names="923" precision="FP16">
					<dim>1</dim>
					<dim>32</dim>
					<dim>52</dim>
					<dim>52</dim>
				</port>
			</output>
		</layer>
		<layer id="185" name="77941320" type="Const" version="opset1">
			<data element_type="f16" offset="177346" shape="1, 1, 1, 1" size="2"/>
			<output>
				<port id="0" names="779" precision="FP16">
					<dim>1</dim>
					<dim>1</dim>
					<dim>1</dim>
					<dim>1</dim>
				</port>
			</output>
		</layer>
		<layer id="186" name="Div_248" type="Multiply" version="opset1">
			<data auto_broadcast="numpy"/>
			<input>
				<port id="0" precision="FP16">
					<dim>1</dim>
					<dim>32</dim>
					<dim>52</dim>
					<dim>52</dim>
				</port>
				<port id="1" precision="FP16">
					<dim>1</dim>
					<dim>1</dim>
					<dim>1</dim>
					<dim>1</dim>
				</port>
			</input>
			<output>
				<port id="2" names="925" precision="FP16">
					<dim>1</dim>
					<dim>32</dim>
					<dim>52</dim>
					<dim>52</dim>
				</port>
			</output>
		</layer>
		<layer id="187" name="Mul_249" type="Multiply" version="opset1">
			<data auto_broadcast="numpy"/>
			<input>
				<port id="0" precision="FP16">
					<dim>1</dim>
					<dim>32</dim>
					<dim>52</dim>
					<dim>52</dim>
				</port>
				<port id="1" precision="FP16">
					<dim>1</dim>
					<dim>32</dim>
					<dim>52</dim>
					<dim>52</dim>
				</port>
			</input>
			<output>
				<port id="2" names="926" precision="FP16">
					<dim>1</dim>
					<dim>32</dim>
					<dim>52</dim>
					<dim>52</dim>
				</port>
			</output>
		</layer>
		<layer id="188" name="Add_250" type="Add" version="opset1">
			<data auto_broadcast="numpy"/>
			<input>
				<port id="0" precision="FP16">
					<dim>1</dim>
					<dim>32</dim>
					<dim>52</dim>
					<dim>52</dim>
				</port>
				<port id="1" precision="FP16">
					<dim>1</dim>
					<dim>32</dim>
					<dim>52</dim>
					<dim>52</dim>
				</port>
			</input>
			<output>
				<port id="2" names="927" precision="FP16">
					<dim>1</dim>
					<dim>32</dim>
					<dim>52</dim>
					<dim>52</dim>
				</port>
			</output>
		</layer>
		<layer id="189" name="1715" type="Const" version="opset1">
			<data element_type="f16" offset="203140" shape="32, 32, 1, 1" size="2048"/>
			<output>
				<port id="0" names="1715" precision="FP16">
					<dim>32</dim>
					<dim>32</dim>
					<dim>1</dim>
					<dim>1</dim>
				</port>
			</output>
		</layer>
		<layer id="190" name="Conv_251/WithoutBiases" type="Convolution" version="opset1">
			<data auto_pad="explicit" dilations="1, 1" pads_begin="0, 0" pads_end="0, 0" strides="1, 1"/>
			<input>
				<port id="0" precision="FP16">
					<dim>1</dim>
					<dim>32</dim>
					<dim>52</dim>
					<dim>52</dim>
				</port>
				<port id="1" precision="FP16">
					<dim>32</dim>
					<dim>32</dim>
					<dim>1</dim>
					<dim>1</dim>
				</port>
			</input>
			<output>
				<port id="2" precision="FP16">
					<dim>1</dim>
					<dim>32</dim>
					<dim>52</dim>
					<dim>52</dim>
				</port>
			</output>
		</layer>
		<layer id="191" name="Conv_251/Dims9700" type="Const" version="opset1">
			<data element_type="f16" offset="205188" shape="1, 32, 1, 1" size="64"/>
			<output>
				<port id="0" precision="FP16">
					<dim>1</dim>
					<dim>32</dim>
					<dim>1</dim>
					<dim>1</dim>
				</port>
			</output>
		</layer>
		<layer id="192" name="Conv_251" type="Add" version="opset1">
			<data auto_broadcast="numpy"/>
			<input>
				<port id="0" precision="FP16">
					<dim>1</dim>
					<dim>32</dim>
					<dim>52</dim>
					<dim>52</dim>
				</port>
				<port id="1" precision="FP16">
					<dim>1</dim>
					<dim>32</dim>
					<dim>1</dim>
					<dim>1</dim>
				</port>
			</input>
			<output>
				<port id="2" names="1714" precision="FP16">
					<dim>1</dim>
					<dim>32</dim>
					<dim>52</dim>
					<dim>52</dim>
				</port>
			</output>
		</layer>
		<layer id="193" name="77642220" type="Const" version="opset1">
			<data element_type="f16" offset="177344" shape="1, 1, 1, 1" size="2"/>
			<output>
				<port id="0" names="776" precision="FP16">
					<dim>1</dim>
					<dim>1</dim>
					<dim>1</dim>
					<dim>1</dim>
				</port>
			</output>
		</layer>
		<layer id="194" name="Add_253" type="Add" version="opset1">
			<data auto_broadcast="numpy"/>
			<input>
				<port id="0" precision="FP16">
					<dim>1</dim>
					<dim>32</dim>
					<dim>52</dim>
					<dim>52</dim>
				</port>
				<port id="1" precision="FP16">
					<dim>1</dim>
					<dim>1</dim>
					<dim>1</dim>
					<dim>1</dim>
				</port>
			</input>
			<output>
				<port id="2" names="931" precision="FP16">
					<dim>1</dim>
					<dim>32</dim>
					<dim>52</dim>
					<dim>52</dim>
				</port>
			</output>
		</layer>
		<layer id="195" name="Clip_256" type="Clamp" version="opset1">
			<data max="6" min="0"/>
			<input>
				<port id="0" precision="FP16">
					<dim>1</dim>
					<dim>32</dim>
					<dim>52</dim>
					<dim>52</dim>
				</port>
			</input>
			<output>
				<port id="1" names="934" precision="FP16">
					<dim>1</dim>
					<dim>32</dim>
					<dim>52</dim>
					<dim>52</dim>
				</port>
			</output>
		</layer>
		<layer id="196" name="77941611" type="Const" version="opset1">
			<data element_type="f16" offset="177346" shape="1, 1, 1, 1" size="2"/>
			<output>
				<port id="0" names="779" precision="FP16">
					<dim>1</dim>
					<dim>1</dim>
					<dim>1</dim>
					<dim>1</dim>
				</port>
			</output>
		</layer>
		<layer id="197" name="Div_258" type="Multiply" version="opset1">
			<data auto_broadcast="numpy"/>
			<input>
				<port id="0" precision="FP16">
					<dim>1</dim>
					<dim>32</dim>
					<dim>52</dim>
					<dim>52</dim>
				</port>
				<port id="1" precision="FP16">
					<dim>1</dim>
					<dim>1</dim>
					<dim>1</dim>
					<dim>1</dim>
				</port>
			</input>
			<output>
				<port id="2" names="936" precision="FP16">
					<dim>1</dim>
					<dim>32</dim>
					<dim>52</dim>
					<dim>52</dim>
				</port>
			</output>
		</layer>
		<layer id="198" name="Mul_259" type="Multiply" version="opset1">
			<data auto_broadcast="numpy"/>
			<input>
				<port id="0" precision="FP16">
					<dim>1</dim>
					<dim>32</dim>
					<dim>52</dim>
					<dim>52</dim>
				</port>
				<port id="1" precision="FP16">
					<dim>1</dim>
					<dim>32</dim>
					<dim>52</dim>
					<dim>52</dim>
				</port>
			</input>
			<output>
				<port id="2" names="937" precision="FP16">
					<dim>1</dim>
					<dim>32</dim>
					<dim>52</dim>
					<dim>52</dim>
				</port>
			</output>
		</layer>
		<layer id="199" name="1718" type="Const" version="opset1">
			<data element_type="f16" offset="205252" shape="32, 1, 1, 3, 3" size="576"/>
			<output>
				<port id="0" names="1718" precision="FP16">
					<dim>32</dim>
					<dim>1</dim>
					<dim>1</dim>
					<dim>3</dim>
					<dim>3</dim>
				</port>
			</output>
		</layer>
		<layer id="200" name="Conv_260/WithoutBiases" type="GroupConvolution" version="opset1">
			<data auto_pad="explicit" dilations="1, 1" pads_begin="1, 1" pads_end="1, 1" strides="1, 1"/>
			<input>
				<port id="0" precision="FP16">
					<dim>1</dim>
					<dim>32</dim>
					<dim>52</dim>
					<dim>52</dim>
				</port>
				<port id="1" precision="FP16">
					<dim>32</dim>
					<dim>1</dim>
					<dim>1</dim>
					<dim>3</dim>
					<dim>3</dim>
				</port>
			</input>
			<output>
				<port id="2" precision="FP16">
					<dim>1</dim>
					<dim>32</dim>
					<dim>52</dim>
					<dim>52</dim>
				</port>
			</output>
		</layer>
		<layer id="201" name="Conv_260/Dims9178" type="Const" version="opset1">
			<data element_type="f16" offset="205828" shape="1, 32, 1, 1" size="64"/>
			<output>
				<port id="0" precision="FP16">
					<dim>1</dim>
					<dim>32</dim>
					<dim>1</dim>
					<dim>1</dim>
				</port>
			</output>
		</layer>
		<layer id="202" name="Conv_260" type="Add" version="opset1">
			<data auto_broadcast="numpy"/>
			<input>
				<port id="0" precision="FP16">
					<dim>1</dim>
					<dim>32</dim>
					<dim>52</dim>
					<dim>52</dim>
				</port>
				<port id="1" precision="FP16">
					<dim>1</dim>
					<dim>32</dim>
					<dim>1</dim>
					<dim>1</dim>
				</port>
			</input>
			<output>
				<port id="2" names="1717" precision="FP16">
					<dim>1</dim>
					<dim>32</dim>
					<dim>52</dim>
					<dim>52</dim>
				</port>
			</output>
		</layer>
		<layer id="203" name="1721" type="Const" version="opset1">
			<data element_type="f16" offset="205892" shape="32, 32, 1, 1" size="2048"/>
			<output>
				<port id="0" names="1721" precision="FP16">
					<dim>32</dim>
					<dim>32</dim>
					<dim>1</dim>
					<dim>1</dim>
				</port>
			</output>
		</layer>
		<layer id="204" name="Conv_261/WithoutBiases" type="Convolution" version="opset1">
			<data auto_pad="explicit" dilations="1, 1" pads_begin="0, 0" pads_end="0, 0" strides="1, 1"/>
			<input>
				<port id="0" precision="FP16">
					<dim>1</dim>
					<dim>32</dim>
					<dim>52</dim>
					<dim>52</dim>
				</port>
				<port id="1" precision="FP16">
					<dim>32</dim>
					<dim>32</dim>
					<dim>1</dim>
					<dim>1</dim>
				</port>
			</input>
			<output>
				<port id="2" precision="FP16">
					<dim>1</dim>
					<dim>32</dim>
					<dim>52</dim>
					<dim>52</dim>
				</port>
			</output>
		</layer>
		<layer id="205" name="Conv_261/Dims9772" type="Const" version="opset1">
			<data element_type="f16" offset="207940" shape="1, 32, 1, 1" size="64"/>
			<output>
				<port id="0" precision="FP16">
					<dim>1</dim>
					<dim>32</dim>
					<dim>1</dim>
					<dim>1</dim>
				</port>
			</output>
		</layer>
		<layer id="206" name="Conv_261" type="Add" version="opset1">
			<data auto_broadcast="numpy"/>
			<input>
				<port id="0" precision="FP16">
					<dim>1</dim>
					<dim>32</dim>
					<dim>52</dim>
					<dim>52</dim>
				</port>
				<port id="1" precision="FP16">
					<dim>1</dim>
					<dim>32</dim>
					<dim>1</dim>
					<dim>1</dim>
				</port>
			</input>
			<output>
				<port id="2" names="1720" precision="FP16">
					<dim>1</dim>
					<dim>32</dim>
					<dim>52</dim>
					<dim>52</dim>
				</port>
			</output>
		</layer>
		<layer id="207" name="77641116" type="Const" version="opset1">
			<data element_type="f16" offset="177344" shape="1, 1, 1, 1" size="2"/>
			<output>
				<port id="0" names="776" precision="FP16">
					<dim>1</dim>
					<dim>1</dim>
					<dim>1</dim>
					<dim>1</dim>
				</port>
			</output>
		</layer>
		<layer id="208" name="Add_263" type="Add" version="opset1">
			<data auto_broadcast="numpy"/>
			<input>
				<port id="0" precision="FP16">
					<dim>1</dim>
					<dim>32</dim>
					<dim>52</dim>
					<dim>52</dim>
				</port>
				<port id="1" precision="FP16">
					<dim>1</dim>
					<dim>1</dim>
					<dim>1</dim>
					<dim>1</dim>
				</port>
			</input>
			<output>
				<port id="2" names="943" precision="FP16">
					<dim>1</dim>
					<dim>32</dim>
					<dim>52</dim>
					<dim>52</dim>
				</port>
			</output>
		</layer>
		<layer id="209" name="Clip_266" type="Clamp" version="opset1">
			<data max="6" min="0"/>
			<input>
				<port id="0" precision="FP16">
					<dim>1</dim>
					<dim>32</dim>
					<dim>52</dim>
					<dim>52</dim>
				</port>
			</input>
			<output>
				<port id="1" names="946" precision="FP16">
					<dim>1</dim>
					<dim>32</dim>
					<dim>52</dim>
					<dim>52</dim>
				</port>
			</output>
		</layer>
		<layer id="210" name="77941251" type="Const" version="opset1">
			<data element_type="f16" offset="177346" shape="1, 1, 1, 1" size="2"/>
			<output>
				<port id="0" names="779" precision="FP16">
					<dim>1</dim>
					<dim>1</dim>
					<dim>1</dim>
					<dim>1</dim>
				</port>
			</output>
		</layer>
		<layer id="211" name="Div_268" type="Multiply" version="opset1">
			<data auto_broadcast="numpy"/>
			<input>
				<port id="0" precision="FP16">
					<dim>1</dim>
					<dim>32</dim>
					<dim>52</dim>
					<dim>52</dim>
				</port>
				<port id="1" precision="FP16">
					<dim>1</dim>
					<dim>1</dim>
					<dim>1</dim>
					<dim>1</dim>
				</port>
			</input>
			<output>
				<port id="2" names="948" precision="FP16">
					<dim>1</dim>
					<dim>32</dim>
					<dim>52</dim>
					<dim>52</dim>
				</port>
			</output>
		</layer>
		<layer id="212" name="Mul_269" type="Multiply" version="opset1">
			<data auto_broadcast="numpy"/>
			<input>
				<port id="0" precision="FP16">
					<dim>1</dim>
					<dim>32</dim>
					<dim>52</dim>
					<dim>52</dim>
				</port>
				<port id="1" precision="FP16">
					<dim>1</dim>
					<dim>32</dim>
					<dim>52</dim>
					<dim>52</dim>
				</port>
			</input>
			<output>
				<port id="2" names="949" precision="FP16">
					<dim>1</dim>
					<dim>32</dim>
					<dim>52</dim>
					<dim>52</dim>
				</port>
			</output>
		</layer>
		<layer id="213" name="Add_270" type="Add" version="opset1">
			<data auto_broadcast="numpy"/>
			<input>
				<port id="0" precision="FP16">
					<dim>1</dim>
					<dim>32</dim>
					<dim>52</dim>
					<dim>52</dim>
				</port>
				<port id="1" precision="FP16">
					<dim>1</dim>
					<dim>32</dim>
					<dim>52</dim>
					<dim>52</dim>
				</port>
			</input>
			<output>
				<port id="2" names="950" precision="FP16">
					<dim>1</dim>
					<dim>32</dim>
					<dim>52</dim>
					<dim>52</dim>
				</port>
			</output>
		</layer>
		<layer id="214" name="1694" type="Const" version="opset1">
			<data element_type="f16" offset="208004" shape="32, 64, 1, 1" size="4096"/>
			<output>
				<port id="0" names="1694" precision="FP16">
					<dim>32</dim>
					<dim>64</dim>
					<dim>1</dim>
					<dim>1</dim>
				</port>
			</output>
		</layer>
		<layer id="215" name="Conv_202/WithoutBiases" type="Convolution" version="opset1">
			<data auto_pad="explicit" dilations="1, 1" pads_begin="0, 0" pads_end="0, 0" strides="1, 1"/>
			<input>
				<port id="0" precision="FP16">
					<dim>1</dim>
					<dim>64</dim>
					<dim>52</dim>
					<dim>52</dim>
				</port>
				<port id="1" precision="FP16">
					<dim>32</dim>
					<dim>64</dim>
					<dim>1</dim>
					<dim>1</dim>
				</port>
			</input>
			<output>
				<port id="2" precision="FP16">
					<dim>1</dim>
					<dim>32</dim>
					<dim>52</dim>
					<dim>52</dim>
				</port>
			</output>
		</layer>
		<layer id="216" name="Conv_202/Dims9712" type="Const" version="opset1">
			<data element_type="f16" offset="212100" shape="1, 32, 1, 1" size="64"/>
			<output>
				<port id="0" precision="FP16">
					<dim>1</dim>
					<dim>32</dim>
					<dim>1</dim>
					<dim>1</dim>
				</port>
			</output>
		</layer>
		<layer id="217" name="Conv_202" type="Add" version="opset1">
			<data auto_broadcast="numpy"/>
			<input>
				<port id="0" precision="FP16">
					<dim>1</dim>
					<dim>32</dim>
					<dim>52</dim>
					<dim>52</dim>
				</port>
				<port id="1" precision="FP16">
					<dim>1</dim>
					<dim>32</dim>
					<dim>1</dim>
					<dim>1</dim>
				</port>
			</input>
			<output>
				<port id="2" names="1693" precision="FP16">
					<dim>1</dim>
					<dim>32</dim>
					<dim>52</dim>
					<dim>52</dim>
				</port>
			</output>
		</layer>
		<layer id="218" name="77642172" type="Const" version="opset1">
			<data element_type="f16" offset="177344" shape="1, 1, 1, 1" size="2"/>
			<output>
				<port id="0" names="776" precision="FP16">
					<dim>1</dim>
					<dim>1</dim>
					<dim>1</dim>
					<dim>1</dim>
				</port>
			</output>
		</layer>
		<layer id="219" name="Add_204" type="Add" version="opset1">
			<data auto_broadcast="numpy"/>
			<input>
				<port id="0" precision="FP16">
					<dim>1</dim>
					<dim>32</dim>
					<dim>52</dim>
					<dim>52</dim>
				</port>
				<port id="1" precision="FP16">
					<dim>1</dim>
					<dim>1</dim>
					<dim>1</dim>
					<dim>1</dim>
				</port>
			</input>
			<output>
				<port id="2" names="875" precision="FP16">
					<dim>1</dim>
					<dim>32</dim>
					<dim>52</dim>
					<dim>52</dim>
				</port>
			</output>
		</layer>
		<layer id="220" name="Clip_207" type="Clamp" version="opset1">
			<data max="6" min="0"/>
			<input>
				<port id="0" precision="FP16">
					<dim>1</dim>
					<dim>32</dim>
					<dim>52</dim>
					<dim>52</dim>
				</port>
			</input>
			<output>
				<port id="1" names="878" precision="FP16">
					<dim>1</dim>
					<dim>32</dim>
					<dim>52</dim>
					<dim>52</dim>
				</port>
			</output>
		</layer>
		<layer id="221" name="77942334" type="Const" version="opset1">
			<data element_type="f16" offset="177346" shape="1, 1, 1, 1" size="2"/>
			<output>
				<port id="0" names="779" precision="FP16">
					<dim>1</dim>
					<dim>1</dim>
					<dim>1</dim>
					<dim>1</dim>
				</port>
			</output>
		</layer>
		<layer id="222" name="Div_209" type="Multiply" version="opset1">
			<data auto_broadcast="numpy"/>
			<input>
				<port id="0" precision="FP16">
					<dim>1</dim>
					<dim>32</dim>
					<dim>52</dim>
					<dim>52</dim>
				</port>
				<port id="1" precision="FP16">
					<dim>1</dim>
					<dim>1</dim>
					<dim>1</dim>
					<dim>1</dim>
				</port>
			</input>
			<output>
				<port id="2" names="880" precision="FP16">
					<dim>1</dim>
					<dim>32</dim>
					<dim>52</dim>
					<dim>52</dim>
				</port>
			</output>
		</layer>
		<layer id="223" name="Mul_210" type="Multiply" version="opset1">
			<data auto_broadcast="numpy"/>
			<input>
				<port id="0" precision="FP16">
					<dim>1</dim>
					<dim>32</dim>
					<dim>52</dim>
					<dim>52</dim>
				</port>
				<port id="1" precision="FP16">
					<dim>1</dim>
					<dim>32</dim>
					<dim>52</dim>
					<dim>52</dim>
				</port>
			</input>
			<output>
				<port id="2" names="881" precision="FP16">
					<dim>1</dim>
					<dim>32</dim>
					<dim>52</dim>
					<dim>52</dim>
				</port>
			</output>
		</layer>
		<layer id="224" name="Concat_271" type="Concat" version="opset1">
			<data axis="1"/>
			<input>
				<port id="0" precision="FP16">
					<dim>1</dim>
					<dim>32</dim>
					<dim>52</dim>
					<dim>52</dim>
				</port>
				<port id="1" precision="FP16">
					<dim>1</dim>
					<dim>32</dim>
					<dim>52</dim>
					<dim>52</dim>
				</port>
			</input>
			<output>
				<port id="2" names="951" precision="FP16">
					<dim>1</dim>
					<dim>64</dim>
					<dim>52</dim>
					<dim>52</dim>
				</port>
			</output>
		</layer>
		<layer id="225" name="1724" type="Const" version="opset1">
			<data element_type="f16" offset="212164" shape="64, 64, 1, 1" size="8192"/>
			<output>
				<port id="0" names="1724" precision="FP16">
					<dim>64</dim>
					<dim>64</dim>
					<dim>1</dim>
					<dim>1</dim>
				</port>
			</output>
		</layer>
		<layer id="226" name="Conv_272/WithoutBiases" type="Convolution" version="opset1">
			<data auto_pad="explicit" dilations="1, 1" pads_begin="0, 0" pads_end="0, 0" strides="1, 1"/>
			<input>
				<port id="0" precision="FP16">
					<dim>1</dim>
					<dim>64</dim>
					<dim>52</dim>
					<dim>52</dim>
				</port>
				<port id="1" precision="FP16">
					<dim>64</dim>
					<dim>64</dim>
					<dim>1</dim>
					<dim>1</dim>
				</port>
			</input>
			<output>
				<port id="2" precision="FP16">
					<dim>1</dim>
					<dim>64</dim>
					<dim>52</dim>
					<dim>52</dim>
				</port>
			</output>
		</layer>
		<layer id="227" name="Conv_272/Dims9478" type="Const" version="opset1">
			<data element_type="f16" offset="220356" shape="1, 64, 1, 1" size="128"/>
			<output>
				<port id="0" precision="FP16">
					<dim>1</dim>
					<dim>64</dim>
					<dim>1</dim>
					<dim>1</dim>
				</port>
			</output>
		</layer>
		<layer id="228" name="Conv_272" type="Add" version="opset1">
			<data auto_broadcast="numpy"/>
			<input>
				<port id="0" precision="FP16">
					<dim>1</dim>
					<dim>64</dim>
					<dim>52</dim>
					<dim>52</dim>
				</port>
				<port id="1" precision="FP16">
					<dim>1</dim>
					<dim>64</dim>
					<dim>1</dim>
					<dim>1</dim>
				</port>
			</input>
			<output>
				<port id="2" names="1723" precision="FP16">
					<dim>1</dim>
					<dim>64</dim>
					<dim>52</dim>
					<dim>52</dim>
				</port>
			</output>
		</layer>
		<layer id="229" name="77641188" type="Const" version="opset1">
			<data element_type="f16" offset="177344" shape="1, 1, 1, 1" size="2"/>
			<output>
				<port id="0" names="776" precision="FP16">
					<dim>1</dim>
					<dim>1</dim>
					<dim>1</dim>
					<dim>1</dim>
				</port>
			</output>
		</layer>
		<layer id="230" name="Add_274" type="Add" version="opset1">
			<data auto_broadcast="numpy"/>
			<input>
				<port id="0" precision="FP16">
					<dim>1</dim>
					<dim>64</dim>
					<dim>52</dim>
					<dim>52</dim>
				</port>
				<port id="1" precision="FP16">
					<dim>1</dim>
					<dim>1</dim>
					<dim>1</dim>
					<dim>1</dim>
				</port>
			</input>
			<output>
				<port id="2" names="955" precision="FP16">
					<dim>1</dim>
					<dim>64</dim>
					<dim>52</dim>
					<dim>52</dim>
				</port>
			</output>
		</layer>
		<layer id="231" name="Clip_277" type="Clamp" version="opset1">
			<data max="6" min="0"/>
			<input>
				<port id="0" precision="FP16">
					<dim>1</dim>
					<dim>64</dim>
					<dim>52</dim>
					<dim>52</dim>
				</port>
			</input>
			<output>
				<port id="1" names="958" precision="FP16">
					<dim>1</dim>
					<dim>64</dim>
					<dim>52</dim>
					<dim>52</dim>
				</port>
			</output>
		</layer>
		<layer id="232" name="77942295" type="Const" version="opset1">
			<data element_type="f16" offset="177346" shape="1, 1, 1, 1" size="2"/>
			<output>
				<port id="0" names="779" precision="FP16">
					<dim>1</dim>
					<dim>1</dim>
					<dim>1</dim>
					<dim>1</dim>
				</port>
			</output>
		</layer>
		<layer id="233" name="Div_279" type="Multiply" version="opset1">
			<data auto_broadcast="numpy"/>
			<input>
				<port id="0" precision="FP16">
					<dim>1</dim>
					<dim>64</dim>
					<dim>52</dim>
					<dim>52</dim>
				</port>
				<port id="1" precision="FP16">
					<dim>1</dim>
					<dim>1</dim>
					<dim>1</dim>
					<dim>1</dim>
				</port>
			</input>
			<output>
				<port id="2" names="960" precision="FP16">
					<dim>1</dim>
					<dim>64</dim>
					<dim>52</dim>
					<dim>52</dim>
				</port>
			</output>
		</layer>
		<layer id="234" name="Mul_280" type="Multiply" version="opset1">
			<data auto_broadcast="numpy"/>
			<input>
				<port id="0" precision="FP16">
					<dim>1</dim>
					<dim>64</dim>
					<dim>52</dim>
					<dim>52</dim>
				</port>
				<port id="1" precision="FP16">
					<dim>1</dim>
					<dim>64</dim>
					<dim>52</dim>
					<dim>52</dim>
				</port>
			</input>
			<output>
				<port id="2" names="961" precision="FP16">
					<dim>1</dim>
					<dim>64</dim>
					<dim>52</dim>
					<dim>52</dim>
				</port>
			</output>
		</layer>
		<layer id="235" name="1727" type="Const" version="opset1">
			<data element_type="f16" offset="220484" shape="64, 1, 1, 3, 3" size="1152"/>
			<output>
				<port id="0" names="1727" precision="FP16">
					<dim>64</dim>
					<dim>1</dim>
					<dim>1</dim>
					<dim>3</dim>
					<dim>3</dim>
				</port>
			</output>
		</layer>
		<layer id="236" name="Conv_281/WithoutBiases" type="GroupConvolution" version="opset1">
			<data auto_pad="explicit" dilations="1, 1" pads_begin="1, 1" pads_end="1, 1" strides="2, 2"/>
			<input>
				<port id="0" precision="FP16">
					<dim>1</dim>
					<dim>64</dim>
					<dim>52</dim>
					<dim>52</dim>
				</port>
				<port id="1" precision="FP16">
					<dim>64</dim>
					<dim>1</dim>
					<dim>1</dim>
					<dim>3</dim>
					<dim>3</dim>
				</port>
			</input>
			<output>
				<port id="2" precision="FP16">
					<dim>1</dim>
					<dim>64</dim>
					<dim>26</dim>
					<dim>26</dim>
				</port>
			</output>
		</layer>
		<layer id="237" name="Conv_281/Dims9466" type="Const" version="opset1">
			<data element_type="f16" offset="221636" shape="1, 64, 1, 1" size="128"/>
			<output>
				<port id="0" precision="FP16">
					<dim>1</dim>
					<dim>64</dim>
					<dim>1</dim>
					<dim>1</dim>
				</port>
			</output>
		</layer>
		<layer id="238" name="Conv_281" type="Add" version="opset1">
			<data auto_broadcast="numpy"/>
			<input>
				<port id="0" precision="FP16">
					<dim>1</dim>
					<dim>64</dim>
					<dim>26</dim>
					<dim>26</dim>
				</port>
				<port id="1" precision="FP16">
					<dim>1</dim>
					<dim>64</dim>
					<dim>1</dim>
					<dim>1</dim>
				</port>
			</input>
			<output>
				<port id="2" names="1726" precision="FP16">
					<dim>1</dim>
					<dim>64</dim>
					<dim>26</dim>
					<dim>26</dim>
				</port>
			</output>
		</layer>
		<layer id="239" name="1730" type="Const" version="opset1">
			<data element_type="f16" offset="221764" shape="128, 64, 1, 1" size="16384"/>
			<output>
				<port id="0" names="1730" precision="FP16">
					<dim>128</dim>
					<dim>64</dim>
					<dim>1</dim>
					<dim>1</dim>
				</port>
			</output>
		</layer>
		<layer id="240" name="Conv_282/WithoutBiases" type="Convolution" version="opset1">
			<data auto_pad="explicit" dilations="1, 1" pads_begin="0, 0" pads_end="0, 0" strides="1, 1"/>
			<input>
				<port id="0" precision="FP16">
					<dim>1</dim>
					<dim>64</dim>
					<dim>26</dim>
					<dim>26</dim>
				</port>
				<port id="1" precision="FP16">
					<dim>128</dim>
					<dim>64</dim>
					<dim>1</dim>
					<dim>1</dim>
				</port>
			</input>
			<output>
				<port id="2" precision="FP16">
					<dim>1</dim>
					<dim>128</dim>
					<dim>26</dim>
					<dim>26</dim>
				</port>
			</output>
		</layer>
		<layer id="241" name="Conv_282/Dims9442" type="Const" version="opset1">
			<data element_type="f16" offset="238148" shape="1, 128, 1, 1" size="256"/>
			<output>
				<port id="0" precision="FP16">
					<dim>1</dim>
					<dim>128</dim>
					<dim>1</dim>
					<dim>1</dim>
				</port>
			</output>
		</layer>
		<layer id="242" name="Conv_282" type="Add" version="opset1">
			<data auto_broadcast="numpy"/>
			<input>
				<port id="0" precision="FP16">
					<dim>1</dim>
					<dim>128</dim>
					<dim>26</dim>
					<dim>26</dim>
				</port>
				<port id="1" precision="FP16">
					<dim>1</dim>
					<dim>128</dim>
					<dim>1</dim>
					<dim>1</dim>
				</port>
			</input>
			<output>
				<port id="2" names="1729" precision="FP16">
					<dim>1</dim>
					<dim>128</dim>
					<dim>26</dim>
					<dim>26</dim>
				</port>
			</output>
		</layer>
		<layer id="243" name="77641683" type="Const" version="opset1">
			<data element_type="f16" offset="177344" shape="1, 1, 1, 1" size="2"/>
			<output>
				<port id="0" names="776" precision="FP16">
					<dim>1</dim>
					<dim>1</dim>
					<dim>1</dim>
					<dim>1</dim>
				</port>
			</output>
		</layer>
		<layer id="244" name="Add_284" type="Add" version="opset1">
			<data auto_broadcast="numpy"/>
			<input>
				<port id="0" precision="FP16">
					<dim>1</dim>
					<dim>128</dim>
					<dim>26</dim>
					<dim>26</dim>
				</port>
				<port id="1" precision="FP16">
					<dim>1</dim>
					<dim>1</dim>
					<dim>1</dim>
					<dim>1</dim>
				</port>
			</input>
			<output>
				<port id="2" names="967" precision="FP16">
					<dim>1</dim>
					<dim>128</dim>
					<dim>26</dim>
					<dim>26</dim>
				</port>
			</output>
		</layer>
		<layer id="245" name="Clip_287" type="Clamp" version="opset1">
			<data max="6" min="0"/>
			<input>
				<port id="0" precision="FP16">
					<dim>1</dim>
					<dim>128</dim>
					<dim>26</dim>
					<dim>26</dim>
				</port>
			</input>
			<output>
				<port id="1" names="970" precision="FP16">
					<dim>1</dim>
					<dim>128</dim>
					<dim>26</dim>
					<dim>26</dim>
				</port>
			</output>
		</layer>
		<layer id="246" name="77942046" type="Const" version="opset1">
			<data element_type="f16" offset="177346" shape="1, 1, 1, 1" size="2"/>
			<output>
				<port id="0" names="779" precision="FP16">
					<dim>1</dim>
					<dim>1</dim>
					<dim>1</dim>
					<dim>1</dim>
				</port>
			</output>
		</layer>
		<layer id="247" name="Div_289" type="Multiply" version="opset1">
			<data auto_broadcast="numpy"/>
			<input>
				<port id="0" precision="FP16">
					<dim>1</dim>
					<dim>128</dim>
					<dim>26</dim>
					<dim>26</dim>
				</port>
				<port id="1" precision="FP16">
					<dim>1</dim>
					<dim>1</dim>
					<dim>1</dim>
					<dim>1</dim>
				</port>
			</input>
			<output>
				<port id="2" names="972" precision="FP16">
					<dim>1</dim>
					<dim>128</dim>
					<dim>26</dim>
					<dim>26</dim>
				</port>
			</output>
		</layer>
		<layer id="248" name="Mul_290" type="Multiply" version="opset1">
			<data auto_broadcast="numpy"/>
			<input>
				<port id="0" precision="FP16">
					<dim>1</dim>
					<dim>128</dim>
					<dim>26</dim>
					<dim>26</dim>
				</port>
				<port id="1" precision="FP16">
					<dim>1</dim>
					<dim>128</dim>
					<dim>26</dim>
					<dim>26</dim>
				</port>
			</input>
			<output>
				<port id="2" names="973" precision="FP16">
					<dim>1</dim>
					<dim>128</dim>
					<dim>26</dim>
					<dim>26</dim>
				</port>
			</output>
		</layer>
		<layer id="249" name="1733" type="Const" version="opset1">
			<data element_type="f16" offset="238404" shape="64, 128, 1, 1" size="16384"/>
			<output>
				<port id="0" names="1733" precision="FP16">
					<dim>64</dim>
					<dim>128</dim>
					<dim>1</dim>
					<dim>1</dim>
				</port>
			</output>
		</layer>
		<layer id="250" name="Conv_291/WithoutBiases" type="Convolution" version="opset1">
			<data auto_pad="explicit" dilations="1, 1" pads_begin="0, 0" pads_end="0, 0" strides="1, 1"/>
			<input>
				<port id="0" precision="FP16">
					<dim>1</dim>
					<dim>128</dim>
					<dim>26</dim>
					<dim>26</dim>
				</port>
				<port id="1" precision="FP16">
					<dim>64</dim>
					<dim>128</dim>
					<dim>1</dim>
					<dim>1</dim>
				</port>
			</input>
			<output>
				<port id="2" precision="FP16">
					<dim>1</dim>
					<dim>64</dim>
					<dim>26</dim>
					<dim>26</dim>
				</port>
			</output>
		</layer>
		<layer id="251" name="Conv_291/Dims9736" type="Const" version="opset1">
			<data element_type="f16" offset="254788" shape="1, 64, 1, 1" size="128"/>
			<output>
				<port id="0" precision="FP16">
					<dim>1</dim>
					<dim>64</dim>
					<dim>1</dim>
					<dim>1</dim>
				</port>
			</output>
		</layer>
		<layer id="252" name="Conv_291" type="Add" version="opset1">
			<data auto_broadcast="numpy"/>
			<input>
				<port id="0" precision="FP16">
					<dim>1</dim>
					<dim>64</dim>
					<dim>26</dim>
					<dim>26</dim>
				</port>
				<port id="1" precision="FP16">
					<dim>1</dim>
					<dim>64</dim>
					<dim>1</dim>
					<dim>1</dim>
				</port>
			</input>
			<output>
				<port id="2" names="1732" precision="FP16">
					<dim>1</dim>
					<dim>64</dim>
					<dim>26</dim>
					<dim>26</dim>
				</port>
			</output>
		</layer>
		<layer id="253" name="77641827" type="Const" version="opset1">
			<data element_type="f16" offset="177344" shape="1, 1, 1, 1" size="2"/>
			<output>
				<port id="0" names="776" precision="FP16">
					<dim>1</dim>
					<dim>1</dim>
					<dim>1</dim>
					<dim>1</dim>
				</port>
			</output>
		</layer>
		<layer id="254" name="Add_293" type="Add" version="opset1">
			<data auto_broadcast="numpy"/>
			<input>
				<port id="0" precision="FP16">
					<dim>1</dim>
					<dim>64</dim>
					<dim>26</dim>
					<dim>26</dim>
				</port>
				<port id="1" precision="FP16">
					<dim>1</dim>
					<dim>1</dim>
					<dim>1</dim>
					<dim>1</dim>
				</port>
			</input>
			<output>
				<port id="2" names="977" precision="FP16">
					<dim>1</dim>
					<dim>64</dim>
					<dim>26</dim>
					<dim>26</dim>
				</port>
			</output>
		</layer>
		<layer id="255" name="Clip_296" type="Clamp" version="opset1">
			<data max="6" min="0"/>
			<input>
				<port id="0" precision="FP16">
					<dim>1</dim>
					<dim>64</dim>
					<dim>26</dim>
					<dim>26</dim>
				</port>
			</input>
			<output>
				<port id="1" names="980" precision="FP16">
					<dim>1</dim>
					<dim>64</dim>
					<dim>26</dim>
					<dim>26</dim>
				</port>
			</output>
		</layer>
		<layer id="256" name="779" type="Const" version="opset1">
			<data element_type="f16" offset="177346" shape="1, 1, 1, 1" size="2"/>
			<output>
				<port id="0" names="779" precision="FP16">
					<dim>1</dim>
					<dim>1</dim>
					<dim>1</dim>
					<dim>1</dim>
				</port>
			</output>
		</layer>
		<layer id="257" name="Div_298" type="Multiply" version="opset1">
			<data auto_broadcast="numpy"/>
			<input>
				<port id="0" precision="FP16">
					<dim>1</dim>
					<dim>64</dim>
					<dim>26</dim>
					<dim>26</dim>
				</port>
				<port id="1" precision="FP16">
					<dim>1</dim>
					<dim>1</dim>
					<dim>1</dim>
					<dim>1</dim>
				</port>
			</input>
			<output>
				<port id="2" names="982" precision="FP16">
					<dim>1</dim>
					<dim>64</dim>
					<dim>26</dim>
					<dim>26</dim>
				</port>
			</output>
		</layer>
		<layer id="258" name="Mul_299" type="Multiply" version="opset1">
			<data auto_broadcast="numpy"/>
			<input>
				<port id="0" precision="FP16">
					<dim>1</dim>
					<dim>64</dim>
					<dim>26</dim>
					<dim>26</dim>
				</port>
				<port id="1" precision="FP16">
					<dim>1</dim>
					<dim>64</dim>
					<dim>26</dim>
					<dim>26</dim>
				</port>
			</input>
			<output>
				<port id="2" names="983" precision="FP16">
					<dim>1</dim>
					<dim>64</dim>
					<dim>26</dim>
					<dim>26</dim>
				</port>
			</output>
		</layer>
		<layer id="259" name="1739" type="Const" version="opset1">
			<data element_type="f16" offset="254916" shape="64, 64, 1, 1" size="8192"/>
			<output>
				<port id="0" names="1739" precision="FP16">
					<dim>64</dim>
					<dim>64</dim>
					<dim>1</dim>
					<dim>1</dim>
				</port>
			</output>
		</layer>
		<layer id="260" name="Conv_309/WithoutBiases" type="Convolution" version="opset1">
			<data auto_pad="explicit" dilations="1, 1" pads_begin="0, 0" pads_end="0, 0" strides="1, 1"/>
			<input>
				<port id="0" precision="FP16">
					<dim>1</dim>
					<dim>64</dim>
					<dim>26</dim>
					<dim>26</dim>
				</port>
				<port id="1" precision="FP16">
					<dim>64</dim>
					<dim>64</dim>
					<dim>1</dim>
					<dim>1</dim>
				</port>
			</input>
			<output>
				<port id="2" precision="FP16">
					<dim>1</dim>
					<dim>64</dim>
					<dim>26</dim>
					<dim>26</dim>
				</port>
			</output>
		</layer>
		<layer id="261" name="Conv_309/Dims9268" type="Const" version="opset1">
			<data element_type="f16" offset="263108" shape="1, 64, 1, 1" size="128"/>
			<output>
				<port id="0" precision="FP16">
					<dim>1</dim>
					<dim>64</dim>
					<dim>1</dim>
					<dim>1</dim>
				</port>
			</output>
		</layer>
		<layer id="262" name="Conv_309" type="Add" version="opset1">
			<data auto_broadcast="numpy"/>
			<input>
				<port id="0" precision="FP16">
					<dim>1</dim>
					<dim>64</dim>
					<dim>26</dim>
					<dim>26</dim>
				</port>
				<port id="1" precision="FP16">
					<dim>1</dim>
					<dim>64</dim>
					<dim>1</dim>
					<dim>1</dim>
				</port>
			</input>
			<output>
				<port id="2" names="1738" precision="FP16">
					<dim>1</dim>
					<dim>64</dim>
					<dim>26</dim>
					<dim>26</dim>
				</port>
			</output>
		</layer>
		<layer id="263" name="77642109" type="Const" version="opset1">
			<data element_type="f16" offset="177344" shape="1, 1, 1, 1" size="2"/>
			<output>
				<port id="0" names="776" precision="FP16">
					<dim>1</dim>
					<dim>1</dim>
					<dim>1</dim>
					<dim>1</dim>
				</port>
			</output>
		</layer>
		<layer id="264" name="Add_311" type="Add" version="opset1">
			<data auto_broadcast="numpy"/>
			<input>
				<port id="0" precision="FP16">
					<dim>1</dim>
					<dim>64</dim>
					<dim>26</dim>
					<dim>26</dim>
				</port>
				<port id="1" precision="FP16">
					<dim>1</dim>
					<dim>1</dim>
					<dim>1</dim>
					<dim>1</dim>
				</port>
			</input>
			<output>
				<port id="2" names="997" precision="FP16">
					<dim>1</dim>
					<dim>64</dim>
					<dim>26</dim>
					<dim>26</dim>
				</port>
			</output>
		</layer>
		<layer id="265" name="Clip_314" type="Clamp" version="opset1">
			<data max="6" min="0"/>
			<input>
				<port id="0" precision="FP16">
					<dim>1</dim>
					<dim>64</dim>
					<dim>26</dim>
					<dim>26</dim>
				</port>
			</input>
			<output>
				<port id="1" names="1000" precision="FP16">
					<dim>1</dim>
					<dim>64</dim>
					<dim>26</dim>
					<dim>26</dim>
				</port>
			</output>
		</layer>
		<layer id="266" name="77941443" type="Const" version="opset1">
			<data element_type="f16" offset="177346" shape="1, 1, 1, 1" size="2"/>
			<output>
				<port id="0" names="779" precision="FP16">
					<dim>1</dim>
					<dim>1</dim>
					<dim>1</dim>
					<dim>1</dim>
				</port>
			</output>
		</layer>
		<layer id="267" name="Div_316" type="Multiply" version="opset1">
			<data auto_broadcast="numpy"/>
			<input>
				<port id="0" precision="FP16">
					<dim>1</dim>
					<dim>64</dim>
					<dim>26</dim>
					<dim>26</dim>
				</port>
				<port id="1" precision="FP16">
					<dim>1</dim>
					<dim>1</dim>
					<dim>1</dim>
					<dim>1</dim>
				</port>
			</input>
			<output>
				<port id="2" names="1002" precision="FP16">
					<dim>1</dim>
					<dim>64</dim>
					<dim>26</dim>
					<dim>26</dim>
				</port>
			</output>
		</layer>
		<layer id="268" name="Mul_317" type="Multiply" version="opset1">
			<data auto_broadcast="numpy"/>
			<input>
				<port id="0" precision="FP16">
					<dim>1</dim>
					<dim>64</dim>
					<dim>26</dim>
					<dim>26</dim>
				</port>
				<port id="1" precision="FP16">
					<dim>1</dim>
					<dim>64</dim>
					<dim>26</dim>
					<dim>26</dim>
				</port>
			</input>
			<output>
				<port id="2" names="1003" precision="FP16">
					<dim>1</dim>
					<dim>64</dim>
					<dim>26</dim>
					<dim>26</dim>
				</port>
			</output>
		</layer>
		<layer id="269" name="1742" type="Const" version="opset1">
			<data element_type="f16" offset="263236" shape="64, 1, 1, 3, 3" size="1152"/>
			<output>
				<port id="0" names="1742" precision="FP16">
					<dim>64</dim>
					<dim>1</dim>
					<dim>1</dim>
					<dim>3</dim>
					<dim>3</dim>
				</port>
			</output>
		</layer>
		<layer id="270" name="Conv_318/WithoutBiases" type="GroupConvolution" version="opset1">
			<data auto_pad="explicit" dilations="1, 1" pads_begin="1, 1" pads_end="1, 1" strides="1, 1"/>
			<input>
				<port id="0" precision="FP16">
					<dim>1</dim>
					<dim>64</dim>
					<dim>26</dim>
					<dim>26</dim>
				</port>
				<port id="1" precision="FP16">
					<dim>64</dim>
					<dim>1</dim>
					<dim>1</dim>
					<dim>3</dim>
					<dim>3</dim>
				</port>
			</input>
			<output>
				<port id="2" precision="FP16">
					<dim>1</dim>
					<dim>64</dim>
					<dim>26</dim>
					<dim>26</dim>
				</port>
			</output>
		</layer>
		<layer id="271" name="Conv_318/Dims9430" type="Const" version="opset1">
			<data element_type="f16" offset="264388" shape="1, 64, 1, 1" size="128"/>
			<output>
				<port id="0" precision="FP16">
					<dim>1</dim>
					<dim>64</dim>
					<dim>1</dim>
					<dim>1</dim>
				</port>
			</output>
		</layer>
		<layer id="272" name="Conv_318" type="Add" version="opset1">
			<data auto_broadcast="numpy"/>
			<input>
				<port id="0" precision="FP16">
					<dim>1</dim>
					<dim>64</dim>
					<dim>26</dim>
					<dim>26</dim>
				</port>
				<port id="1" precision="FP16">
					<dim>1</dim>
					<dim>64</dim>
					<dim>1</dim>
					<dim>1</dim>
				</port>
			</input>
			<output>
				<port id="2" names="1741" precision="FP16">
					<dim>1</dim>
					<dim>64</dim>
					<dim>26</dim>
					<dim>26</dim>
				</port>
			</output>
		</layer>
		<layer id="273" name="1745" type="Const" version="opset1">
			<data element_type="f16" offset="264516" shape="64, 64, 1, 1" size="8192"/>
			<output>
				<port id="0" names="1745" precision="FP16">
					<dim>64</dim>
					<dim>64</dim>
					<dim>1</dim>
					<dim>1</dim>
				</port>
			</output>
		</layer>
		<layer id="274" name="Conv_319/WithoutBiases" type="Convolution" version="opset1">
			<data auto_pad="explicit" dilations="1, 1" pads_begin="0, 0" pads_end="0, 0" strides="1, 1"/>
			<input>
				<port id="0" precision="FP16">
					<dim>1</dim>
					<dim>64</dim>
					<dim>26</dim>
					<dim>26</dim>
				</port>
				<port id="1" precision="FP16">
					<dim>64</dim>
					<dim>64</dim>
					<dim>1</dim>
					<dim>1</dim>
				</port>
			</input>
			<output>
				<port id="2" precision="FP16">
					<dim>1</dim>
					<dim>64</dim>
					<dim>26</dim>
					<dim>26</dim>
				</port>
			</output>
		</layer>
		<layer id="275" name="Conv_319/Dims9196" type="Const" version="opset1">
			<data element_type="f16" offset="272708" shape="1, 64, 1, 1" size="128"/>
			<output>
				<port id="0" precision="FP16">
					<dim>1</dim>
					<dim>64</dim>
					<dim>1</dim>
					<dim>1</dim>
				</port>
			</output>
		</layer>
		<layer id="276" name="Conv_319" type="Add" version="opset1">
			<data auto_broadcast="numpy"/>
			<input>
				<port id="0" precision="FP16">
					<dim>1</dim>
					<dim>64</dim>
					<dim>26</dim>
					<dim>26</dim>
				</port>
				<port id="1" precision="FP16">
					<dim>1</dim>
					<dim>64</dim>
					<dim>1</dim>
					<dim>1</dim>
				</port>
			</input>
			<output>
				<port id="2" names="1744" precision="FP16">
					<dim>1</dim>
					<dim>64</dim>
					<dim>26</dim>
					<dim>26</dim>
				</port>
			</output>
		</layer>
		<layer id="277" name="77641968" type="Const" version="opset1">
			<data element_type="f16" offset="177344" shape="1, 1, 1, 1" size="2"/>
			<output>
				<port id="0" names="776" precision="FP16">
					<dim>1</dim>
					<dim>1</dim>
					<dim>1</dim>
					<dim>1</dim>
				</port>
			</output>
		</layer>
		<layer id="278" name="Add_321" type="Add" version="opset1">
			<data auto_broadcast="numpy"/>
			<input>
				<port id="0" precision="FP16">
					<dim>1</dim>
					<dim>64</dim>
					<dim>26</dim>
					<dim>26</dim>
				</port>
				<port id="1" precision="FP16">
					<dim>1</dim>
					<dim>1</dim>
					<dim>1</dim>
					<dim>1</dim>
				</port>
			</input>
			<output>
				<port id="2" names="1009" precision="FP16">
					<dim>1</dim>
					<dim>64</dim>
					<dim>26</dim>
					<dim>26</dim>
				</port>
			</output>
		</layer>
		<layer id="279" name="Clip_324" type="Clamp" version="opset1">
			<data max="6" min="0"/>
			<input>
				<port id="0" precision="FP16">
					<dim>1</dim>
					<dim>64</dim>
					<dim>26</dim>
					<dim>26</dim>
				</port>
			</input>
			<output>
				<port id="1" names="1012" precision="FP16">
					<dim>1</dim>
					<dim>64</dim>
					<dim>26</dim>
					<dim>26</dim>
				</port>
			</output>
		</layer>
		<layer id="280" name="77941560" type="Const" version="opset1">
			<data element_type="f16" offset="177346" shape="1, 1, 1, 1" size="2"/>
			<output>
				<port id="0" names="779" precision="FP16">
					<dim>1</dim>
					<dim>1</dim>
					<dim>1</dim>
					<dim>1</dim>
				</port>
			</output>
		</layer>
		<layer id="281" name="Div_326" type="Multiply" version="opset1">
			<data auto_broadcast="numpy"/>
			<input>
				<port id="0" precision="FP16">
					<dim>1</dim>
					<dim>64</dim>
					<dim>26</dim>
					<dim>26</dim>
				</port>
				<port id="1" precision="FP16">
					<dim>1</dim>
					<dim>1</dim>
					<dim>1</dim>
					<dim>1</dim>
				</port>
			</input>
			<output>
				<port id="2" names="1014" precision="FP16">
					<dim>1</dim>
					<dim>64</dim>
					<dim>26</dim>
					<dim>26</dim>
				</port>
			</output>
		</layer>
		<layer id="282" name="Mul_327" type="Multiply" version="opset1">
			<data auto_broadcast="numpy"/>
			<input>
				<port id="0" precision="FP16">
					<dim>1</dim>
					<dim>64</dim>
					<dim>26</dim>
					<dim>26</dim>
				</port>
				<port id="1" precision="FP16">
					<dim>1</dim>
					<dim>64</dim>
					<dim>26</dim>
					<dim>26</dim>
				</port>
			</input>
			<output>
				<port id="2" names="1015" precision="FP16">
					<dim>1</dim>
					<dim>64</dim>
					<dim>26</dim>
					<dim>26</dim>
				</port>
			</output>
		</layer>
		<layer id="283" name="Add_328" type="Add" version="opset1">
			<data auto_broadcast="numpy"/>
			<input>
				<port id="0" precision="FP16">
					<dim>1</dim>
					<dim>64</dim>
					<dim>26</dim>
					<dim>26</dim>
				</port>
				<port id="1" precision="FP16">
					<dim>1</dim>
					<dim>64</dim>
					<dim>26</dim>
					<dim>26</dim>
				</port>
			</input>
			<output>
				<port id="2" names="1016" precision="FP16">
					<dim>1</dim>
					<dim>64</dim>
					<dim>26</dim>
					<dim>26</dim>
				</port>
			</output>
		</layer>
		<layer id="284" name="1748" type="Const" version="opset1">
			<data element_type="f16" offset="272836" shape="64, 64, 1, 1" size="8192"/>
			<output>
				<port id="0" names="1748" precision="FP16">
					<dim>64</dim>
					<dim>64</dim>
					<dim>1</dim>
					<dim>1</dim>
				</port>
			</output>
		</layer>
		<layer id="285" name="Conv_329/WithoutBiases" type="Convolution" version="opset1">
			<data auto_pad="explicit" dilations="1, 1" pads_begin="0, 0" pads_end="0, 0" strides="1, 1"/>
			<input>
				<port id="0" precision="FP16">
					<dim>1</dim>
					<dim>64</dim>
					<dim>26</dim>
					<dim>26</dim>
				</port>
				<port id="1" precision="FP16">
					<dim>64</dim>
					<dim>64</dim>
					<dim>1</dim>
					<dim>1</dim>
				</port>
			</input>
			<output>
				<port id="2" precision="FP16">
					<dim>1</dim>
					<dim>64</dim>
					<dim>26</dim>
					<dim>26</dim>
				</port>
			</output>
		</layer>
		<layer id="286" name="Conv_329/Dims9766" type="Const" version="opset1">
			<data element_type="f16" offset="281028" shape="1, 64, 1, 1" size="128"/>
			<output>
				<port id="0" precision="FP16">
					<dim>1</dim>
					<dim>64</dim>
					<dim>1</dim>
					<dim>1</dim>
				</port>
			</output>
		</layer>
		<layer id="287" name="Conv_329" type="Add" version="opset1">
			<data auto_broadcast="numpy"/>
			<input>
				<port id="0" precision="FP16">
					<dim>1</dim>
					<dim>64</dim>
					<dim>26</dim>
					<dim>26</dim>
				</port>
				<port id="1" precision="FP16">
					<dim>1</dim>
					<dim>64</dim>
					<dim>1</dim>
					<dim>1</dim>
				</port>
			</input>
			<output>
				<port id="2" names="1747" precision="FP16">
					<dim>1</dim>
					<dim>64</dim>
					<dim>26</dim>
					<dim>26</dim>
				</port>
			</output>
		</layer>
		<layer id="288" name="77642253" type="Const" version="opset1">
			<data element_type="f16" offset="177344" shape="1, 1, 1, 1" size="2"/>
			<output>
				<port id="0" names="776" precision="FP16">
					<dim>1</dim>
					<dim>1</dim>
					<dim>1</dim>
					<dim>1</dim>
				</port>
			</output>
		</layer>
		<layer id="289" name="Add_331" type="Add" version="opset1">
			<data auto_broadcast="numpy"/>
			<input>
				<port id="0" precision="FP16">
					<dim>1</dim>
					<dim>64</dim>
					<dim>26</dim>
					<dim>26</dim>
				</port>
				<port id="1" precision="FP16">
					<dim>1</dim>
					<dim>1</dim>
					<dim>1</dim>
					<dim>1</dim>
				</port>
			</input>
			<output>
				<port id="2" names="1020" precision="FP16">
					<dim>1</dim>
					<dim>64</dim>
					<dim>26</dim>
					<dim>26</dim>
				</port>
			</output>
		</layer>
		<layer id="290" name="Clip_334" type="Clamp" version="opset1">
			<data max="6" min="0"/>
			<input>
				<port id="0" precision="FP16">
					<dim>1</dim>
					<dim>64</dim>
					<dim>26</dim>
					<dim>26</dim>
				</port>
			</input>
			<output>
				<port id="1" names="1023" precision="FP16">
					<dim>1</dim>
					<dim>64</dim>
					<dim>26</dim>
					<dim>26</dim>
				</port>
			</output>
		</layer>
		<layer id="291" name="77942229" type="Const" version="opset1">
			<data element_type="f16" offset="177346" shape="1, 1, 1, 1" size="2"/>
			<output>
				<port id="0" names="779" precision="FP16">
					<dim>1</dim>
					<dim>1</dim>
					<dim>1</dim>
					<dim>1</dim>
				</port>
			</output>
		</layer>
		<layer id="292" name="Div_336" type="Multiply" version="opset1">
			<data auto_broadcast="numpy"/>
			<input>
				<port id="0" precision="FP16">
					<dim>1</dim>
					<dim>64</dim>
					<dim>26</dim>
					<dim>26</dim>
				</port>
				<port id="1" precision="FP16">
					<dim>1</dim>
					<dim>1</dim>
					<dim>1</dim>
					<dim>1</dim>
				</port>
			</input>
			<output>
				<port id="2" names="1025" precision="FP16">
					<dim>1</dim>
					<dim>64</dim>
					<dim>26</dim>
					<dim>26</dim>
				</port>
			</output>
		</layer>
		<layer id="293" name="Mul_337" type="Multiply" version="opset1">
			<data auto_broadcast="numpy"/>
			<input>
				<port id="0" precision="FP16">
					<dim>1</dim>
					<dim>64</dim>
					<dim>26</dim>
					<dim>26</dim>
				</port>
				<port id="1" precision="FP16">
					<dim>1</dim>
					<dim>64</dim>
					<dim>26</dim>
					<dim>26</dim>
				</port>
			</input>
			<output>
				<port id="2" names="1026" precision="FP16">
					<dim>1</dim>
					<dim>64</dim>
					<dim>26</dim>
					<dim>26</dim>
				</port>
			</output>
		</layer>
		<layer id="294" name="1751" type="Const" version="opset1">
			<data element_type="f16" offset="281156" shape="64, 1, 1, 3, 3" size="1152"/>
			<output>
				<port id="0" names="1751" precision="FP16">
					<dim>64</dim>
					<dim>1</dim>
					<dim>1</dim>
					<dim>3</dim>
					<dim>3</dim>
				</port>
			</output>
		</layer>
		<layer id="295" name="Conv_338/WithoutBiases" type="GroupConvolution" version="opset1">
			<data auto_pad="explicit" dilations="1, 1" pads_begin="1, 1" pads_end="1, 1" strides="1, 1"/>
			<input>
				<port id="0" precision="FP16">
					<dim>1</dim>
					<dim>64</dim>
					<dim>26</dim>
					<dim>26</dim>
				</port>
				<port id="1" precision="FP16">
					<dim>64</dim>
					<dim>1</dim>
					<dim>1</dim>
					<dim>3</dim>
					<dim>3</dim>
				</port>
			</input>
			<output>
				<port id="2" precision="FP16">
					<dim>1</dim>
					<dim>64</dim>
					<dim>26</dim>
					<dim>26</dim>
				</port>
			</output>
		</layer>
		<layer id="296" name="Conv_338/Dims9202" type="Const" version="opset1">
			<data element_type="f16" offset="282308" shape="1, 64, 1, 1" size="128"/>
			<output>
				<port id="0" precision="FP16">
					<dim>1</dim>
					<dim>64</dim>
					<dim>1</dim>
					<dim>1</dim>
				</port>
			</output>
		</layer>
		<layer id="297" name="Conv_338" type="Add" version="opset1">
			<data auto_broadcast="numpy"/>
			<input>
				<port id="0" precision="FP16">
					<dim>1</dim>
					<dim>64</dim>
					<dim>26</dim>
					<dim>26</dim>
				</port>
				<port id="1" precision="FP16">
					<dim>1</dim>
					<dim>64</dim>
					<dim>1</dim>
					<dim>1</dim>
				</port>
			</input>
			<output>
				<port id="2" names="1750" precision="FP16">
					<dim>1</dim>
					<dim>64</dim>
					<dim>26</dim>
					<dim>26</dim>
				</port>
			</output>
		</layer>
		<layer id="298" name="1754" type="Const" version="opset1">
			<data element_type="f16" offset="282436" shape="64, 64, 1, 1" size="8192"/>
			<output>
				<port id="0" names="1754" precision="FP16">
					<dim>64</dim>
					<dim>64</dim>
					<dim>1</dim>
					<dim>1</dim>
				</port>
			</output>
		</layer>
		<layer id="299" name="Conv_339/WithoutBiases" type="Convolution" version="opset1">
			<data auto_pad="explicit" dilations="1, 1" pads_begin="0, 0" pads_end="0, 0" strides="1, 1"/>
			<input>
				<port id="0" precision="FP16">
					<dim>1</dim>
					<dim>64</dim>
					<dim>26</dim>
					<dim>26</dim>
				</port>
				<port id="1" precision="FP16">
					<dim>64</dim>
					<dim>64</dim>
					<dim>1</dim>
					<dim>1</dim>
				</port>
			</input>
			<output>
				<port id="2" precision="FP16">
					<dim>1</dim>
					<dim>64</dim>
					<dim>26</dim>
					<dim>26</dim>
				</port>
			</output>
		</layer>
		<layer id="300" name="Conv_339/Dims9514" type="Const" version="opset1">
			<data element_type="f16" offset="290628" shape="1, 64, 1, 1" size="128"/>
			<output>
				<port id="0" precision="FP16">
					<dim>1</dim>
					<dim>64</dim>
					<dim>1</dim>
					<dim>1</dim>
				</port>
			</output>
		</layer>
		<layer id="301" name="Conv_339" type="Add" version="opset1">
			<data auto_broadcast="numpy"/>
			<input>
				<port id="0" precision="FP16">
					<dim>1</dim>
					<dim>64</dim>
					<dim>26</dim>
					<dim>26</dim>
				</port>
				<port id="1" precision="FP16">
					<dim>1</dim>
					<dim>64</dim>
					<dim>1</dim>
					<dim>1</dim>
				</port>
			</input>
			<output>
				<port id="2" names="1753" precision="FP16">
					<dim>1</dim>
					<dim>64</dim>
					<dim>26</dim>
					<dim>26</dim>
				</port>
			</output>
		</layer>
		<layer id="302" name="77641119" type="Const" version="opset1">
			<data element_type="f16" offset="177344" shape="1, 1, 1, 1" size="2"/>
			<output>
				<port id="0" names="776" precision="FP16">
					<dim>1</dim>
					<dim>1</dim>
					<dim>1</dim>
					<dim>1</dim>
				</port>
			</output>
		</layer>
		<layer id="303" name="Add_341" type="Add" version="opset1">
			<data auto_broadcast="numpy"/>
			<input>
				<port id="0" precision="FP16">
					<dim>1</dim>
					<dim>64</dim>
					<dim>26</dim>
					<dim>26</dim>
				</port>
				<port id="1" precision="FP16">
					<dim>1</dim>
					<dim>1</dim>
					<dim>1</dim>
					<dim>1</dim>
				</port>
			</input>
			<output>
				<port id="2" names="1032" precision="FP16">
					<dim>1</dim>
					<dim>64</dim>
					<dim>26</dim>
					<dim>26</dim>
				</port>
			</output>
		</layer>
		<layer id="304" name="Clip_344" type="Clamp" version="opset1">
			<data max="6" min="0"/>
			<input>
				<port id="0" precision="FP16">
					<dim>1</dim>
					<dim>64</dim>
					<dim>26</dim>
					<dim>26</dim>
				</port>
			</input>
			<output>
				<port id="1" names="1035" precision="FP16">
					<dim>1</dim>
					<dim>64</dim>
					<dim>26</dim>
					<dim>26</dim>
				</port>
			</output>
		</layer>
		<layer id="305" name="77942307" type="Const" version="opset1">
			<data element_type="f16" offset="177346" shape="1, 1, 1, 1" size="2"/>
			<output>
				<port id="0" names="779" precision="FP16">
					<dim>1</dim>
					<dim>1</dim>
					<dim>1</dim>
					<dim>1</dim>
				</port>
			</output>
		</layer>
		<layer id="306" name="Div_346" type="Multiply" version="opset1">
			<data auto_broadcast="numpy"/>
			<input>
				<port id="0" precision="FP16">
					<dim>1</dim>
					<dim>64</dim>
					<dim>26</dim>
					<dim>26</dim>
				</port>
				<port id="1" precision="FP16">
					<dim>1</dim>
					<dim>1</dim>
					<dim>1</dim>
					<dim>1</dim>
				</port>
			</input>
			<output>
				<port id="2" names="1037" precision="FP16">
					<dim>1</dim>
					<dim>64</dim>
					<dim>26</dim>
					<dim>26</dim>
				</port>
			</output>
		</layer>
		<layer id="307" name="Mul_347" type="Multiply" version="opset1">
			<data auto_broadcast="numpy"/>
			<input>
				<port id="0" precision="FP16">
					<dim>1</dim>
					<dim>64</dim>
					<dim>26</dim>
					<dim>26</dim>
				</port>
				<port id="1" precision="FP16">
					<dim>1</dim>
					<dim>64</dim>
					<dim>26</dim>
					<dim>26</dim>
				</port>
			</input>
			<output>
				<port id="2" names="1038" precision="FP16">
					<dim>1</dim>
					<dim>64</dim>
					<dim>26</dim>
					<dim>26</dim>
				</port>
			</output>
		</layer>
		<layer id="308" name="Add_348" type="Add" version="opset1">
			<data auto_broadcast="numpy"/>
			<input>
				<port id="0" precision="FP16">
					<dim>1</dim>
					<dim>64</dim>
					<dim>26</dim>
					<dim>26</dim>
				</port>
				<port id="1" precision="FP16">
					<dim>1</dim>
					<dim>64</dim>
					<dim>26</dim>
					<dim>26</dim>
				</port>
			</input>
			<output>
				<port id="2" names="1039" precision="FP16">
					<dim>1</dim>
					<dim>64</dim>
					<dim>26</dim>
					<dim>26</dim>
				</port>
			</output>
		</layer>
		<layer id="309" name="1757" type="Const" version="opset1">
			<data element_type="f16" offset="290756" shape="64, 64, 1, 1" size="8192"/>
			<output>
				<port id="0" names="1757" precision="FP16">
					<dim>64</dim>
					<dim>64</dim>
					<dim>1</dim>
					<dim>1</dim>
				</port>
			</output>
		</layer>
		<layer id="310" name="Conv_349/WithoutBiases" type="Convolution" version="opset1">
			<data auto_pad="explicit" dilations="1, 1" pads_begin="0, 0" pads_end="0, 0" strides="1, 1"/>
			<input>
				<port id="0" precision="FP16">
					<dim>1</dim>
					<dim>64</dim>
					<dim>26</dim>
					<dim>26</dim>
				</port>
				<port id="1" precision="FP16">
					<dim>64</dim>
					<dim>64</dim>
					<dim>1</dim>
					<dim>1</dim>
				</port>
			</input>
			<output>
				<port id="2" precision="FP16">
					<dim>1</dim>
					<dim>64</dim>
					<dim>26</dim>
					<dim>26</dim>
				</port>
			</output>
		</layer>
		<layer id="311" name="Conv_349/Dims9562" type="Const" version="opset1">
			<data element_type="f16" offset="298948" shape="1, 64, 1, 1" size="128"/>
			<output>
				<port id="0" precision="FP16">
					<dim>1</dim>
					<dim>64</dim>
					<dim>1</dim>
					<dim>1</dim>
				</port>
			</output>
		</layer>
		<layer id="312" name="Conv_349" type="Add" version="opset1">
			<data auto_broadcast="numpy"/>
			<input>
				<port id="0" precision="FP16">
					<dim>1</dim>
					<dim>64</dim>
					<dim>26</dim>
					<dim>26</dim>
				</port>
				<port id="1" precision="FP16">
					<dim>1</dim>
					<dim>64</dim>
					<dim>1</dim>
					<dim>1</dim>
				</port>
			</input>
			<output>
				<port id="2" names="1756" precision="FP16">
					<dim>1</dim>
					<dim>64</dim>
					<dim>26</dim>
					<dim>26</dim>
				</port>
			</output>
		</layer>
		<layer id="313" name="77641479" type="Const" version="opset1">
			<data element_type="f16" offset="177344" shape="1, 1, 1, 1" size="2"/>
			<output>
				<port id="0" names="776" precision="FP16">
					<dim>1</dim>
					<dim>1</dim>
					<dim>1</dim>
					<dim>1</dim>
				</port>
			</output>
		</layer>
		<layer id="314" name="Add_351" type="Add" version="opset1">
			<data auto_broadcast="numpy"/>
			<input>
				<port id="0" precision="FP16">
					<dim>1</dim>
					<dim>64</dim>
					<dim>26</dim>
					<dim>26</dim>
				</port>
				<port id="1" precision="FP16">
					<dim>1</dim>
					<dim>1</dim>
					<dim>1</dim>
					<dim>1</dim>
				</port>
			</input>
			<output>
				<port id="2" names="1043" precision="FP16">
					<dim>1</dim>
					<dim>64</dim>
					<dim>26</dim>
					<dim>26</dim>
				</port>
			</output>
		</layer>
		<layer id="315" name="Clip_354" type="Clamp" version="opset1">
			<data max="6" min="0"/>
			<input>
				<port id="0" precision="FP16">
					<dim>1</dim>
					<dim>64</dim>
					<dim>26</dim>
					<dim>26</dim>
				</port>
			</input>
			<output>
				<port id="1" names="1046" precision="FP16">
					<dim>1</dim>
					<dim>64</dim>
					<dim>26</dim>
					<dim>26</dim>
				</port>
			</output>
		</layer>
		<layer id="316" name="77941602" type="Const" version="opset1">
			<data element_type="f16" offset="177346" shape="1, 1, 1, 1" size="2"/>
			<output>
				<port id="0" names="779" precision="FP16">
					<dim>1</dim>
					<dim>1</dim>
					<dim>1</dim>
					<dim>1</dim>
				</port>
			</output>
		</layer>
		<layer id="317" name="Div_356" type="Multiply" version="opset1">
			<data auto_broadcast="numpy"/>
			<input>
				<port id="0" precision="FP16">
					<dim>1</dim>
					<dim>64</dim>
					<dim>26</dim>
					<dim>26</dim>
				</port>
				<port id="1" precision="FP16">
					<dim>1</dim>
					<dim>1</dim>
					<dim>1</dim>
					<dim>1</dim>
				</port>
			</input>
			<output>
				<port id="2" names="1048" precision="FP16">
					<dim>1</dim>
					<dim>64</dim>
					<dim>26</dim>
					<dim>26</dim>
				</port>
			</output>
		</layer>
		<layer id="318" name="Mul_357" type="Multiply" version="opset1">
			<data auto_broadcast="numpy"/>
			<input>
				<port id="0" precision="FP16">
					<dim>1</dim>
					<dim>64</dim>
					<dim>26</dim>
					<dim>26</dim>
				</port>
				<port id="1" precision="FP16">
					<dim>1</dim>
					<dim>64</dim>
					<dim>26</dim>
					<dim>26</dim>
				</port>
			</input>
			<output>
				<port id="2" names="1049" precision="FP16">
					<dim>1</dim>
					<dim>64</dim>
					<dim>26</dim>
					<dim>26</dim>
				</port>
			</output>
		</layer>
		<layer id="319" name="1760" type="Const" version="opset1">
			<data element_type="f16" offset="299076" shape="64, 1, 1, 3, 3" size="1152"/>
			<output>
				<port id="0" names="1760" precision="FP16">
					<dim>64</dim>
					<dim>1</dim>
					<dim>1</dim>
					<dim>3</dim>
					<dim>3</dim>
				</port>
			</output>
		</layer>
		<layer id="320" name="Conv_358/WithoutBiases" type="GroupConvolution" version="opset1">
			<data auto_pad="explicit" dilations="1, 1" pads_begin="1, 1" pads_end="1, 1" strides="1, 1"/>
			<input>
				<port id="0" precision="FP16">
					<dim>1</dim>
					<dim>64</dim>
					<dim>26</dim>
					<dim>26</dim>
				</port>
				<port id="1" precision="FP16">
					<dim>64</dim>
					<dim>1</dim>
					<dim>1</dim>
					<dim>3</dim>
					<dim>3</dim>
				</port>
			</input>
			<output>
				<port id="2" precision="FP16">
					<dim>1</dim>
					<dim>64</dim>
					<dim>26</dim>
					<dim>26</dim>
				</port>
			</output>
		</layer>
		<layer id="321" name="Conv_358/Dims9250" type="Const" version="opset1">
			<data element_type="f16" offset="300228" shape="1, 64, 1, 1" size="128"/>
			<output>
				<port id="0" precision="FP16">
					<dim>1</dim>
					<dim>64</dim>
					<dim>1</dim>
					<dim>1</dim>
				</port>
			</output>
		</layer>
		<layer id="322" name="Conv_358" type="Add" version="opset1">
			<data auto_broadcast="numpy"/>
			<input>
				<port id="0" precision="FP16">
					<dim>1</dim>
					<dim>64</dim>
					<dim>26</dim>
					<dim>26</dim>
				</port>
				<port id="1" precision="FP16">
					<dim>1</dim>
					<dim>64</dim>
					<dim>1</dim>
					<dim>1</dim>
				</port>
			</input>
			<output>
				<port id="2" names="1759" precision="FP16">
					<dim>1</dim>
					<dim>64</dim>
					<dim>26</dim>
					<dim>26</dim>
				</port>
			</output>
		</layer>
		<layer id="323" name="1763" type="Const" version="opset1">
			<data element_type="f16" offset="300356" shape="64, 64, 1, 1" size="8192"/>
			<output>
				<port id="0" names="1763" precision="FP16">
					<dim>64</dim>
					<dim>64</dim>
					<dim>1</dim>
					<dim>1</dim>
				</port>
			</output>
		</layer>
		<layer id="324" name="Conv_359/WithoutBiases" type="Convolution" version="opset1">
			<data auto_pad="explicit" dilations="1, 1" pads_begin="0, 0" pads_end="0, 0" strides="1, 1"/>
			<input>
				<port id="0" precision="FP16">
					<dim>1</dim>
					<dim>64</dim>
					<dim>26</dim>
					<dim>26</dim>
				</port>
				<port id="1" precision="FP16">
					<dim>64</dim>
					<dim>64</dim>
					<dim>1</dim>
					<dim>1</dim>
				</port>
			</input>
			<output>
				<port id="2" precision="FP16">
					<dim>1</dim>
					<dim>64</dim>
					<dim>26</dim>
					<dim>26</dim>
				</port>
			</output>
		</layer>
		<layer id="325" name="Conv_359/Dims9382" type="Const" version="opset1">
			<data element_type="f16" offset="308548" shape="1, 64, 1, 1" size="128"/>
			<output>
				<port id="0" precision="FP16">
					<dim>1</dim>
					<dim>64</dim>
					<dim>1</dim>
					<dim>1</dim>
				</port>
			</output>
		</layer>
		<layer id="326" name="Conv_359" type="Add" version="opset1">
			<data auto_broadcast="numpy"/>
			<input>
				<port id="0" precision="FP16">
					<dim>1</dim>
					<dim>64</dim>
					<dim>26</dim>
					<dim>26</dim>
				</port>
				<port id="1" precision="FP16">
					<dim>1</dim>
					<dim>64</dim>
					<dim>1</dim>
					<dim>1</dim>
				</port>
			</input>
			<output>
				<port id="2" names="1762" precision="FP16">
					<dim>1</dim>
					<dim>64</dim>
					<dim>26</dim>
					<dim>26</dim>
				</port>
			</output>
		</layer>
		<layer id="327" name="77641308" type="Const" version="opset1">
			<data element_type="f16" offset="177344" shape="1, 1, 1, 1" size="2"/>
			<output>
				<port id="0" names="776" precision="FP16">
					<dim>1</dim>
					<dim>1</dim>
					<dim>1</dim>
					<dim>1</dim>
				</port>
			</output>
		</layer>
		<layer id="328" name="Add_361" type="Add" version="opset1">
			<data auto_broadcast="numpy"/>
			<input>
				<port id="0" precision="FP16">
					<dim>1</dim>
					<dim>64</dim>
					<dim>26</dim>
					<dim>26</dim>
				</port>
				<port id="1" precision="FP16">
					<dim>1</dim>
					<dim>1</dim>
					<dim>1</dim>
					<dim>1</dim>
				</port>
			</input>
			<output>
				<port id="2" names="1055" precision="FP16">
					<dim>1</dim>
					<dim>64</dim>
					<dim>26</dim>
					<dim>26</dim>
				</port>
			</output>
		</layer>
		<layer id="329" name="Clip_364" type="Clamp" version="opset1">
			<data max="6" min="0"/>
			<input>
				<port id="0" precision="FP16">
					<dim>1</dim>
					<dim>64</dim>
					<dim>26</dim>
					<dim>26</dim>
				</port>
			</input>
			<output>
				<port id="1" names="1058" precision="FP16">
					<dim>1</dim>
					<dim>64</dim>
					<dim>26</dim>
					<dim>26</dim>
				</port>
			</output>
		</layer>
		<layer id="330" name="77942169" type="Const" version="opset1">
			<data element_type="f16" offset="177346" shape="1, 1, 1, 1" size="2"/>
			<output>
				<port id="0" names="779" precision="FP16">
					<dim>1</dim>
					<dim>1</dim>
					<dim>1</dim>
					<dim>1</dim>
				</port>
			</output>
		</layer>
		<layer id="331" name="Div_366" type="Multiply" version="opset1">
			<data auto_broadcast="numpy"/>
			<input>
				<port id="0" precision="FP16">
					<dim>1</dim>
					<dim>64</dim>
					<dim>26</dim>
					<dim>26</dim>
				</port>
				<port id="1" precision="FP16">
					<dim>1</dim>
					<dim>1</dim>
					<dim>1</dim>
					<dim>1</dim>
				</port>
			</input>
			<output>
				<port id="2" names="1060" precision="FP16">
					<dim>1</dim>
					<dim>64</dim>
					<dim>26</dim>
					<dim>26</dim>
				</port>
			</output>
		</layer>
		<layer id="332" name="Mul_367" type="Multiply" version="opset1">
			<data auto_broadcast="numpy"/>
			<input>
				<port id="0" precision="FP16">
					<dim>1</dim>
					<dim>64</dim>
					<dim>26</dim>
					<dim>26</dim>
				</port>
				<port id="1" precision="FP16">
					<dim>1</dim>
					<dim>64</dim>
					<dim>26</dim>
					<dim>26</dim>
				</port>
			</input>
			<output>
				<port id="2" names="1061" precision="FP16">
					<dim>1</dim>
					<dim>64</dim>
					<dim>26</dim>
					<dim>26</dim>
				</port>
			</output>
		</layer>
		<layer id="333" name="Add_368" type="Add" version="opset1">
			<data auto_broadcast="numpy"/>
			<input>
				<port id="0" precision="FP16">
					<dim>1</dim>
					<dim>64</dim>
					<dim>26</dim>
					<dim>26</dim>
				</port>
				<port id="1" precision="FP16">
					<dim>1</dim>
					<dim>64</dim>
					<dim>26</dim>
					<dim>26</dim>
				</port>
			</input>
			<output>
				<port id="2" names="1062" precision="FP16">
					<dim>1</dim>
					<dim>64</dim>
					<dim>26</dim>
					<dim>26</dim>
				</port>
			</output>
		</layer>
		<layer id="334" name="1736" type="Const" version="opset1">
			<data element_type="f16" offset="308676" shape="64, 128, 1, 1" size="16384"/>
			<output>
				<port id="0" names="1736" precision="FP16">
					<dim>64</dim>
					<dim>128</dim>
					<dim>1</dim>
					<dim>1</dim>
				</port>
			</output>
		</layer>
		<layer id="335" name="Conv_300/WithoutBiases" type="Convolution" version="opset1">
			<data auto_pad="explicit" dilations="1, 1" pads_begin="0, 0" pads_end="0, 0" strides="1, 1"/>
			<input>
				<port id="0" precision="FP16">
					<dim>1</dim>
					<dim>128</dim>
					<dim>26</dim>
					<dim>26</dim>
				</port>
				<port id="1" precision="FP16">
					<dim>64</dim>
					<dim>128</dim>
					<dim>1</dim>
					<dim>1</dim>
				</port>
			</input>
			<output>
				<port id="2" precision="FP16">
					<dim>1</dim>
					<dim>64</dim>
					<dim>26</dim>
					<dim>26</dim>
				</port>
			</output>
		</layer>
		<layer id="336" name="Conv_300/Dims9496" type="Const" version="opset1">
			<data element_type="f16" offset="325060" shape="1, 64, 1, 1" size="128"/>
			<output>
				<port id="0" precision="FP16">
					<dim>1</dim>
					<dim>64</dim>
					<dim>1</dim>
					<dim>1</dim>
				</port>
			</output>
		</layer>
		<layer id="337" name="Conv_300" type="Add" version="opset1">
			<data auto_broadcast="numpy"/>
			<input>
				<port id="0" precision="FP16">
					<dim>1</dim>
					<dim>64</dim>
					<dim>26</dim>
					<dim>26</dim>
				</port>
				<port id="1" precision="FP16">
					<dim>1</dim>
					<dim>64</dim>
					<dim>1</dim>
					<dim>1</dim>
				</port>
			</input>
			<output>
				<port id="2" names="1735" precision="FP16">
					<dim>1</dim>
					<dim>64</dim>
					<dim>26</dim>
					<dim>26</dim>
				</port>
			</output>
		</layer>
		<layer id="338" name="77641524" type="Const" version="opset1">
			<data element_type="f16" offset="177344" shape="1, 1, 1, 1" size="2"/>
			<output>
				<port id="0" names="776" precision="FP16">
					<dim>1</dim>
					<dim>1</dim>
					<dim>1</dim>
					<dim>1</dim>
				</port>
			</output>
		</layer>
		<layer id="339" name="Add_302" type="Add" version="opset1">
			<data auto_broadcast="numpy"/>
			<input>
				<port id="0" precision="FP16">
					<dim>1</dim>
					<dim>64</dim>
					<dim>26</dim>
					<dim>26</dim>
				</port>
				<port id="1" precision="FP16">
					<dim>1</dim>
					<dim>1</dim>
					<dim>1</dim>
					<dim>1</dim>
				</port>
			</input>
			<output>
				<port id="2" names="987" precision="FP16">
					<dim>1</dim>
					<dim>64</dim>
					<dim>26</dim>
					<dim>26</dim>
				</port>
			</output>
		</layer>
		<layer id="340" name="Clip_305" type="Clamp" version="opset1">
			<data max="6" min="0"/>
			<input>
				<port id="0" precision="FP16">
					<dim>1</dim>
					<dim>64</dim>
					<dim>26</dim>
					<dim>26</dim>
				</port>
			</input>
			<output>
				<port id="1" names="990" precision="FP16">
					<dim>1</dim>
					<dim>64</dim>
					<dim>26</dim>
					<dim>26</dim>
				</port>
			</output>
		</layer>
		<layer id="341" name="77941362" type="Const" version="opset1">
			<data element_type="f16" offset="177346" shape="1, 1, 1, 1" size="2"/>
			<output>
				<port id="0" names="779" precision="FP16">
					<dim>1</dim>
					<dim>1</dim>
					<dim>1</dim>
					<dim>1</dim>
				</port>
			</output>
		</layer>
		<layer id="342" name="Div_307" type="Multiply" version="opset1">
			<data auto_broadcast="numpy"/>
			<input>
				<port id="0" precision="FP16">
					<dim>1</dim>
					<dim>64</dim>
					<dim>26</dim>
					<dim>26</dim>
				</port>
				<port id="1" precision="FP16">
					<dim>1</dim>
					<dim>1</dim>
					<dim>1</dim>
					<dim>1</dim>
				</port>
			</input>
			<output>
				<port id="2" names="992" precision="FP16">
					<dim>1</dim>
					<dim>64</dim>
					<dim>26</dim>
					<dim>26</dim>
				</port>
			</output>
		</layer>
		<layer id="343" name="Mul_308" type="Multiply" version="opset1">
			<data auto_broadcast="numpy"/>
			<input>
				<port id="0" precision="FP16">
					<dim>1</dim>
					<dim>64</dim>
					<dim>26</dim>
					<dim>26</dim>
				</port>
				<port id="1" precision="FP16">
					<dim>1</dim>
					<dim>64</dim>
					<dim>26</dim>
					<dim>26</dim>
				</port>
			</input>
			<output>
				<port id="2" names="993" precision="FP16">
					<dim>1</dim>
					<dim>64</dim>
					<dim>26</dim>
					<dim>26</dim>
…
		<edge from-layer="368" from-port="2" to-layer="370" to-port="0"/>
		<edge from-layer="369" from-port="0" to-layer="370" to-port="1"/>
		<edge from-layer="370" from-port="2" to-layer="372" to-port="0"/>
		<edge from-layer="371" from-port="0" to-layer="372" to-port="1"/>
		<edge from-layer="372" from-port="2" to-layer="374" to-port="0"/>
		<edge from-layer="372" from-port="2" to-layer="378" to-port="0"/>
		<edge from-layer="373" from-port="0" to-layer="374" to-port="1"/>
		<edge from-layer="374" from-port="2" to-layer="375" to-port="0"/>
		<edge from-layer="375" from-port="1" to-layer="377" to-port="0"/>
		<edge from-layer="376" from-port="0" to-layer="377" to-port="1"/>
		<edge from-layer="377" from-port="2" to-layer="378" to-port="1"/>
		<edge from-layer="378" from-port="2" to-layer="382" to-port="0"/>
		<edge from-layer="378" from-port="2" to-layer="381" to-port="0"/>
		<edge from-layer="378" from-port="2" to-layer="379" to-port="0"/>
		<edge from-layer="378" from-port="2" to-layer="380" to-port="0"/>
		<edge from-layer="379" from-port="1" to-layer="382" to-port="1"/>
		<edge from-layer="380" from-port="1" to-layer="382" to-port="2"/>
		<edge from-layer="381" from-port="1" to-layer="382" to-port="3"/>
		<edge from-layer="382" from-port="4" to-layer="384" to-port="0"/>
		<edge from-layer="383" from-port="0" to-layer="384" to-port="1"/>
		<edge from-layer="384" from-port="2" to-layer="386" to-port="0"/>
		<edge from-layer="385" from-port="0" to-layer="386" to-port="1"/>
		<edge from-layer="386" from-port="2" to-layer="388" to-port="0"/>
		<edge from-layer="386" from-port="2" to-layer="392" to-port="0"/>
		<edge from-layer="387" from-port="0" to-layer="388" to-port="1"/>
		<edge from-layer="388" from-port="2" to-layer="389" to-port="0"/>
		<edge from-layer="389" from-port="1" to-layer="391" to-port="0"/>
		<edge from-layer="390" from-port="0" to-layer="391" to-port="1"/>
		<edge from-layer="391" from-port="2" to-layer="392" to-port="1"/>
		<edge from-layer="392" from-port="2" to-layer="428" to-port="0"/>
		<edge from-layer="392" from-port="2" to-layer="394" to-port="0"/>
		<edge from-layer="393" from-port="0" to-layer="394" to-port="1"/>
		<edge from-layer="394" from-port="2" to-layer="396" to-port="0"/>
		<edge from-layer="395" from-port="0" to-layer="396" to-port="1"/>
		<edge from-layer="396" from-port="2" to-layer="398" to-port="0"/>
		<edge from-layer="396" from-port="2" to-layer="402" to-port="0"/>
		<edge from-layer="397" from-port="0" to-layer="398" to-port="1"/>
		<edge from-layer="398" from-port="2" to-layer="399" to-port="0"/>
		<edge from-layer="399" from-port="1" to-layer="401" to-port="0"/>
		<edge from-layer="400" from-port="0" to-layer="401" to-port="1"/>
		<edge from-layer="401" from-port="2" to-layer="402" to-port="1"/>
		<edge from-layer="402" from-port="2" to-layer="404" to-port="0"/>
		<edge from-layer="403" from-port="0" to-layer="404" to-port="1"/>
		<edge from-layer="404" from-port="2" to-layer="406" to-port="0"/>
		<edge from-layer="405" from-port="0" to-layer="406" to-port="1"/>
		<edge from-layer="406" from-port="2" to-layer="412" to-port="0"/>
		<edge from-layer="406" from-port="2" to-layer="408" to-port="0"/>
		<edge from-layer="407" from-port="0" to-layer="408" to-port="1"/>
		<edge from-layer="408" from-port="2" to-layer="409" to-port="0"/>
		<edge from-layer="409" from-port="1" to-layer="411" to-port="0"/>
		<edge from-layer="410" from-port="0" to-layer="411" to-port="1"/>
		<edge from-layer="411" from-port="2" to-layer="412" to-port="1"/>
		<edge from-layer="412" from-port="2" to-layer="414" to-port="0"/>
		<edge from-layer="413" from-port="0" to-layer="414" to-port="1"/>
		<edge from-layer="414" from-port="2" to-layer="416" to-port="0"/>
		<edge from-layer="415" from-port="0" to-layer="416" to-port="1"/>
		<edge from-layer="416" from-port="2" to-layer="418" to-port="0"/>
		<edge from-layer="417" from-port="0" to-layer="418" to-port="1"/>
		<edge from-layer="418" from-port="2" to-layer="420" to-port="0"/>
		<edge from-layer="419" from-port="0" to-layer="420" to-port="1"/>
		<edge from-layer="420" from-port="2" to-layer="426" to-port="0"/>
		<edge from-layer="420" from-port="2" to-layer="422" to-port="0"/>
		<edge from-layer="421" from-port="0" to-layer="422" to-port="1"/>
		<edge from-layer="422" from-port="2" to-layer="423" to-port="0"/>
		<edge from-layer="423" from-port="1" to-layer="425" to-port="0"/>
		<edge from-layer="424" from-port="0" to-layer="425" to-port="1"/>
		<edge from-layer="425" from-port="2" to-layer="426" to-port="1"/>
		<edge from-layer="426" from-port="2" to-layer="437" to-port="0"/>
		<edge from-layer="427" from-port="0" to-layer="428" to-port="1"/>
		<edge from-layer="428" from-port="2" to-layer="430" to-port="0"/>
		<edge from-layer="429" from-port="0" to-layer="430" to-port="1"/>
		<edge from-layer="430" from-port="2" to-layer="432" to-port="0"/>
		<edge from-layer="430" from-port="2" to-layer="436" to-port="0"/>
		<edge from-layer="431" from-port="0" to-layer="432" to-port="1"/>
		<edge from-layer="432" from-port="2" to-layer="433" to-port="0"/>
		<edge from-layer="433" from-port="1" to-layer="435" to-port="0"/>
		<edge from-layer="434" from-port="0" to-layer="435" to-port="1"/>
		<edge from-layer="435" from-port="2" to-layer="436" to-port="1"/>
		<edge from-layer="436" from-port="2" to-layer="437" to-port="1"/>
		<edge from-layer="437" from-port="2" to-layer="439" to-port="0"/>
		<edge from-layer="438" from-port="0" to-layer="439" to-port="1"/>
		<edge from-layer="439" from-port="2" to-layer="441" to-port="0"/>
		<edge from-layer="440" from-port="0" to-layer="441" to-port="1"/>
		<edge from-layer="441" from-port="2" to-layer="443" to-port="0"/>
		<edge from-layer="441" from-port="2" to-layer="447" to-port="0"/>
		<edge from-layer="442" from-port="0" to-layer="443" to-port="1"/>
		<edge from-layer="443" from-port="2" to-layer="444" to-port="0"/>
		<edge from-layer="444" from-port="1" to-layer="446" to-port="0"/>
		<edge from-layer="445" from-port="0" to-layer="446" to-port="1"/>
		<edge from-layer="446" from-port="2" to-layer="447" to-port="1"/>
		<edge from-layer="447" from-port="2" to-layer="449" to-port="0"/>
		<edge from-layer="448" from-port="0" to-layer="449" to-port="1"/>
		<edge from-layer="449" from-port="2" to-layer="451" to-port="0"/>
		<edge from-layer="450" from-port="0" to-layer="451" to-port="1"/>
		<edge from-layer="451" from-port="2" to-layer="453" to-port="0"/>
		<edge from-layer="451" from-port="2" to-layer="457" to-port="0"/>
		<edge from-layer="452" from-port="0" to-layer="453" to-port="1"/>
		<edge from-layer="453" from-port="2" to-layer="454" to-port="0"/>
		<edge from-layer="454" from-port="1" to-layer="456" to-port="0"/>
		<edge from-layer="455" from-port="0" to-layer="456" to-port="1"/>
		<edge from-layer="456" from-port="2" to-layer="457" to-port="1"/>
		<edge from-layer="457" from-port="2" to-layer="870" to-port="1"/>
		<edge from-layer="457" from-port="2" to-layer="458" to-port="0"/>
		<edge from-layer="457" from-port="2" to-layer="472" to-port="0"/>
		<edge from-layer="458" from-port="1" to-layer="459" to-port="0"/>
		<edge from-layer="459" from-port="1" to-layer="461" to-port="0"/>
		<edge from-layer="460" from-port="0" to-layer="461" to-port="1"/>
		<edge from-layer="461" from-port="2" to-layer="463" to-port="0"/>
		<edge from-layer="462" from-port="0" to-layer="463" to-port="1"/>
		<edge from-layer="463" from-port="2" to-layer="464" to-port="0"/>
		<edge from-layer="464" from-port="1" to-layer="465" to-port="0"/>
		<edge from-layer="465" from-port="1" to-layer="469" to-port="0"/>
		<edge from-layer="466" from-port="0" to-layer="469" to-port="1"/>
		<edge from-layer="467" from-port="0" to-layer="469" to-port="2"/>
		<edge from-layer="468" from-port="0" to-layer="469" to-port="3"/>
		<edge from-layer="469" from-port="4" to-layer="472" to-port="1"/>
		<edge from-layer="470" from-port="0" to-layer="472" to-port="2"/>
		<edge from-layer="471" from-port="0" to-layer="472" to-port="3"/>
		<edge from-layer="472" from-port="4" to-layer="473" to-port="0"/>
		<edge from-layer="473" from-port="2" to-layer="475" to-port="0"/>
		<edge from-layer="473" from-port="2" to-layer="509" to-port="0"/>
		<edge from-layer="474" from-port="0" to-layer="475" to-port="1"/>
		<edge from-layer="475" from-port="2" to-layer="477" to-port="0"/>
		<edge from-layer="476" from-port="0" to-layer="477" to-port="1"/>
		<edge from-layer="477" from-port="2" to-layer="479" to-port="0"/>
		<edge from-layer="477" from-port="2" to-layer="483" to-port="0"/>
		<edge from-layer="478" from-port="0" to-layer="479" to-port="1"/>
		<edge from-layer="479" from-port="2" to-layer="480" to-port="0"/>
		<edge from-layer="480" from-port="1" to-layer="482" to-port="0"/>
		<edge from-layer="481" from-port="0" to-layer="482" to-port="1"/>
		<edge from-layer="482" from-port="2" to-layer="483" to-port="1"/>
		<edge from-layer="483" from-port="2" to-layer="485" to-port="0"/>
		<edge from-layer="484" from-port="0" to-layer="485" to-port="1"/>
		<edge from-layer="485" from-port="2" to-layer="487" to-port="0"/>
		<edge from-layer="486" from-port="0" to-layer="487" to-port="1"/>
		<edge from-layer="487" from-port="2" to-layer="489" to-port="0"/>
		<edge from-layer="487" from-port="2" to-layer="493" to-port="0"/>
		<edge from-layer="488" from-port="0" to-layer="489" to-port="1"/>
		<edge from-layer="489" from-port="2" to-layer="490" to-port="0"/>
		<edge from-layer="490" from-port="1" to-layer="492" to-port="0"/>
		<edge from-layer="491" from-port="0" to-layer="492" to-port="1"/>
		<edge from-layer="492" from-port="2" to-layer="493" to-port="1"/>
		<edge from-layer="493" from-port="2" to-layer="495" to-port="0"/>
		<edge from-layer="494" from-port="0" to-layer="495" to-port="1"/>
		<edge from-layer="495" from-port="2" to-layer="497" to-port="0"/>
		<edge from-layer="496" from-port="0" to-layer="497" to-port="1"/>
		<edge from-layer="497" from-port="2" to-layer="499" to-port="0"/>
		<edge from-layer="498" from-port="0" to-layer="499" to-port="1"/>
		<edge from-layer="499" from-port="2" to-layer="501" to-port="0"/>
		<edge from-layer="500" from-port="0" to-layer="501" to-port="1"/>
		<edge from-layer="501" from-port="2" to-layer="503" to-port="0"/>
		<edge from-layer="501" from-port="2" to-layer="507" to-port="0"/>
		<edge from-layer="502" from-port="0" to-layer="503" to-port="1"/>
		<edge from-layer="503" from-port="2" to-layer="504" to-port="0"/>
		<edge from-layer="504" from-port="1" to-layer="506" to-port="0"/>
		<edge from-layer="505" from-port="0" to-layer="506" to-port="1"/>
		<edge from-layer="506" from-port="2" to-layer="507" to-port="1"/>
		<edge from-layer="507" from-port="2" to-layer="518" to-port="0"/>
		<edge from-layer="508" from-port="0" to-layer="509" to-port="1"/>
		<edge from-layer="509" from-port="2" to-layer="511" to-port="0"/>
		<edge from-layer="510" from-port="0" to-layer="511" to-port="1"/>
		<edge from-layer="511" from-port="2" to-layer="513" to-port="0"/>
		<edge from-layer="511" from-port="2" to-layer="517" to-port="0"/>
		<edge from-layer="512" from-port="0" to-layer="513" to-port="1"/>
		<edge from-layer="513" from-port="2" to-layer="514" to-port="0"/>
		<edge from-layer="514" from-port="1" to-layer="516" to-port="0"/>
		<edge from-layer="515" from-port="0" to-layer="516" to-port="1"/>
		<edge from-layer="516" from-port="2" to-layer="517" to-port="1"/>
		<edge from-layer="517" from-port="2" to-layer="518" to-port="1"/>
		<edge from-layer="518" from-port="2" to-layer="520" to-port="0"/>
		<edge from-layer="519" from-port="0" to-layer="520" to-port="1"/>
		<edge from-layer="520" from-port="2" to-layer="522" to-port="0"/>
		<edge from-layer="521" from-port="0" to-layer="522" to-port="1"/>
		<edge from-layer="522" from-port="2" to-layer="524" to-port="0"/>
		<edge from-layer="522" from-port="2" to-layer="528" to-port="0"/>
		<edge from-layer="523" from-port="0" to-layer="524" to-port="1"/>
		<edge from-layer="524" from-port="2" to-layer="525" to-port="0"/>
		<edge from-layer="525" from-port="1" to-layer="527" to-port="0"/>
		<edge from-layer="526" from-port="0" to-layer="527" to-port="1"/>
		<edge from-layer="527" from-port="2" to-layer="528" to-port="1"/>
		<edge from-layer="528" from-port="2" to-layer="530" to-port="0"/>
		<edge from-layer="529" from-port="0" to-layer="530" to-port="1"/>
		<edge from-layer="530" from-port="2" to-layer="532" to-port="0"/>
		<edge from-layer="531" from-port="0" to-layer="532" to-port="1"/>
		<edge from-layer="532" from-port="2" to-layer="534" to-port="0"/>
		<edge from-layer="532" from-port="2" to-layer="538" to-port="0"/>
		<edge from-layer="533" from-port="0" to-layer="534" to-port="1"/>
		<edge from-layer="534" from-port="2" to-layer="535" to-port="0"/>
		<edge from-layer="535" from-port="1" to-layer="537" to-port="0"/>
		<edge from-layer="536" from-port="0" to-layer="537" to-port="1"/>
		<edge from-layer="537" from-port="2" to-layer="538" to-port="1"/>
		<edge from-layer="538" from-port="2" to-layer="553" to-port="0"/>
		<edge from-layer="538" from-port="2" to-layer="712" to-port="1"/>
		<edge from-layer="538" from-port="2" to-layer="539" to-port="0"/>
		<edge from-layer="539" from-port="1" to-layer="540" to-port="0"/>
		<edge from-layer="540" from-port="1" to-layer="542" to-port="0"/>
		<edge from-layer="541" from-port="0" to-layer="542" to-port="1"/>
		<edge from-layer="542" from-port="2" to-layer="544" to-port="0"/>
		<edge from-layer="543" from-port="0" to-layer="544" to-port="1"/>
		<edge from-layer="544" from-port="2" to-layer="545" to-port="0"/>
		<edge from-layer="545" from-port="1" to-layer="546" to-port="0"/>
		<edge from-layer="546" from-port="1" to-layer="550" to-port="0"/>
		<edge from-layer="547" from-port="0" to-layer="550" to-port="1"/>
		<edge from-layer="548" from-port="0" to-layer="550" to-port="2"/>
		<edge from-layer="549" from-port="0" to-layer="550" to-port="3"/>
		<edge from-layer="550" from-port="4" to-layer="553" to-port="1"/>
		<edge from-layer="551" from-port="0" to-layer="553" to-port="2"/>
		<edge from-layer="552" from-port="0" to-layer="553" to-port="3"/>
		<edge from-layer="553" from-port="4" to-layer="554" to-port="0"/>
		<edge from-layer="554" from-port="2" to-layer="590" to-port="0"/>
		<edge from-layer="554" from-port="2" to-layer="556" to-port="0"/>
		<edge from-layer="555" from-port="0" to-layer="556" to-port="1"/>
		<edge from-layer="556" from-port="2" to-layer="558" to-port="0"/>
		<edge from-layer="557" from-port="0" to-layer="558" to-port="1"/>
		<edge from-layer="558" from-port="2" to-layer="560" to-port="0"/>
		<edge from-layer="558" from-port="2" to-layer="564" to-port="0"/>
		<edge from-layer="559" from-port="0" to-layer="560" to-port="1"/>
		<edge from-layer="560" from-port="2" to-layer="561" to-port="0"/>
		<edge from-layer="561" from-port="1" to-layer="563" to-port="0"/>
		<edge from-layer="562" from-port="0" to-layer="563" to-port="1"/>
		<edge from-layer="563" from-port="2" to-layer="564" to-port="1"/>
		<edge from-layer="564" from-port="2" to-layer="566" to-port="0"/>
		<edge from-layer="565" from-port="0" to-layer="566" to-port="1"/>
		<edge from-layer="566" from-port="2" to-layer="568" to-port="0"/>
		<edge from-layer="567" from-port="0" to-layer="568" to-port="1"/>
		<edge from-layer="568" from-port="2" to-layer="570" to-port="0"/>
		<edge from-layer="568" from-port="2" to-layer="574" to-port="0"/>
		<edge from-layer="569" from-port="0" to-layer="570" to-port="1"/>
		<edge from-layer="570" from-port="2" to-layer="571" to-port="0"/>
		<edge from-layer="571" from-port="1" to-layer="573" to-port="0"/>
		<edge from-layer="572" from-port="0" to-layer="573" to-port="1"/>
		<edge from-layer="573" from-port="2" to-layer="574" to-port="1"/>
		<edge from-layer="574" from-port="2" to-layer="576" to-port="0"/>
		<edge from-layer="575" from-port="0" to-layer="576" to-port="1"/>
		<edge from-layer="576" from-port="2" to-layer="578" to-port="0"/>
		<edge from-layer="577" from-port="0" to-layer="578" to-port="1"/>
		<edge from-layer="578" from-port="2" to-layer="580" to-port="0"/>
		<edge from-layer="579" from-port="0" to-layer="580" to-port="1"/>
		<edge from-layer="580" from-port="2" to-layer="582" to-port="0"/>
		<edge from-layer="581" from-port="0" to-layer="582" to-port="1"/>
		<edge from-layer="582" from-port="2" to-layer="584" to-port="0"/>
		<edge from-layer="582" from-port="2" to-layer="588" to-port="0"/>
		<edge from-layer="583" from-port="0" to-layer="584" to-port="1"/>
		<edge from-layer="584" from-port="2" to-layer="585" to-port="0"/>
		<edge from-layer="585" from-port="1" to-layer="587" to-port="0"/>
		<edge from-layer="586" from-port="0" to-layer="587" to-port="1"/>
		<edge from-layer="587" from-port="2" to-layer="588" to-port="1"/>
		<edge from-layer="588" from-port="2" to-layer="599" to-port="0"/>
		<edge from-layer="589" from-port="0" to-layer="590" to-port="1"/>
		<edge from-layer="590" from-port="2" to-layer="592" to-port="0"/>
		<edge from-layer="591" from-port="0" to-layer="592" to-port="1"/>
		<edge from-layer="592" from-port="2" to-layer="594" to-port="0"/>
		<edge from-layer="592" from-port="2" to-layer="598" to-port="0"/>
		<edge from-layer="593" from-port="0" to-layer="594" to-port="1"/>
		<edge from-layer="594" from-port="2" to-layer="595" to-port="0"/>
		<edge from-layer="595" from-port="1" to-layer="597" to-port="0"/>
		<edge from-layer="596" from-port="0" to-layer="597" to-port="1"/>
		<edge from-layer="597" from-port="2" to-layer="598" to-port="1"/>
		<edge from-layer="598" from-port="2" to-layer="599" to-port="1"/>
		<edge from-layer="599" from-port="2" to-layer="601" to-port="0"/>
		<edge from-layer="600" from-port="0" to-layer="601" to-port="1"/>
		<edge from-layer="601" from-port="2" to-layer="603" to-port="0"/>
		<edge from-layer="602" from-port="0" to-layer="603" to-port="1"/>
		<edge from-layer="603" from-port="2" to-layer="605" to-port="0"/>
		<edge from-layer="603" from-port="2" to-layer="609" to-port="0"/>
		<edge from-layer="604" from-port="0" to-layer="605" to-port="1"/>
		<edge from-layer="605" from-port="2" to-layer="606" to-port="0"/>
		<edge from-layer="606" from-port="1" to-layer="608" to-port="0"/>
		<edge from-layer="607" from-port="0" to-layer="608" to-port="1"/>
		<edge from-layer="608" from-port="2" to-layer="609" to-port="1"/>
		<edge from-layer="609" from-port="2" to-layer="611" to-port="0"/>
		<edge from-layer="609" from-port="2" to-layer="699" to-port="0"/>
		<edge from-layer="610" from-port="0" to-layer="611" to-port="1"/>
		<edge from-layer="611" from-port="2" to-layer="613" to-port="0"/>
		<edge from-layer="612" from-port="0" to-layer="613" to-port="1"/>
		<edge from-layer="613" from-port="2" to-layer="619" to-port="0"/>
		<edge from-layer="613" from-port="2" to-layer="615" to-port="0"/>
		<edge from-layer="614" from-port="0" to-layer="615" to-port="1"/>
		<edge from-layer="615" from-port="2" to-layer="616" to-port="0"/>
		<edge from-layer="616" from-port="1" to-layer="618" to-port="0"/>
		<edge from-layer="617" from-port="0" to-layer="618" to-port="1"/>
		<edge from-layer="618" from-port="2" to-layer="619" to-port="1"/>
		<edge from-layer="619" from-port="2" to-layer="658" to-port="0"/>
		<edge from-layer="619" from-port="2" to-layer="621" to-port="0"/>
		<edge from-layer="620" from-port="0" to-layer="621" to-port="1"/>
		<edge from-layer="621" from-port="2" to-layer="623" to-port="0"/>
		<edge from-layer="622" from-port="0" to-layer="623" to-port="1"/>
		<edge from-layer="623" from-port="2" to-layer="625" to-port="0"/>
		<edge from-layer="624" from-port="0" to-layer="625" to-port="1"/>
		<edge from-layer="625" from-port="2" to-layer="627" to-port="0"/>
		<edge from-layer="626" from-port="0" to-layer="627" to-port="1"/>
		<edge from-layer="627" from-port="2" to-layer="633" to-port="0"/>
		<edge from-layer="627" from-port="2" to-layer="629" to-port="0"/>
		<edge from-layer="628" from-port="0" to-layer="629" to-port="1"/>
		<edge from-layer="629" from-port="2" to-layer="630" to-port="0"/>
		<edge from-layer="630" from-port="1" to-layer="632" to-port="0"/>
		<edge from-layer="631" from-port="0" to-layer="632" to-port="1"/>
		<edge from-layer="632" from-port="2" to-layer="633" to-port="1"/>
		<edge from-layer="633" from-port="2" to-layer="635" to-port="0"/>
		<edge from-layer="634" from-port="0" to-layer="635" to-port="1"/>
		<edge from-layer="635" from-port="2" to-layer="637" to-port="0"/>
		<edge from-layer="636" from-port="0" to-layer="637" to-port="1"/>
		<edge from-layer="637" from-port="2" to-layer="639" to-port="0"/>
		<edge from-layer="638" from-port="0" to-layer="639" to-port="1"/>
		<edge from-layer="639" from-port="2" to-layer="641" to-port="0"/>
		<edge from-layer="640" from-port="0" to-layer="641" to-port="1"/>
		<edge from-layer="641" from-port="2" to-layer="647" to-port="0"/>
		<edge from-layer="641" from-port="2" to-layer="643" to-port="0"/>
		<edge from-layer="642" from-port="0" to-layer="643" to-port="1"/>
		<edge from-layer="643" from-port="2" to-layer="644" to-port="0"/>
		<edge from-layer="644" from-port="1" to-layer="646" to-port="0"/>
		<edge from-layer="645" from-port="0" to-layer="646" to-port="1"/>
		<edge from-layer="646" from-port="2" to-layer="647" to-port="1"/>
		<edge from-layer="647" from-port="2" to-layer="649" to-port="0"/>
		<edge from-layer="647" from-port="2" to-layer="653" to-port="0"/>
		<edge from-layer="648" from-port="0" to-layer="649" to-port="1"/>
		<edge from-layer="649" from-port="2" to-layer="651" to-port="0"/>
		<edge from-layer="650" from-port="0" to-layer="651" to-port="1"/>
		<edge from-layer="651" from-port="2" to-layer="695" to-port="0"/>
		<edge from-layer="652" from-port="0" to-layer="653" to-port="1"/>
		<edge from-layer="653" from-port="2" to-layer="655" to-port="0"/>
		<edge from-layer="654" from-port="0" to-layer="655" to-port="1"/>
		<edge from-layer="655" from-port="2" to-layer="656" to-port="0"/>
		<edge from-layer="656" from-port="1" to-layer="695" to-port="1"/>
		<edge from-layer="657" from-port="0" to-layer="658" to-port="1"/>
		<edge from-layer="658" from-port="2" to-layer="660" to-port="0"/>
		<edge from-layer="659" from-port="0" to-layer="660" to-port="1"/>
		<edge from-layer="660" from-port="2" to-layer="662" to-port="0"/>
		<edge from-layer="661" from-port="0" to-layer="662" to-port="1"/>
		<edge from-layer="662" from-port="2" to-layer="664" to-port="0"/>
		<edge from-layer="663" from-port="0" to-layer="664" to-port="1"/>
		<edge from-layer="664" from-port="2" to-layer="666" to-port="0"/>
		<edge from-layer="664" from-port="2" to-layer="670" to-port="0"/>
		<edge from-layer="665" from-port="0" to-layer="666" to-port="1"/>
		<edge from-layer="666" from-port="2" to-layer="667" to-port="0"/>
		<edge from-layer="667" from-port="1" to-layer="669" to-port="0"/>
		<edge from-layer="668" from-port="0" to-layer="669" to-port="1"/>
		<edge from-layer="669" from-port="2" to-layer="670" to-port="1"/>
		<edge from-layer="670" from-port="2" to-layer="672" to-port="0"/>
		<edge from-layer="671" from-port="0" to-layer="672" to-port="1"/>
		<edge from-layer="672" from-port="2" to-layer="674" to-port="0"/>
		<edge from-layer="673" from-port="0" to-layer="674" to-port="1"/>
		<edge from-layer="674" from-port="2" to-layer="676" to-port="0"/>
		<edge from-layer="675" from-port="0" to-layer="676" to-port="1"/>
		<edge from-layer="676" from-port="2" to-layer="678" to-port="0"/>
		<edge from-layer="677" from-port="0" to-layer="678" to-port="1"/>
		<edge from-layer="678" from-port="2" to-layer="680" to-port="0"/>
		<edge from-layer="678" from-port="2" to-layer="684" to-port="0"/>
		<edge from-layer="679" from-port="0" to-layer="680" to-port="1"/>
		<edge from-layer="680" from-port="2" to-layer="681" to-port="0"/>
		<edge from-layer="681" from-port="1" to-layer="683" to-port="0"/>
		<edge from-layer="682" from-port="0" to-layer="683" to-port="1"/>
		<edge from-layer="683" from-port="2" to-layer="684" to-port="1"/>
		<edge from-layer="684" from-port="2" to-layer="691" to-port="0"/>
		<edge from-layer="684" from-port="2" to-layer="686" to-port="0"/>
		<edge from-layer="685" from-port="0" to-layer="686" to-port="1"/>
		<edge from-layer="686" from-port="2" to-layer="688" to-port="0"/>
		<edge from-layer="687" from-port="0" to-layer="688" to-port="1"/>
		<edge from-layer="688" from-port="2" to-layer="689" to-port="0"/>
		<edge from-layer="689" from-port="1" to-layer="695" to-port="2"/>
		<edge from-layer="690" from-port="0" to-layer="691" to-port="1"/>
		<edge from-layer="691" from-port="2" to-layer="693" to-port="0"/>
		<edge from-layer="692" from-port="0" to-layer="693" to-port="1"/>
		<edge from-layer="693" from-port="2" to-layer="694" to-port="0"/>
		<edge from-layer="694" from-port="1" to-layer="695" to-port="3"/>
		<edge from-layer="695" from-port="4" to-layer="697" to-port="0"/>
		<edge from-layer="696" from-port="0" to-layer="697" to-port="1"/>
		<edge from-layer="697" from-port="2" to-layer="1014" to-port="0"/>
		<edge from-layer="698" from-port="0" to-layer="699" to-port="1"/>
		<edge from-layer="699" from-port="2" to-layer="701" to-port="0"/>
		<edge from-layer="700" from-port="0" to-layer="701" to-port="1"/>
		<edge from-layer="701" from-port="2" to-layer="703" to-port="0"/>
		<edge from-layer="702" from-port="0" to-layer="703" to-port="1"/>
		<edge from-layer="703" from-port="2" to-layer="705" to-port="0"/>
		<edge from-layer="704" from-port="0" to-layer="705" to-port="1"/>
		<edge from-layer="705" from-port="2" to-layer="707" to-port="0"/>
		<edge from-layer="705" from-port="2" to-layer="711" to-port="0"/>
		<edge from-layer="706" from-port="0" to-layer="707" to-port="1"/>
		<edge from-layer="707" from-port="2" to-layer="708" to-port="0"/>
		<edge from-layer="708" from-port="1" to-layer="710" to-port="0"/>
		<edge from-layer="709" from-port="0" to-layer="710" to-port="1"/>
		<edge from-layer="710" from-port="2" to-layer="711" to-port="1"/>
		<edge from-layer="711" from-port="2" to-layer="712" to-port="0"/>
		<edge from-layer="712" from-port="2" to-layer="748" to-port="0"/>
		<edge from-layer="712" from-port="2" to-layer="714" to-port="0"/>
		<edge from-layer="713" from-port="0" to-layer="714" to-port="1"/>
		<edge from-layer="714" from-port="2" to-layer="716" to-port="0"/>
		<edge from-layer="715" from-port="0" to-layer="716" to-port="1"/>
		<edge from-layer="716" from-port="2" to-layer="718" to-port="0"/>
		<edge from-layer="716" from-port="2" to-layer="722" to-port="0"/>
		<edge from-layer="717" from-port="0" to-layer="718" to-port="1"/>
		<edge from-layer="718" from-port="2" to-layer="719" to-port="0"/>
		<edge from-layer="719" from-port="1" to-layer="721" to-port="0"/>
		<edge from-layer="720" from-port="0" to-layer="721" to-port="1"/>
		<edge from-layer="721" from-port="2" to-layer="722" to-port="1"/>
		<edge from-layer="722" from-port="2" to-layer="724" to-port="0"/>
		<edge from-layer="723" from-port="0" to-layer="724" to-port="1"/>
		<edge from-layer="724" from-port="2" to-layer="726" to-port="0"/>
		<edge from-layer="725" from-port="0" to-layer="726" to-port="1"/>
		<edge from-layer="726" from-port="2" to-layer="728" to-port="0"/>
		<edge from-layer="726" from-port="2" to-layer="732" to-port="0"/>
		<edge from-layer="727" from-port="0" to-layer="728" to-port="1"/>
		<edge from-layer="728" from-port="2" to-layer="729" to-port="0"/>
		<edge from-layer="729" from-port="1" to-layer="731" to-port="0"/>
		<edge from-layer="730" from-port="0" to-layer="731" to-port="1"/>
		<edge from-layer="731" from-port="2" to-layer="732" to-port="1"/>
		<edge from-layer="732" from-port="2" to-layer="734" to-port="0"/>
		<edge from-layer="733" from-port="0" to-layer="734" to-port="1"/>
		<edge from-layer="734" from-port="2" to-layer="736" to-port="0"/>
		<edge from-layer="735" from-port="0" to-layer="736" to-port="1"/>
		<edge from-layer="736" from-port="2" to-layer="738" to-port="0"/>
		<edge from-layer="737" from-port="0" to-layer="738" to-port="1"/>
		<edge from-layer="738" from-port="2" to-layer="740" to-port="0"/>
		<edge from-layer="739" from-port="0" to-layer="740" to-port="1"/>
		<edge from-layer="740" from-port="2" to-layer="746" to-port="0"/>
		<edge from-layer="740" from-port="2" to-layer="742" to-port="0"/>
		<edge from-layer="741" from-port="0" to-layer="742" to-port="1"/>
		<edge from-layer="742" from-port="2" to-layer="743" to-port="0"/>
		<edge from-layer="743" from-port="1" to-layer="745" to-port="0"/>
		<edge from-layer="744" from-port="0" to-layer="745" to-port="1"/>
		<edge from-layer="745" from-port="2" to-layer="746" to-port="1"/>
		<edge from-layer="746" from-port="2" to-layer="757" to-port="0"/>
		<edge from-layer="747" from-port="0" to-layer="748" to-port="1"/>
		<edge from-layer="748" from-port="2" to-layer="750" to-port="0"/>
		<edge from-layer="749" from-port="0" to-layer="750" to-port="1"/>
		<edge from-layer="750" from-port="2" to-layer="756" to-port="0"/>
		<edge from-layer="750" from-port="2" to-layer="752" to-port="0"/>
		<edge from-layer="751" from-port="0" to-layer="752" to-port="1"/>
		<edge from-layer="752" from-port="2" to-layer="753" to-port="0"/>
		<edge from-layer="753" from-port="1" to-layer="755" to-port="0"/>
		<edge from-layer="754" from-port="0" to-layer="755" to-port="1"/>
		<edge from-layer="755" from-port="2" to-layer="756" to-port="1"/>
		<edge from-layer="756" from-port="2" to-layer="757" to-port="1"/>
		<edge from-layer="757" from-port="2" to-layer="759" to-port="0"/>
		<edge from-layer="758" from-port="0" to-layer="759" to-port="1"/>
		<edge from-layer="759" from-port="2" to-layer="761" to-port="0"/>
		<edge from-layer="760" from-port="0" to-layer="761" to-port="1"/>
		<edge from-layer="761" from-port="2" to-layer="763" to-port="0"/>
		<edge from-layer="761" from-port="2" to-layer="767" to-port="0"/>
		<edge from-layer="762" from-port="0" to-layer="763" to-port="1"/>
		<edge from-layer="763" from-port="2" to-layer="764" to-port="0"/>
		<edge from-layer="764" from-port="1" to-layer="766" to-port="0"/>
		<edge from-layer="765" from-port="0" to-layer="766" to-port="1"/>
		<edge from-layer="766" from-port="2" to-layer="767" to-port="1"/>
		<edge from-layer="767" from-port="2" to-layer="769" to-port="0"/>
		<edge from-layer="767" from-port="2" to-layer="857" to-port="0"/>
		<edge from-layer="768" from-port="0" to-layer="769" to-port="1"/>
		<edge from-layer="769" from-port="2" to-layer="771" to-port="0"/>
		<edge from-layer="770" from-port="0" to-layer="771" to-port="1"/>
		<edge from-layer="771" from-port="2" to-layer="773" to-port="0"/>
		<edge from-layer="771" from-port="2" to-layer="777" to-port="0"/>
		<edge from-layer="772" from-port="0" to-layer="773" to-port="1"/>
		<edge from-layer="773" from-port="2" to-layer="774" to-port="0"/>
		<edge from-layer="774" from-port="1" to-layer="776" to-port="0"/>
		<edge from-layer="775" from-port="0" to-layer="776" to-port="1"/>
		<edge from-layer="776" from-port="2" to-layer="777" to-port="1"/>
		<edge from-layer="777" from-port="2" to-layer="816" to-port="0"/>
		<edge from-layer="777" from-port="2" to-layer="779" to-port="0"/>
		<edge from-layer="778" from-port="0" to-layer="779" to-port="1"/>
		<edge from-layer="779" from-port="2" to-layer="781" to-port="0"/>
		<edge from-layer="780" from-port="0" to-layer="781" to-port="1"/>
		<edge from-layer="781" from-port="2" to-layer="783" to-port="0"/>
		<edge from-layer="782" from-port="0" to-layer="783" to-port="1"/>
		<edge from-layer="783" from-port="2" to-layer="785" to-port="0"/>
		<edge from-layer="784" from-port="0" to-layer="785" to-port="1"/>
		<edge from-layer="785" from-port="2" to-layer="791" to-port="0"/>
		<edge from-layer="785" from-port="2" to-layer="787" to-port="0"/>
		<edge from-layer="786" from-port="0" to-layer="787" to-port="1"/>
		<edge from-layer="787" from-port="2" to-layer="788" to-port="0"/>
		<edge from-layer="788" from-port="1" to-layer="790" to-port="0"/>
		<edge from-layer="789" from-port="0" to-layer="790" to-port="1"/>
		<edge from-layer="790" from-port="2" to-layer="791" to-port="1"/>
		<edge from-layer="791" from-port="2" to-layer="793" to-port="0"/>
		<edge from-layer="792" from-port="0" to-layer="793" to-port="1"/>
		<edge from-layer="793" from-port="2" to-layer="795" to-port="0"/>
		<edge from-layer="794" from-port="0" to-layer="795" to-port="1"/>
		<edge from-layer="795" from-port="2" to-layer="797" to-port="0"/>
		<edge from-layer="796" from-port="0" to-layer="797" to-port="1"/>
		<edge from-layer="797" from-port="2" to-layer="799" to-port="0"/>
		<edge from-layer="798" from-port="0" to-layer="799" to-port="1"/>
		<edge from-layer="799" from-port="2" to-layer="801" to-port="0"/>
		<edge from-layer="799" from-port="2" to-layer="805" to-port="0"/>
		<edge from-layer="800" from-port="0" to-layer="801" to-port="1"/>
		<edge from-layer="801" from-port="2" to-layer="802" to-port="0"/>
		<edge from-layer="802" from-port="1" to-layer="804" to-port="0"/>
		<edge from-layer="803" from-port="0" to-layer="804" to-port="1"/>
		<edge from-layer="804" from-port="2" to-layer="805" to-port="1"/>
		<edge from-layer="805" from-port="2" to-layer="811" to-port="0"/>
		<edge from-layer="805" from-port="2" to-layer="807" to-port="0"/>
		<edge from-layer="806" from-port="0" to-layer="807" to-port="1"/>
		<edge from-layer="807" from-port="2" to-layer="809" to-port="0"/>
		<edge from-layer="808" from-port="0" to-layer="809" to-port="1"/>
		<edge from-layer="809" from-port="2" to-layer="853" to-port="0"/>
		<edge from-layer="810" from-port="0" to-layer="811" to-port="1"/>
		<edge from-layer="811" from-port="2" to-layer="813" to-port="0"/>
		<edge from-layer="812" from-port="0" to-layer="813" to-port="1"/>
		<edge from-layer="813" from-port="2" to-layer="814" to-port="0"/>
		<edge from-layer="814" from-port="1" to-layer="853" to-port="1"/>
		<edge from-layer="815" from-port="0" to-layer="816" to-port="1"/>
		<edge from-layer="816" from-port="2" to-layer="818" to-port="0"/>
		<edge from-layer="817" from-port="0" to-layer="818" to-port="1"/>
		<edge from-layer="818" from-port="2" to-layer="820" to-port="0"/>
		<edge from-layer="819" from-port="0" to-layer="820" to-port="1"/>
		<edge from-layer="820" from-port="2" to-layer="822" to-port="0"/>
		<edge from-layer="821" from-port="0" to-layer="822" to-port="1"/>
		<edge from-layer="822" from-port="2" to-layer="824" to-port="0"/>
		<edge from-layer="822" from-port="2" to-layer="828" to-port="0"/>
		<edge from-layer="823" from-port="0" to-layer="824" to-port="1"/>
		<edge from-layer="824" from-port="2" to-layer="825" to-port="0"/>
		<edge from-layer="825" from-port="1" to-layer="827" to-port="0"/>
		<edge from-layer="826" from-port="0" to-layer="827" to-port="1"/>
		<edge from-layer="827" from-port="2" to-layer="828" to-port="1"/>
		<edge from-layer="828" from-port="2" to-layer="830" to-port="0"/>
		<edge from-layer="829" from-port="0" to-layer="830" to-port="1"/>
		<edge from-layer="830" from-port="2" to-layer="832" to-port="0"/>
		<edge from-layer="831" from-port="0" to-layer="832" to-port="1"/>
		<edge from-layer="832" from-port="2" to-layer="834" to-port="0"/>
		<edge from-layer="833" from-port="0" to-layer="834" to-port="1"/>
		<edge from-layer="834" from-port="2" to-layer="836" to-port="0"/>
		<edge from-layer="835" from-port="0" to-layer="836" to-port="1"/>
		<edge from-layer="836" from-port="2" to-layer="842" to-port="0"/>
		<edge from-layer="836" from-port="2" to-layer="838" to-port="0"/>
		<edge from-layer="837" from-port="0" to-layer="838" to-port="1"/>
		<edge from-layer="838" from-port="2" to-layer="839" to-port="0"/>
		<edge from-layer="839" from-port="1" to-layer="841" to-port="0"/>
		<edge from-layer="840" from-port="0" to-layer="841" to-port="1"/>
		<edge from-layer="841" from-port="2" to-layer="842" to-port="1"/>
		<edge from-layer="842" from-port="2" to-layer="849" to-port="0"/>
		<edge from-layer="842" from-port="2" to-layer="844" to-port="0"/>
		<edge from-layer="843" from-port="0" to-layer="844" to-port="1"/>
		<edge from-layer="844" from-port="2" to-layer="846" to-port="0"/>
		<edge from-layer="845" from-port="0" to-layer="846" to-port="1"/>
		<edge from-layer="846" from-port="2" to-layer="847" to-port="0"/>
		<edge from-layer="847" from-port="1" to-layer="853" to-port="2"/>
		<edge from-layer="848" from-port="0" to-layer="849" to-port="1"/>
		<edge from-layer="849" from-port="2" to-layer="851" to-port="0"/>
		<edge from-layer="850" from-port="0" to-layer="851" to-port="1"/>
		<edge from-layer="851" from-port="2" to-layer="852" to-port="0"/>
		<edge from-layer="852" from-port="1" to-layer="853" to-port="3"/>
		<edge from-layer="853" from-port="4" to-layer="855" to-port="0"/>
		<edge from-layer="854" from-port="0" to-layer="855" to-port="1"/>
		<edge from-layer="855" from-port="2" to-layer="1014" to-port="1"/>
		<edge from-layer="856" from-port="0" to-layer="857" to-port="1"/>
		<edge from-layer="857" from-port="2" to-layer="859" to-port="0"/>
		<edge from-layer="858" from-port="0" to-layer="859" to-port="1"/>
		<edge from-layer="859" from-port="2" to-layer="861" to-port="0"/>
		<edge from-layer="860" from-port="0" to-layer="861" to-port="1"/>
		<edge from-layer="861" from-port="2" to-layer="863" to-port="0"/>
		<edge from-layer="862" from-port="0" to-layer="863" to-port="1"/>
		<edge from-layer="863" from-port="2" to-layer="865" to-port="0"/>
		<edge from-layer="863" from-port="2" to-layer="869" to-port="0"/>
		<edge from-layer="864" from-port="0" to-layer="865" to-port="1"/>
		<edge from-layer="865" from-port="2" to-layer="866" to-port="0"/>
		<edge from-layer="866" from-port="1" to-layer="868" to-port="0"/>
		<edge from-layer="867" from-port="0" to-layer="868" to-port="1"/>
		<edge from-layer="868" from-port="2" to-layer="869" to-port="1"/>
		<edge from-layer="869" from-port="2" to-layer="870" to-port="0"/>
		<edge from-layer="870" from-port="2" to-layer="872" to-port="0"/>
		<edge from-layer="870" from-port="2" to-layer="906" to-port="0"/>
		<edge from-layer="871" from-port="0" to-layer="872" to-port="1"/>
		<edge from-layer="872" from-port="2" to-layer="874" to-port="0"/>
		<edge from-layer="873" from-port="0" to-layer="874" to-port="1"/>
		<edge from-layer="874" from-port="2" to-layer="880" to-port="0"/>
		<edge from-layer="874" from-port="2" to-layer="876" to-port="0"/>
		<edge from-layer="875" from-port="0" to-layer="876" to-port="1"/>
		<edge from-layer="876" from-port="2" to-layer="877" to-port="0"/>
		<edge from-layer="877" from-port="1" to-layer="879" to-port="0"/>
		<edge from-layer="878" from-port="0" to-layer="879" to-port="1"/>
		<edge from-layer="879" from-port="2" to-layer="880" to-port="1"/>
		<edge from-layer="880" from-port="2" to-layer="882" to-port="0"/>
		<edge from-layer="881" from-port="0" to-layer="882" to-port="1"/>
		<edge from-layer="882" from-port="2" to-layer="884" to-port="0"/>
		<edge from-layer="883" from-port="0" to-layer="884" to-port="1"/>
		<edge from-layer="884" from-port="2" to-layer="890" to-port="0"/>
		<edge from-layer="884" from-port="2" to-layer="886" to-port="0"/>
		<edge from-layer="885" from-port="0" to-layer="886" to-port="1"/>
		<edge from-layer="886" from-port="2" to-layer="887" to-port="0"/>
		<edge from-layer="887" from-port="1" to-layer="889" to-port="0"/>
		<edge from-layer="888" from-port="0" to-layer="889" to-port="1"/>
		<edge from-layer="889" from-port="2" to-layer="890" to-port="1"/>
		<edge from-layer="890" from-port="2" to-layer="892" to-port="0"/>
		<edge from-layer="891" from-port="0" to-layer="892" to-port="1"/>
		<edge from-layer="892" from-port="2" to-layer="894" to-port="0"/>
		<edge from-layer="893" from-port="0" to-layer="894" to-port="1"/>
		<edge from-layer="894" from-port="2" to-layer="896" to-port="0"/>
		<edge from-layer="895" from-port="0" to-layer="896" to-port="1"/>
		<edge from-layer="896" from-port="2" to-layer="898" to-port="0"/>
		<edge from-layer="897" from-port="0" to-layer="898" to-port="1"/>
		<edge from-layer="898" from-port="2" to-layer="904" to-port="0"/>
		<edge from-layer="898" from-port="2" to-layer="900" to-port="0"/>
		<edge from-layer="899" from-port="0" to-layer="900" to-port="1"/>
		<edge from-layer="900" from-port="2" to-layer="901" to-port="0"/>
		<edge from-layer="901" from-port="1" to-layer="903" to-port="0"/>
		<edge from-layer="902" from-port="0" to-layer="903" to-port="1"/>
		<edge from-layer="903" from-port="2" to-layer="904" to-port="1"/>
		<edge from-layer="904" from-port="2" to-layer="915" to-port="0"/>
		<edge from-layer="905" from-port="0" to-layer="906" to-port="1"/>
		<edge from-layer="906" from-port="2" to-layer="908" to-port="0"/>
		<edge from-layer="907" from-port="0" to-layer="908" to-port="1"/>
		<edge from-layer="908" from-port="2" to-layer="910" to-port="0"/>
		<edge from-layer="908" from-port="2" to-layer="914" to-port="0"/>
		<edge from-layer="909" from-port="0" to-layer="910" to-port="1"/>
		<edge from-layer="910" from-port="2" to-layer="911" to-port="0"/>
		<edge from-layer="911" from-port="1" to-layer="913" to-port="0"/>
		<edge from-layer="912" from-port="0" to-layer="913" to-port="1"/>
		<edge from-layer="913" from-port="2" to-layer="914" to-port="1"/>
		<edge from-layer="914" from-port="2" to-layer="915" to-port="1"/>
		<edge from-layer="915" from-port="2" to-layer="917" to-port="0"/>
		<edge from-layer="916" from-port="0" to-layer="917" to-port="1"/>
		<edge from-layer="917" from-port="2" to-layer="919" to-port="0"/>
		<edge from-layer="918" from-port="0" to-layer="919" to-port="1"/>
		<edge from-layer="919" from-port="2" to-layer="921" to-port="0"/>
		<edge from-layer="919" from-port="2" to-layer="925" to-port="0"/>
		<edge from-layer="920" from-port="0" to-layer="921" to-port="1"/>
		<edge from-layer="921" from-port="2" to-layer="922" to-port="0"/>
		<edge from-layer="922" from-port="1" to-layer="924" to-port="0"/>
		<edge from-layer="923" from-port="0" to-layer="924" to-port="1"/>
		<edge from-layer="924" from-port="2" to-layer="925" to-port="1"/>
		<edge from-layer="925" from-port="2" to-layer="927" to-port="0"/>
		<edge from-layer="926" from-port="0" to-layer="927" to-port="1"/>
		<edge from-layer="927" from-port="2" to-layer="929" to-port="0"/>
		<edge from-layer="928" from-port="0" to-layer="929" to-port="1"/>
		<edge from-layer="929" from-port="2" to-layer="931" to-port="0"/>
		<edge from-layer="929" from-port="2" to-layer="935" to-port="0"/>
		<edge from-layer="930" from-port="0" to-layer="931" to-port="1"/>
		<edge from-layer="931" from-port="2" to-layer="932" to-port="0"/>
		<edge from-layer="932" from-port="1" to-layer="934" to-port="0"/>
		<edge from-layer="933" from-port="0" to-layer="934" to-port="1"/>
		<edge from-layer="934" from-port="2" to-layer="935" to-port="1"/>
		<edge from-layer="935" from-port="2" to-layer="937" to-port="0"/>
		<edge from-layer="935" from-port="2" to-layer="974" to-port="0"/>
		<edge from-layer="936" from-port="0" to-layer="937" to-port="1"/>
		<edge from-layer="937" from-port="2" to-layer="939" to-port="0"/>
		<edge from-layer="938" from-port="0" to-layer="939" to-port="1"/>
		<edge from-layer="939" from-port="2" to-layer="941" to-port="0"/>
		<edge from-layer="940" from-port="0" to-layer="941" to-port="1"/>
		<edge from-layer="941" from-port="2" to-layer="943" to-port="0"/>
		<edge from-layer="942" from-port="0" to-layer="943" to-port="1"/>
		<edge from-layer="943" from-port="2" to-layer="945" to-port="0"/>
		<edge from-layer="943" from-port="2" to-layer="949" to-port="0"/>
		<edge from-layer="944" from-port="0" to-layer="945" to-port="1"/>
		<edge from-layer="945" from-port="2" to-layer="946" to-port="0"/>
		<edge from-layer="946" from-port="1" to-layer="948" to-port="0"/>
		<edge from-layer="947" from-port="0" to-layer="948" to-port="1"/>
		<edge from-layer="948" from-port="2" to-layer="949" to-port="1"/>
		<edge from-layer="949" from-port="2" to-layer="951" to-port="0"/>
		<edge from-layer="950" from-port="0" to-layer="951" to-port="1"/>
		<edge from-layer="951" from-port="2" to-layer="953" to-port="0"/>
		<edge from-layer="952" from-port="0" to-layer="953" to-port="1"/>
		<edge from-layer="953" from-port="2" to-layer="955" to-port="0"/>
		<edge from-layer="954" from-port="0" to-layer="955" to-port="1"/>
		<edge from-layer="955" from-port="2" to-layer="957" to-port="0"/>
		<edge from-layer="956" from-port="0" to-layer="957" to-port="1"/>
		<edge from-layer="957" from-port="2" to-layer="959" to-port="0"/>
		<edge from-layer="957" from-port="2" to-layer="963" to-port="0"/>
		<edge from-layer="958" from-port="0" to-layer="959" to-port="1"/>
		<edge from-layer="959" from-port="2" to-layer="960" to-port="0"/>
		<edge from-layer="960" from-port="1" to-layer="962" to-port="0"/>
		<edge from-layer="961" from-port="0" to-layer="962" to-port="1"/>
		<edge from-layer="962" from-port="2" to-layer="963" to-port="1"/>
		<edge from-layer="963" from-port="2" to-layer="965" to-port="0"/>
		<edge from-layer="963" from-port="2" to-layer="969" to-port="0"/>
		<edge from-layer="964" from-port="0" to-layer="965" to-port="1"/>
		<edge from-layer="965" from-port="2" to-layer="967" to-port="0"/>
		<edge from-layer="966" from-port="0" to-layer="967" to-port="1"/>
		<edge from-layer="967" from-port="2" to-layer="1011" to-port="0"/>
		<edge from-layer="968" from-port="0" to-layer="969" to-port="1"/>
		<edge from-layer="969" from-port="2" to-layer="971" to-port="0"/>
		<edge from-layer="970" from-port="0" to-layer="971" to-port="1"/>
		<edge from-layer="971" from-port="2" to-layer="972" to-port="0"/>
		<edge from-layer="972" from-port="1" to-layer="1011" to-port="1"/>
		<edge from-layer="973" from-port="0" to-layer="974" to-port="1"/>
		<edge from-layer="974" from-port="2" to-layer="976" to-port="0"/>
		<edge from-layer="975" from-port="0" to-layer="976" to-port="1"/>
		<edge from-layer="976" from-port="2" to-layer="978" to-port="0"/>
		<edge from-layer="977" from-port="0" to-layer="978" to-port="1"/>
		<edge from-layer="978" from-port="2" to-layer="980" to-port="0"/>
		<edge from-layer="979" from-port="0" to-layer="980" to-port="1"/>
		<edge from-layer="980" from-port="2" to-layer="982" to-port="0"/>
		<edge from-layer="980" from-port="2" to-layer="986" to-port="0"/>
		<edge from-layer="981" from-port="0" to-layer="982" to-port="1"/>
		<edge from-layer="982" from-port="2" to-layer="983" to-port="0"/>
		<edge from-layer="983" from-port="1" to-layer="985" to-port="0"/>
		<edge from-layer="984" from-port="0" to-layer="985" to-port="1"/>
		<edge from-layer="985" from-port="2" to-layer="986" to-port="1"/>
		<edge from-layer="986" from-port="2" to-layer="988" to-port="0"/>
		<edge from-layer="987" from-port="0" to-layer="988" to-port="1"/>
		<edge from-layer="988" from-port="2" to-layer="990" to-port="0"/>
		<edge from-layer="989" from-port="0" to-layer="990" to-port="1"/>
		<edge from-layer="990" from-port="2" to-layer="992" to-port="0"/>
		<edge from-layer="991" from-port="0" to-layer="992" to-port="1"/>
		<edge from-layer="992" from-port="2" to-layer="994" to-port="0"/>
		<edge from-layer="993" from-port="0" to-layer="994" to-port="1"/>
		<edge from-layer="994" from-port="2" to-layer="996" to-port="0"/>
		<edge from-layer="994" from-port="2" to-layer="1000" to-port="0"/>
		<edge from-layer="995" from-port="0" to-layer="996" to-port="1"/>
		<edge from-layer="996" from-port="2" to-layer="997" to-port="0"/>
		<edge from-layer="997" from-port="1" to-layer="999" to-port="0"/>
		<edge from-layer="998" from-port="0" to-layer="999" to-port="1"/>
		<edge from-layer="999" from-port="2" to-layer="1000" to-port="1"/>
		<edge from-layer="1000" from-port="2" to-layer="1007" to-port="0"/>
		<edge from-layer="1000" from-port="2" to-layer="1002" to-port="0"/>
		<edge from-layer="1001" from-port="0" to-layer="1002" to-port="1"/>
		<edge from-layer="1002" from-port="2" to-layer="1004" to-port="0"/>
		<edge from-layer="1003" from-port="0" to-layer="1004" to-port="1"/>
		<edge from-layer="1004" from-port="2" to-layer="1005" to-port="0"/>
		<edge from-layer="1005" from-port="1" to-layer="1011" to-port="2"/>
		<edge from-layer="1006" from-port="0" to-layer="1007" to-port="1"/>
		<edge from-layer="1007" from-port="2" to-layer="1009" to-port="0"/>
		<edge from-layer="1008" from-port="0" to-layer="1009" to-port="1"/>
		<edge from-layer="1009" from-port="2" to-layer="1010" to-port="0"/>
		<edge from-layer="1010" from-port="1" to-layer="1011" to-port="3"/>
		<edge from-layer="1011" from-port="4" to-layer="1013" to-port="0"/>
		<edge from-layer="1012" from-port="0" to-layer="1013" to-port="1"/>
		<edge from-layer="1013" from-port="2" to-layer="1014" to-port="2"/>
		<edge from-layer="1014" from-port="3" to-layer="1016" to-port="0"/>
		<edge from-layer="1015" from-port="0" to-layer="1016" to-port="1"/>
		<edge from-layer="1016" from-port="2" to-layer="1017" to-port="0"/>
	</edges>
	<meta_data>
		<MO_version value="2021.4.1-3926-14e67d86634-releases/2021/4"/>
		<cli_parameters>
			<data_type value="FP16"/>
			<disable_resnet_optimization value="False"/>
			<disable_weights_compression value="False"/>
			<enable_concat_optimization value="False"/>
			<extensions value="DIR"/>
			<framework value="onnx"/>
			<freeze_placeholder_with_value value="{}"/>
			<generate_deprecated_IR_V7 value="False"/>
			<input_model value="DIR/buff.onnx"/>
			<keep_shape_ops value="True"/>
			<legacy_ir_generation value="False"/>
			<log_level value="ERROR"/>
			<mean_scale_values value="{}"/>
			<mean_values value="()"/>
			<model_name value="buff"/>
			<output_dir value="DIR"/>
			<placeholder_data_types value="{}"/>
			<progress value="False"/>
			<reverse_input_channels value="False"/>
			<scale_values value="()"/>
			<silent value="False"/>
			<static_shape value="False"/>
			<stream_output value="False"/>
			<transform value=""/>
			<unset unset_cli_parameters="batch, disable_fusing, disable_gfusing, finegrain_fusing, input, input_shape, move_to_preprocess, output, placeholder_shapes, scale, transformations_config"/>
		</cli_parameters>
	</meta_data>
</net>
