<?xml version="1.0" ?>
<net name="yolox" version="10">
	<layers>
		<layer id="0" name="images" type="Parameter" version="opset1">
			<data element_type="f16" shape="1, 3, 384, 640"/>
			<output>
				<port id="0" names="images" precision="FP16">
					<dim>1</dim>
					<dim>3</dim>
					<dim>384</dim>
					<dim>640</dim>
				</port>
			</output>
		</layer>
		<layer id="1" name="Slice_4/Concat784727375" type="Const" version="opset1">
			<data element_type="i64" offset="0" shape="4" size="32"/>
			<output>
				<port id="0" precision="I64">
					<dim>4</dim>
				</port>
			</output>
		</layer>
		<layer id="2" name="Slice_4/Concat7831784828140" type="Const" version="opset1">
			<data element_type="i64" offset="32" shape="4" size="32"/>
			<output>
				<port id="0" precision="I64">
					<dim>4</dim>
				</port>
			</output>
		</layer>
		<layer id="3" name="Slice_4/Strides784928032" type="Const" version="opset1">
			<data element_type="i64" offset="64" shape="4" size="32"/>
			<output>
				<port id="0" precision="I64">
					<dim>4</dim>
				</port>
			</output>
		</layer>
		<layer id="4" name="Slice_4" type="StridedSlice" version="opset1">
			<data begin_mask="1, 1, 0, 1" ellipsis_mask="0, 0, 0, 0" end_mask="1, 1, 0, 1" new_axis_mask="0, 0, 0, 0" shrink_axis_mask="0, 0, 0, 0"/>
			<input>
				<port id="0" precision="FP16">
					<dim>1</dim>
					<dim>3</dim>
					<dim>384</dim>
					<dim>640</dim>
				</port>
				<port id="1" precision="I64">
					<dim>4</dim>
				</port>
				<port id="2" precision="I64">
					<dim>4</dim>
				</port>
				<port id="3" precision="I64">
					<dim>4</dim>
				</port>
			</input>
			<output>
				<port id="4" names="869" precision="FP16">
					<dim>1</dim>
					<dim>3</dim>
					<dim>192</dim>
					<dim>640</dim>
				</port>
			</output>
		</layer>
		<layer id="5" name="Slice_9/Concat789527690" type="Const" version="opset1">
			<data element_type="i64" offset="0" shape="4" size="32"/>
			<output>
				<port id="0" precision="I64">
					<dim>4</dim>
				</port>
			</output>
		</layer>
		<layer id="6" name="Slice_9/Concat7879789627723" type="Const" version="opset1">
			<data element_type="i64" offset="96" shape="4" size="32"/>
			<output>
				<port id="0" precision="I64">
					<dim>4</dim>
				</port>
			</output>
		</layer>
		<layer id="7" name="Slice_9/Strides789727240" type="Const" version="opset1">
			<data element_type="i64" offset="128" shape="4" size="32"/>
			<output>
				<port id="0" precision="I64">
					<dim>4</dim>
				</port>
			</output>
		</layer>
		<layer id="8" name="Slice_9" type="StridedSlice" version="opset1">
			<data begin_mask="1, 1, 1, 0" ellipsis_mask="0, 0, 0, 0" end_mask="1, 1, 1, 0" new_axis_mask="0, 0, 0, 0" shrink_axis_mask="0, 0, 0, 0"/>
			<input>
				<port id="0" precision="FP16">
					<dim>1</dim>
					<dim>3</dim>
					<dim>192</dim>
					<dim>640</dim>
				</port>
				<port id="1" precision="I64">
					<dim>4</dim>
				</port>
				<port id="2" precision="I64">
					<dim>4</dim>
				</port>
				<port id="3" precision="I64">
					<dim>4</dim>
				</port>
			</input>
			<output>
				<port id="4" names="874" precision="FP16">
					<dim>1</dim>
					<dim>3</dim>
					<dim>192</dim>
					<dim>320</dim>
				</port>
			</output>
		</layer>
		<layer id="9" name="Slice_24/Concat803927441" type="Const" version="opset1">
			<data element_type="i64" offset="160" shape="4" size="32"/>
			<output>
				<port id="0" precision="I64">
					<dim>4</dim>
				</port>
			</output>
		</layer>
		<layer id="10" name="Slice_24/Concat8023804027291" type="Const" version="opset1">
			<data element_type="i64" offset="32" shape="4" size="32"/>
			<output>
				<port id="0" precision="I64">
					<dim>4</dim>
				</port>
			</output>
		</layer>
		<layer id="11" name="Slice_24/Strides804127729" type="Const" version="opset1">
			<data element_type="i64" offset="64" shape="4" size="32"/>
			<output>
				<port id="0" precision="I64">
					<dim>4</dim>
				</port>
			</output>
		</layer>
		<layer id="12" name="Slice_24" type="StridedSlice" version="opset1">
			<data begin_mask="1, 1, 0, 1" ellipsis_mask="0, 0, 0, 0" end_mask="1, 1, 0, 1" new_axis_mask="0, 0, 0, 0" shrink_axis_mask="0, 0, 0, 0"/>
			<input>
				<port id="0" precision="FP16">
					<dim>1</dim>
					<dim>3</dim>
					<dim>384</dim>
					<dim>640</dim>
				</port>
				<port id="1" precision="I64">
					<dim>4</dim>
				</port>
				<port id="2" precision="I64">
					<dim>4</dim>
				</port>
				<port id="3" precision="I64">
					<dim>4</dim>
				</port>
			</input>
			<output>
				<port id="4" names="889" precision="FP16">
					<dim>1</dim>
					<dim>3</dim>
					<dim>192</dim>
					<dim>640</dim>
				</port>
			</output>
		</layer>
		<layer id="13" name="Slice_29/Concat808727663" type="Const" version="opset1">
			<data element_type="i64" offset="0" shape="4" size="32"/>
			<output>
				<port id="0" precision="I64">
					<dim>4</dim>
				</port>
			</output>
		</layer>
		<layer id="14" name="Slice_29/Concat8071808827834" type="Const" version="opset1">
			<data element_type="i64" offset="96" shape="4" size="32"/>
			<output>
				<port id="0" precision="I64">
					<dim>4</dim>
				</port>
			</output>
		</layer>
		<layer id="15" name="Slice_29/Strides808928017" type="Const" version="opset1">
			<data element_type="i64" offset="128" shape="4" size="32"/>
			<output>
				<port id="0" precision="I64">
					<dim>4</dim>
				</port>
			</output>
		</layer>
		<layer id="16" name="Slice_29" type="StridedSlice" version="opset1">
			<data begin_mask="1, 1, 1, 0" ellipsis_mask="0, 0, 0, 0" end_mask="1, 1, 1, 0" new_axis_mask="0, 0, 0, 0" shrink_axis_mask="0, 0, 0, 0"/>
			<input>
				<port id="0" precision="FP16">
					<dim>1</dim>
					<dim>3</dim>
					<dim>192</dim>
					<dim>640</dim>
				</port>
				<port id="1" precision="I64">
					<dim>4</dim>
				</port>
				<port id="2" precision="I64">
					<dim>4</dim>
				</port>
				<port id="3" precision="I64">
					<dim>4</dim>
				</port>
			</input>
			<output>
				<port id="4" names="894" precision="FP16">
					<dim>1</dim>
					<dim>3</dim>
					<dim>192</dim>
					<dim>320</dim>
				</port>
			</output>
		</layer>
		<layer id="17" name="Slice_14/Concat794327255" type="Const" version="opset1">
			<data element_type="i64" offset="0" shape="4" size="32"/>
			<output>
				<port id="0" precision="I64">
					<dim>4</dim>
				</port>
			</output>
		</layer>
		<layer id="18" name="Slice_14/Concat7927794427483" type="Const" version="opset1">
			<data element_type="i64" offset="32" shape="4" size="32"/>
			<output>
				<port id="0" precision="I64">
					<dim>4</dim>
				</port>
			</output>
		</layer>
		<layer id="19" name="Slice_14/Strides794527273" type="Const" version="opset1">
			<data element_type="i64" offset="64" shape="4" size="32"/>
			<output>
				<port id="0" precision="I64">
					<dim>4</dim>
				</port>
			</output>
		</layer>
		<layer id="20" name="Slice_14" type="StridedSlice" version="opset1">
			<data begin_mask="1, 1, 0, 1" ellipsis_mask="0, 0, 0, 0" end_mask="1, 1, 0, 1" new_axis_mask="0, 0, 0, 0" shrink_axis_mask="0, 0, 0, 0"/>
			<input>
				<port id="0" precision="FP16">
					<dim>1</dim>
					<dim>3</dim>
					<dim>384</dim>
					<dim>640</dim>
				</port>
				<port id="1" precision="I64">
					<dim>4</dim>
				</port>
				<port id="2" precision="I64">
					<dim>4</dim>
				</port>
				<port id="3" precision="I64">
					<dim>4</dim>
				</port>
			</input>
			<output>
				<port id="4" names="879" precision="FP16">
					<dim>1</dim>
					<dim>3</dim>
					<dim>192</dim>
					<dim>640</dim>
				</port>
			</output>
		</layer>
		<layer id="21" name="Slice_19/Concat799127447" type="Const" version="opset1">
			<data element_type="i64" offset="192" shape="4" size="32"/>
			<output>
				<port id="0" precision="I64">
					<dim>4</dim>
				</port>
			</output>
		</layer>
		<layer id="22" name="Slice_19/Concat7975799227513" type="Const" version="opset1">
			<data element_type="i64" offset="96" shape="4" size="32"/>
			<output>
				<port id="0" precision="I64">
					<dim>4</dim>
				</port>
			</output>
		</layer>
		<layer id="23" name="Slice_19/Strides799327732" type="Const" version="opset1">
			<data element_type="i64" offset="128" shape="4" size="32"/>
			<output>
				<port id="0" precision="I64">
					<dim>4</dim>
				</port>
			</output>
		</layer>
		<layer id="24" name="Slice_19" type="StridedSlice" version="opset1">
			<data begin_mask="1, 1, 1, 0" ellipsis_mask="0, 0, 0, 0" end_mask="1, 1, 1, 0" new_axis_mask="0, 0, 0, 0" shrink_axis_mask="0, 0, 0, 0"/>
			<input>
				<port id="0" precision="FP16">
					<dim>1</dim>
					<dim>3</dim>
					<dim>192</dim>
					<dim>640</dim>
				</port>
				<port id="1" precision="I64">
					<dim>4</dim>
				</port>
				<port id="2" precision="I64">
					<dim>4</dim>
				</port>
				<port id="3" precision="I64">
					<dim>4</dim>
				</port>
			</input>
			<output>
				<port id="4" names="884" precision="FP16">
					<dim>1</dim>
					<dim>3</dim>
					<dim>192</dim>
					<dim>320</dim>
				</port>
			</output>
		</layer>
		<layer id="25" name="Slice_34/Concat813527153" type="Const" version="opset1">
			<data element_type="i64" offset="160" shape="4" size="32"/>
			<output>
				<port id="0" precision="I64">
					<dim>4</dim>
				</port>
			</output>
		</layer>
		<layer id="26" name="Slice_34/Concat8119813627549" type="Const" version="opset1">
			<data element_type="i64" offset="32" shape="4" size="32"/>
			<output>
				<port id="0" precision="I64">
					<dim>4</dim>
				</port>
			</output>
		</layer>
		<layer id="27" name="Slice_34/Strides813727933" type="Const" version="opset1">
			<data element_type="i64" offset="64" shape="4" size="32"/>
			<output>
				<port id="0" precision="I64">
					<dim>4</dim>
				</port>
			</output>
		</layer>
		<layer id="28" name="Slice_34" type="StridedSlice" version="opset1">
			<data begin_mask="1, 1, 0, 1" ellipsis_mask="0, 0, 0, 0" end_mask="1, 1, 0, 1" new_axis_mask="0, 0, 0, 0" shrink_axis_mask="0, 0, 0, 0"/>
			<input>
				<port id="0" precision="FP16">
					<dim>1</dim>
					<dim>3</dim>
					<dim>384</dim>
					<dim>640</dim>
				</port>
				<port id="1" precision="I64">
					<dim>4</dim>
				</port>
				<port id="2" precision="I64">
					<dim>4</dim>
				</port>
				<port id="3" precision="I64">
					<dim>4</dim>
				</port>
			</input>
			<output>
				<port id="4" names="899" precision="FP16">
					<dim>1</dim>
					<dim>3</dim>
					<dim>192</dim>
					<dim>640</dim>
				</port>
			</output>
		</layer>
		<layer id="29" name="Slice_39/Concat818327351" type="Const" version="opset1">
			<data element_type="i64" offset="192" shape="4" size="32"/>
			<output>
				<port id="0" precision="I64">
					<dim>4</dim>
				</port>
			</output>
		</layer>
		<layer id="30" name="Slice_39/Concat8167818427972" type="Const" version="opset1">
			<data element_type="i64" offset="96" shape="4" size="32"/>
			<output>
				<port id="0" precision="I64">
					<dim>4</dim>
				</port>
			</output>
		</layer>
		<layer id="31" name="Slice_39/Strides818527804" type="Const" version="opset1">
			<data element_type="i64" offset="128" shape="4" size="32"/>
			<output>
				<port id="0" precision="I64">
					<dim>4</dim>
				</port>
			</output>
		</layer>
		<layer id="32" name="Slice_39" type="StridedSlice" version="opset1">
			<data begin_mask="1, 1, 1, 0" ellipsis_mask="0, 0, 0, 0" end_mask="1, 1, 1, 0" new_axis_mask="0, 0, 0, 0" shrink_axis_mask="0, 0, 0, 0"/>
			<input>
				<port id="0" precision="FP16">
					<dim>1</dim>
					<dim>3</dim>
					<dim>192</dim>
					<dim>640</dim>
				</port>
				<port id="1" precision="I64">
					<dim>4</dim>
				</port>
				<port id="2" precision="I64">
					<dim>4</dim>
				</port>
				<port id="3" precision="I64">
					<dim>4</dim>
				</port>
			</input>
			<output>
				<port id="4" names="904" precision="FP16">
					<dim>1</dim>
					<dim>3</dim>
					<dim>192</dim>
					<dim>320</dim>
				</port>
			</output>
		</layer>
		<layer id="33" name="Concat_40" type="Concat" version="opset1">
			<data axis="1"/>
			<input>
				<port id="0" precision="FP16">
					<dim>1</dim>
					<dim>3</dim>
					<dim>192</dim>
					<dim>320</dim>
				</port>
				<port id="1" precision="FP16">
					<dim>1</dim>
					<dim>3</dim>
					<dim>192</dim>
					<dim>320</dim>
				</port>
				<port id="2" precision="FP16">
					<dim>1</dim>
					<dim>3</dim>
					<dim>192</dim>
					<dim>320</dim>
				</port>
				<port id="3" precision="FP16">
					<dim>1</dim>
					<dim>3</dim>
					<dim>192</dim>
					<dim>320</dim>
				</port>
			</input>
			<output>
				<port id="4" names="905" precision="FP16">
					<dim>1</dim>
					<dim>12</dim>
					<dim>192</dim>
					<dim>320</dim>
				</port>
			</output>
		</layer>
		<layer id="34" name="1557" type="Const" version="opset1">
			<data element_type="f16" offset="224" shape="16, 12, 3, 3" size="3456"/>
			<output>
				<port id="0" names="1557" precision="FP16">
					<dim>16</dim>
					<dim>12</dim>
					<dim>3</dim>
					<dim>3</dim>
				</port>
			</output>
		</layer>
		<layer id="35" name="Conv_41/WithoutBiases" type="Convolution" version="opset1">
			<data auto_pad="explicit" dilations="1, 1" pads_begin="1, 1" pads_end="1, 1" strides="1, 1"/>
			<input>
				<port id="0" precision="FP16">
					<dim>1</dim>
					<dim>12</dim>
					<dim>192</dim>
					<dim>320</dim>
				</port>
				<port id="1" precision="FP16">
					<dim>16</dim>
					<dim>12</dim>
					<dim>3</dim>
					<dim>3</dim>
				</port>
			</input>
			<output>
				<port id="2" precision="FP16">
					<dim>1</dim>
					<dim>16</dim>
					<dim>192</dim>
					<dim>320</dim>
				</port>
			</output>
		</layer>
		<layer id="36" name="Conv_41/Dims6728" type="Const" version="opset1">
			<data element_type="f16" offset="3680" shape="1, 16, 1, 1" size="32"/>
			<output>
				<port id="0" precision="FP16">
					<dim>1</dim>
					<dim>16</dim>
					<dim>1</dim>
					<dim>1</dim>
				</port>
			</output>
		</layer>
		<layer id="37" name="Conv_41" type="Add" version="opset1">
			<data auto_broadcast="numpy"/>
			<input>
				<port id="0" precision="FP16">
					<dim>1</dim>
					<dim>16</dim>
					<dim>192</dim>
					<dim>320</dim>
				</port>
				<port id="1" precision="FP16">
					<dim>1</dim>
					<dim>16</dim>
					<dim>1</dim>
					<dim>1</dim>
				</port>
			</input>
			<output>
				<port id="2" names="1556" precision="FP16">
					<dim>1</dim>
					<dim>16</dim>
					<dim>192</dim>
					<dim>320</dim>
				</port>
			</output>
		</layer>
		<layer id="38" name="Mul_43" type="Swish" version="opset4">
			<input>
				<port id="0" precision="FP16">
					<dim>1</dim>
					<dim>16</dim>
					<dim>192</dim>
					<dim>320</dim>
				</port>
			</input>
			<output>
				<port id="1" names="909" precision="FP16">
					<dim>1</dim>
					<dim>16</dim>
					<dim>192</dim>
					<dim>320</dim>
				</port>
			</output>
		</layer>
		<layer id="39" name="1560" type="Const" version="opset1">
			<data element_type="f16" offset="3712" shape="16, 1, 1, 3, 3" size="288"/>
			<output>
				<port id="0" names="1560" precision="FP16">
					<dim>16</dim>
					<dim>1</dim>
					<dim>1</dim>
					<dim>3</dim>
					<dim>3</dim>
				</port>
			</output>
		</layer>
		<layer id="40" name="Conv_44/WithoutBiases" type="GroupConvolution" version="opset1">
			<data auto_pad="explicit" dilations="1, 1" pads_begin="1, 1" pads_end="1, 1" strides="2, 2"/>
			<input>
				<port id="0" precision="FP16">
					<dim>1</dim>
					<dim>16</dim>
					<dim>192</dim>
					<dim>320</dim>
				</port>
				<port id="1" precision="FP16">
					<dim>16</dim>
					<dim>1</dim>
					<dim>1</dim>
					<dim>3</dim>
					<dim>3</dim>
				</port>
			</input>
			<output>
				<port id="2" precision="FP16">
					<dim>1</dim>
					<dim>16</dim>
					<dim>96</dim>
					<dim>160</dim>
				</port>
			</output>
		</layer>
		<layer id="41" name="Conv_44/Dims6902" type="Const" version="opset1">
			<data element_type="f16" offset="4000" shape="1, 16, 1, 1" size="32"/>
			<output>
				<port id="0" precision="FP16">
					<dim>1</dim>
					<dim>16</dim>
					<dim>1</dim>
					<dim>1</dim>
				</port>
			</output>
		</layer>
		<layer id="42" name="Conv_44" type="Add" version="opset1">
			<data auto_broadcast="numpy"/>
			<input>
				<port id="0" precision="FP16">
					<dim>1</dim>
					<dim>16</dim>
					<dim>96</dim>
					<dim>160</dim>
				</port>
				<port id="1" precision="FP16">
					<dim>1</dim>
					<dim>16</dim>
					<dim>1</dim>
					<dim>1</dim>
				</port>
			</input>
			<output>
				<port id="2" names="1559" precision="FP16">
					<dim>1</dim>
					<dim>16</dim>
					<dim>96</dim>
					<dim>160</dim>
				</port>
			</output>
		</layer>
		<layer id="43" name="Mul_46" type="Swish" version="opset4">
			<input>
				<port id="0" precision="FP16">
					<dim>1</dim>
					<dim>16</dim>
					<dim>96</dim>
					<dim>160</dim>
				</port>
			</input>
			<output>
				<port id="1" names="913" precision="FP16">
					<dim>1</dim>
					<dim>16</dim>
					<dim>96</dim>
					<dim>160</dim>
				</port>
			</output>
		</layer>
		<layer id="44" name="1563" type="Const" version="opset1">
			<data element_type="f16" offset="4032" shape="32, 16, 1, 1" size="1024"/>
			<output>
				<port id="0" names="1563" precision="FP16">
					<dim>32</dim>
					<dim>16</dim>
					<dim>1</dim>
					<dim>1</dim>
				</port>
			</output>
		</layer>
		<layer id="45" name="Conv_47/WithoutBiases" type="Convolution" version="opset1">
			<data auto_pad="explicit" dilations="1, 1" pads_begin="0, 0" pads_end="0, 0" strides="1, 1"/>
			<input>
				<port id="0" precision="FP16">
					<dim>1</dim>
					<dim>16</dim>
					<dim>96</dim>
					<dim>160</dim>
				</port>
				<port id="1" precision="FP16">
					<dim>32</dim>
					<dim>16</dim>
					<dim>1</dim>
					<dim>1</dim>
				</port>
			</input>
			<output>
				<port id="2" precision="FP16">
					<dim>1</dim>
					<dim>32</dim>
					<dim>96</dim>
					<dim>160</dim>
				</port>
			</output>
		</layer>
		<layer id="46" name="Conv_47/Dims7016" type="Const" version="opset1">
			<data element_type="f16" offset="5056" shape="1, 32, 1, 1" size="64"/>
			<output>
				<port id="0" precision="FP16">
					<dim>1</dim>
					<dim>32</dim>
					<dim>1</dim>
					<dim>1</dim>
				</port>
			</output>
		</layer>
		<layer id="47" name="Conv_47" type="Add" version="opset1">
			<data auto_broadcast="numpy"/>
			<input>
				<port id="0" precision="FP16">
					<dim>1</dim>
					<dim>32</dim>
					<dim>96</dim>
					<dim>160</dim>
				</port>
				<port id="1" precision="FP16">
					<dim>1</dim>
					<dim>32</dim>
					<dim>1</dim>
					<dim>1</dim>
				</port>
			</input>
			<output>
				<port id="2" names="1562" precision="FP16">
					<dim>1</dim>
					<dim>32</dim>
					<dim>96</dim>
					<dim>160</dim>
				</port>
			</output>
		</layer>
		<layer id="48" name="Mul_49" type="Swish" version="opset4">
			<input>
				<port id="0" precision="FP16">
					<dim>1</dim>
					<dim>32</dim>
					<dim>96</dim>
					<dim>160</dim>
				</port>
			</input>
			<output>
				<port id="1" names="917" precision="FP16">
					<dim>1</dim>
					<dim>32</dim>
					<dim>96</dim>
					<dim>160</dim>
				</port>
			</output>
		</layer>
		<layer id="49" name="1566" type="Const" version="opset1">
			<data element_type="f16" offset="5120" shape="16, 32, 1, 1" size="1024"/>
			<output>
				<port id="0" names="1566" precision="FP16">
					<dim>16</dim>
					<dim>32</dim>
					<dim>1</dim>
					<dim>1</dim>
				</port>
			</output>
		</layer>
		<layer id="50" name="Conv_50/WithoutBiases" type="Convolution" version="opset1">
			<data auto_pad="explicit" dilations="1, 1" pads_begin="0, 0" pads_end="0, 0" strides="1, 1"/>
			<input>
				<port id="0" precision="FP16">
					<dim>1</dim>
					<dim>32</dim>
					<dim>96</dim>
					<dim>160</dim>
				</port>
				<port id="1" precision="FP16">
					<dim>16</dim>
					<dim>32</dim>
					<dim>1</dim>
					<dim>1</dim>
				</port>
			</input>
			<output>
				<port id="2" precision="FP16">
					<dim>1</dim>
					<dim>16</dim>
					<dim>96</dim>
					<dim>160</dim>
				</port>
			</output>
		</layer>
		<layer id="51" name="Conv_50/Dims7250" type="Const" version="opset1">
			<data element_type="f16" offset="6144" shape="1, 16, 1, 1" size="32"/>
			<output>
				<port id="0" precision="FP16">
					<dim>1</dim>
					<dim>16</dim>
					<dim>1</dim>
					<dim>1</dim>
				</port>
			</output>
		</layer>
		<layer id="52" name="Conv_50" type="Add" version="opset1">
			<data auto_broadcast="numpy"/>
			<input>
				<port id="0" precision="FP16">
					<dim>1</dim>
					<dim>16</dim>
					<dim>96</dim>
					<dim>160</dim>
				</port>
				<port id="1" precision="FP16">
					<dim>1</dim>
					<dim>16</dim>
					<dim>1</dim>
					<dim>1</dim>
				</port>
			</input>
			<output>
				<port id="2" names="1565" precision="FP16">
					<dim>1</dim>
					<dim>16</dim>
					<dim>96</dim>
					<dim>160</dim>
				</port>
			</output>
		</layer>
		<layer id="53" name="Mul_52" type="Swish" version="opset4">
			<input>
				<port id="0" precision="FP16">
					<dim>1</dim>
					<dim>16</dim>
					<dim>96</dim>
					<dim>160</dim>
				</port>
			</input>
			<output>
				<port id="1" names="921" precision="FP16">
					<dim>1</dim>
					<dim>16</dim>
					<dim>96</dim>
					<dim>160</dim>
				</port>
			</output>
		</layer>
		<layer id="54" name="1572" type="Const" version="opset1">
			<data element_type="f16" offset="6176" shape="16, 16, 1, 1" size="512"/>
			<output>
				<port id="0" names="1572" precision="FP16">
					<dim>16</dim>
					<dim>16</dim>
					<dim>1</dim>
					<dim>1</dim>
				</port>
			</output>
		</layer>
		<layer id="55" name="Conv_56/WithoutBiases" type="Convolution" version="opset1">
			<data auto_pad="explicit" dilations="1, 1" pads_begin="0, 0" pads_end="0, 0" strides="1, 1"/>
			<input>
				<port id="0" precision="FP16">
					<dim>1</dim>
					<dim>16</dim>
					<dim>96</dim>
					<dim>160</dim>
				</port>
				<port id="1" precision="FP16">
					<dim>16</dim>
					<dim>16</dim>
					<dim>1</dim>
					<dim>1</dim>
				</port>
			</input>
			<output>
				<port id="2" precision="FP16">
					<dim>1</dim>
					<dim>16</dim>
					<dim>96</dim>
					<dim>160</dim>
				</port>
			</output>
		</layer>
		<layer id="56" name="Conv_56/Dims6596" type="Const" version="opset1">
			<data element_type="f16" offset="6688" shape="1, 16, 1, 1" size="32"/>
			<output>
				<port id="0" precision="FP16">
					<dim>1</dim>
					<dim>16</dim>
					<dim>1</dim>
					<dim>1</dim>
				</port>
			</output>
		</layer>
		<layer id="57" name="Conv_56" type="Add" version="opset1">
			<data auto_broadcast="numpy"/>
			<input>
				<port id="0" precision="FP16">
					<dim>1</dim>
					<dim>16</dim>
					<dim>96</dim>
					<dim>160</dim>
				</port>
				<port id="1" precision="FP16">
					<dim>1</dim>
					<dim>16</dim>
					<dim>1</dim>
					<dim>1</dim>
				</port>
			</input>
			<output>
				<port id="2" names="1571" precision="FP16">
					<dim>1</dim>
					<dim>16</dim>
					<dim>96</dim>
					<dim>160</dim>
				</port>
			</output>
		</layer>
		<layer id="58" name="Mul_58" type="Swish" version="opset4">
			<input>
				<port id="0" precision="FP16">
					<dim>1</dim>
					<dim>16</dim>
					<dim>96</dim>
					<dim>160</dim>
				</port>
			</input>
			<output>
				<port id="1" names="929" precision="FP16">
					<dim>1</dim>
					<dim>16</dim>
					<dim>96</dim>
					<dim>160</dim>
				</port>
			</output>
		</layer>
		<layer id="59" name="1575" type="Const" version="opset1">
			<data element_type="f16" offset="6720" shape="16, 1, 1, 3, 3" size="288"/>
			<output>
				<port id="0" names="1575" precision="FP16">
					<dim>16</dim>
					<dim>1</dim>
					<dim>1</dim>
					<dim>3</dim>
					<dim>3</dim>
				</port>
			</output>
		</layer>
		<layer id="60" name="Conv_59/WithoutBiases" type="GroupConvolution" version="opset1">
			<data auto_pad="explicit" dilations="1, 1" pads_begin="1, 1" pads_end="1, 1" strides="1, 1"/>
			<input>
				<port id="0" precision="FP16">
					<dim>1</dim>
					<dim>16</dim>
					<dim>96</dim>
					<dim>160</dim>
				</port>
				<port id="1" precision="FP16">
					<dim>16</dim>
					<dim>1</dim>
					<dim>1</dim>
					<dim>3</dim>
					<dim>3</dim>
				</port>
			</input>
			<output>
				<port id="2" precision="FP16">
					<dim>1</dim>
					<dim>16</dim>
					<dim>96</dim>
					<dim>160</dim>
				</port>
			</output>
		</layer>
		<layer id="61" name="Conv_59/Dims6818" type="Const" version="opset1">
			<data element_type="f16" offset="7008" shape="1, 16, 1, 1" size="32"/>
			<output>
				<port id="0" precision="FP16">
					<dim>1</dim>
					<dim>16</dim>
					<dim>1</dim>
					<dim>1</dim>
				</port>
			</output>
		</layer>
		<layer id="62" name="Conv_59" type="Add" version="opset1">
			<data auto_broadcast="numpy"/>
			<input>
				<port id="0" precision="FP16">
					<dim>1</dim>
					<dim>16</dim>
					<dim>96</dim>
					<dim>160</dim>
				</port>
				<port id="1" precision="FP16">
					<dim>1</dim>
					<dim>16</dim>
					<dim>1</dim>
					<dim>1</dim>
				</port>
			</input>
			<output>
				<port id="2" names="1574" precision="FP16">
					<dim>1</dim>
					<dim>16</dim>
					<dim>96</dim>
					<dim>160</dim>
				</port>
			</output>
		</layer>
		<layer id="63" name="Mul_61" type="Swish" version="opset4">
			<input>
				<port id="0" precision="FP16">
					<dim>1</dim>
					<dim>16</dim>
					<dim>96</dim>
					<dim>160</dim>
				</port>
			</input>
			<output>
				<port id="1" names="933" precision="FP16">
					<dim>1</dim>
					<dim>16</dim>
					<dim>96</dim>
					<dim>160</dim>
				</port>
			</output>
		</layer>
		<layer id="64" name="1578" type="Const" version="opset1">
			<data element_type="f16" offset="7040" shape="16, 16, 1, 1" size="512"/>
			<output>
				<port id="0" names="1578" precision="FP16">
					<dim>16</dim>
					<dim>16</dim>
					<dim>1</dim>
					<dim>1</dim>
				</port>
			</output>
		</layer>
		<layer id="65" name="Conv_62/WithoutBiases" type="Convolution" version="opset1">
			<data auto_pad="explicit" dilations="1, 1" pads_begin="0, 0" pads_end="0, 0" strides="1, 1"/>
			<input>
				<port id="0" precision="FP16">
					<dim>1</dim>
					<dim>16</dim>
					<dim>96</dim>
					<dim>160</dim>
				</port>
				<port id="1" precision="FP16">
					<dim>16</dim>
					<dim>16</dim>
					<dim>1</dim>
					<dim>1</dim>
				</port>
			</input>
			<output>
				<port id="2" precision="FP16">
					<dim>1</dim>
					<dim>16</dim>
					<dim>96</dim>
					<dim>160</dim>
				</port>
			</output>
		</layer>
		<layer id="66" name="Conv_62/Dims7448" type="Const" version="opset1">
			<data element_type="f16" offset="7552" shape="1, 16, 1, 1" size="32"/>
			<output>
				<port id="0" precision="FP16">
					<dim>1</dim>
					<dim>16</dim>
					<dim>1</dim>
					<dim>1</dim>
				</port>
			</output>
		</layer>
		<layer id="67" name="Conv_62" type="Add" version="opset1">
			<data auto_broadcast="numpy"/>
			<input>
				<port id="0" precision="FP16">
					<dim>1</dim>
					<dim>16</dim>
					<dim>96</dim>
					<dim>160</dim>
				</port>
				<port id="1" precision="FP16">
					<dim>1</dim>
					<dim>16</dim>
					<dim>1</dim>
					<dim>1</dim>
				</port>
			</input>
			<output>
				<port id="2" names="1577" precision="FP16">
					<dim>1</dim>
					<dim>16</dim>
					<dim>96</dim>
					<dim>160</dim>
				</port>
			</output>
		</layer>
		<layer id="68" name="Mul_64" type="Swish" version="opset4">
			<input>
				<port id="0" precision="FP16">
					<dim>1</dim>
					<dim>16</dim>
					<dim>96</dim>
					<dim>160</dim>
				</port>
			</input>
			<output>
				<port id="1" names="937" precision="FP16">
					<dim>1</dim>
					<dim>16</dim>
					<dim>96</dim>
					<dim>160</dim>
				</port>
			</output>
		</layer>
		<layer id="69" name="Add_65" type="Add" version="opset1">
			<data auto_broadcast="numpy"/>
			<input>
				<port id="0" precision="FP16">
					<dim>1</dim>
					<dim>16</dim>
					<dim>96</dim>
					<dim>160</dim>
				</port>
				<port id="1" precision="FP16">
					<dim>1</dim>
					<dim>16</dim>
					<dim>96</dim>
					<dim>160</dim>
				</port>
			</input>
			<output>
				<port id="2" names="938" precision="FP16">
					<dim>1</dim>
					<dim>16</dim>
					<dim>96</dim>
					<dim>160</dim>
				</port>
			</output>
		</layer>
		<layer id="70" name="1581" type="Const" version="opset1">
			<data element_type="f16" offset="7584" shape="16, 16, 1, 1" size="512"/>
			<output>
				<port id="0" names="1581" precision="FP16">
					<dim>16</dim>
					<dim>16</dim>
					<dim>1</dim>
					<dim>1</dim>
				</port>
			</output>
		</layer>
		<layer id="71" name="Conv_66/WithoutBiases" type="Convolution" version="opset1">
			<data auto_pad="explicit" dilations="1, 1" pads_begin="0, 0" pads_end="0, 0" strides="1, 1"/>
			<input>
				<port id="0" precision="FP16">
					<dim>1</dim>
					<dim>16</dim>
					<dim>96</dim>
					<dim>160</dim>
				</port>
				<port id="1" precision="FP16">
					<dim>16</dim>
					<dim>16</dim>
					<dim>1</dim>
					<dim>1</dim>
				</port>
			</input>
			<output>
				<port id="2" precision="FP16">
					<dim>1</dim>
					<dim>16</dim>
					<dim>96</dim>
					<dim>160</dim>
				</port>
			</output>
		</layer>
		<layer id="72" name="Conv_66/Dims6908" type="Const" version="opset1">
			<data element_type="f16" offset="8096" shape="1, 16, 1, 1" size="32"/>
			<output>
				<port id="0" precision="FP16">
					<dim>1</dim>
					<dim>16</dim>
					<dim>1</dim>
					<dim>1</dim>
				</port>
			</output>
		</layer>
		<layer id="73" name="Conv_66" type="Add" version="opset1">
			<data auto_broadcast="numpy"/>
			<input>
				<port id="0" precision="FP16">
					<dim>1</dim>
					<dim>16</dim>
					<dim>96</dim>
					<dim>160</dim>
				</port>
				<port id="1" precision="FP16">
					<dim>1</dim>
					<dim>16</dim>
					<dim>1</dim>
					<dim>1</dim>
				</port>
			</input>
			<output>
				<port id="2" names="1580" precision="FP16">
					<dim>1</dim>
					<dim>16</dim>
					<dim>96</dim>
					<dim>160</dim>
				</port>
			</output>
		</layer>
		<layer id="74" name="Mul_68" type="Swish" version="opset4">
			<input>
				<port id="0" precision="FP16">
					<dim>1</dim>
					<dim>16</dim>
					<dim>96</dim>
					<dim>160</dim>
				</port>
			</input>
			<output>
				<port id="1" names="942" precision="FP16">
					<dim>1</dim>
					<dim>16</dim>
					<dim>96</dim>
					<dim>160</dim>
				</port>
			</output>
		</layer>
		<layer id="75" name="1584" type="Const" version="opset1">
			<data element_type="f16" offset="8128" shape="16, 1, 1, 3, 3" size="288"/>
			<output>
				<port id="0" names="1584" precision="FP16">
					<dim>16</dim>
					<dim>1</dim>
					<dim>1</dim>
					<dim>3</dim>
					<dim>3</dim>
				</port>
			</output>
		</layer>
		<layer id="76" name="Conv_69/WithoutBiases" type="GroupConvolution" version="opset1">
			<data auto_pad="explicit" dilations="1, 1" pads_begin="1, 1" pads_end="1, 1" strides="1, 1"/>
			<input>
				<port id="0" precision="FP16">
					<dim>1</dim>
					<dim>16</dim>
					<dim>96</dim>
					<dim>160</dim>
				</port>
				<port id="1" precision="FP16">
					<dim>16</dim>
					<dim>1</dim>
					<dim>1</dim>
					<dim>3</dim>
					<dim>3</dim>
				</port>
			</input>
			<output>
				<port id="2" precision="FP16">
					<dim>1</dim>
					<dim>16</dim>
					<dim>96</dim>
					<dim>160</dim>
				</port>
			</output>
		</layer>
		<layer id="77" name="Conv_69/Dims7436" type="Const" version="opset1">
			<data element_type="f16" offset="8416" shape="1, 16, 1, 1" size="32"/>
			<output>
				<port id="0" precision="FP16">
					<dim>1</dim>
					<dim>16</dim>
					<dim>1</dim>
					<dim>1</dim>
				</port>
			</output>
		</layer>
		<layer id="78" name="Conv_69" type="Add" version="opset1">
			<data auto_broadcast="numpy"/>
			<input>
				<port id="0" precision="FP16">
					<dim>1</dim>
					<dim>16</dim>
					<dim>96</dim>
					<dim>160</dim>
				</port>
				<port id="1" precision="FP16">
					<dim>1</dim>
					<dim>16</dim>
					<dim>1</dim>
					<dim>1</dim>
				</port>
			</input>
			<output>
				<port id="2" names="1583" precision="FP16">
					<dim>1</dim>
					<dim>16</dim>
					<dim>96</dim>
					<dim>160</dim>
				</port>
			</output>
		</layer>
		<layer id="79" name="Mul_71" type="Swish" version="opset4">
			<input>
				<port id="0" precision="FP16">
					<dim>1</dim>
					<dim>16</dim>
					<dim>96</dim>
					<dim>160</dim>
				</port>
			</input>
			<output>
				<port id="1" names="946" precision="FP16">
					<dim>1</dim>
					<dim>16</dim>
					<dim>96</dim>
					<dim>160</dim>
				</port>
			</output>
		</layer>
		<layer id="80" name="1587" type="Const" version="opset1">
			<data element_type="f16" offset="8448" shape="16, 16, 1, 1" size="512"/>
			<output>
				<port id="0" names="1587" precision="FP16">
					<dim>16</dim>
					<dim>16</dim>
					<dim>1</dim>
					<dim>1</dim>
				</port>
			</output>
		</layer>
		<layer id="81" name="Conv_72/WithoutBiases" type="Convolution" version="opset1">
			<data auto_pad="explicit" dilations="1, 1" pads_begin="0, 0" pads_end="0, 0" strides="1, 1"/>
			<input>
				<port id="0" precision="FP16">
					<dim>1</dim>
					<dim>16</dim>
					<dim>96</dim>
					<dim>160</dim>
				</port>
				<port id="1" precision="FP16">
					<dim>16</dim>
					<dim>16</dim>
					<dim>1</dim>
					<dim>1</dim>
				</port>
			</input>
			<output>
				<port id="2" precision="FP16">
					<dim>1</dim>
					<dim>16</dim>
					<dim>96</dim>
					<dim>160</dim>
				</port>
			</output>
		</layer>
		<layer id="82" name="Conv_72/Dims6620" type="Const" version="opset1">
			<data element_type="f16" offset="8960" shape="1, 16, 1, 1" size="32"/>
			<output>
				<port id="0" precision="FP16">
					<dim>1</dim>
					<dim>16</dim>
					<dim>1</dim>
					<dim>1</dim>
				</port>
			</output>
		</layer>
		<layer id="83" name="Conv_72" type="Add" version="opset1">
			<data auto_broadcast="numpy"/>
			<input>
				<port id="0" precision="FP16">
					<dim>1</dim>
					<dim>16</dim>
					<dim>96</dim>
					<dim>160</dim>
				</port>
				<port id="1" precision="FP16">
					<dim>1</dim>
					<dim>16</dim>
					<dim>1</dim>
					<dim>1</dim>
				</port>
			</input>
			<output>
				<port id="2" names="1586" precision="FP16">
					<dim>1</dim>
					<dim>16</dim>
					<dim>96</dim>
					<dim>160</dim>
				</port>
			</output>
		</layer>
		<layer id="84" name="Mul_74" type="Swish" version="opset4">
			<input>
				<port id="0" precision="FP16">
					<dim>1</dim>
					<dim>16</dim>
					<dim>96</dim>
					<dim>160</dim>
				</port>
			</input>
			<output>
				<port id="1" names="950" precision="FP16">
					<dim>1</dim>
					<dim>16</dim>
					<dim>96</dim>
					<dim>160</dim>
				</port>
			</output>
		</layer>
		<layer id="85" name="Add_75" type="Add" version="opset1">
			<data auto_broadcast="numpy"/>
			<input>
				<port id="0" precision="FP16">
					<dim>1</dim>
					<dim>16</dim>
					<dim>96</dim>
					<dim>160</dim>
				</port>
				<port id="1" precision="FP16">
					<dim>1</dim>
					<dim>16</dim>
					<dim>96</dim>
					<dim>160</dim>
				</port>
			</input>
			<output>
				<port id="2" names="951" precision="FP16">
					<dim>1</dim>
					<dim>16</dim>
					<dim>96</dim>
					<dim>160</dim>
				</port>
			</output>
		</layer>
		<layer id="86" name="1569" type="Const" version="opset1">
			<data element_type="f16" offset="8992" shape="16, 32, 1, 1" size="1024"/>
			<output>
				<port id="0" names="1569" precision="FP16">
					<dim>16</dim>
					<dim>32</dim>
					<dim>1</dim>
					<dim>1</dim>
				</port>
			</output>
		</layer>
		<layer id="87" name="Conv_53/WithoutBiases" type="Convolution" version="opset1">
			<data auto_pad="explicit" dilations="1, 1" pads_begin="0, 0" pads_end="0, 0" strides="1, 1"/>
			<input>
				<port id="0" precision="FP16">
					<dim>1</dim>
					<dim>32</dim>
					<dim>96</dim>
					<dim>160</dim>
				</port>
				<port id="1" precision="FP16">
					<dim>16</dim>
					<dim>32</dim>
					<dim>1</dim>
					<dim>1</dim>
				</port>
			</input>
			<output>
				<port id="2" precision="FP16">
					<dim>1</dim>
					<dim>16</dim>
					<dim>96</dim>
					<dim>160</dim>
				</port>
			</output>
		</layer>
		<layer id="88" name="Conv_53/Dims7358" type="Const" version="opset1">
			<data element_type="f16" offset="10016" shape="1, 16, 1, 1" size="32"/>
			<output>
				<port id="0" precision="FP16">
					<dim>1</dim>
					<dim>16</dim>
					<dim>1</dim>
					<dim>1</dim>
				</port>
			</output>
		</layer>
		<layer id="89" name="Conv_53" type="Add" version="opset1">
			<data auto_broadcast="numpy"/>
			<input>
				<port id="0" precision="FP16">
					<dim>1</dim>
					<dim>16</dim>
					<dim>96</dim>
					<dim>160</dim>
				</port>
				<port id="1" precision="FP16">
					<dim>1</dim>
					<dim>16</dim>
					<dim>1</dim>
					<dim>1</dim>
				</port>
			</input>
			<output>
				<port id="2" names="1568" precision="FP16">
					<dim>1</dim>
					<dim>16</dim>
					<dim>96</dim>
					<dim>160</dim>
				</port>
			</output>
		</layer>
		<layer id="90" name="Mul_55" type="Swish" version="opset4">
			<input>
				<port id="0" precision="FP16">
					<dim>1</dim>
					<dim>16</dim>
					<dim>96</dim>
					<dim>160</dim>
				</port>
			</input>
			<output>
				<port id="1" names="925" precision="FP16">
					<dim>1</dim>
					<dim>16</dim>
					<dim>96</dim>
					<dim>160</dim>
				</port>
			</output>
		</layer>
		<layer id="91" name="Concat_76" type="Concat" version="opset1">
			<data axis="1"/>
			<input>
				<port id="0" precision="FP16">
					<dim>1</dim>
					<dim>16</dim>
					<dim>96</dim>
					<dim>160</dim>
				</port>
				<port id="1" precision="FP16">
					<dim>1</dim>
					<dim>16</dim>
					<dim>96</dim>
					<dim>160</dim>
				</port>
			</input>
			<output>
				<port id="2" names="952" precision="FP16">
					<dim>1</dim>
					<dim>32</dim>
					<dim>96</dim>
					<dim>160</dim>
				</port>
			</output>
		</layer>
		<layer id="92" name="1590" type="Const" version="opset1">
			<data element_type="f16" offset="10048" shape="32, 32, 1, 1" size="2048"/>
			<output>
				<port id="0" names="1590" precision="FP16">
					<dim>32</dim>
					<dim>32</dim>
					<dim>1</dim>
					<dim>1</dim>
				</port>
			</output>
		</layer>
		<layer id="93" name="Conv_77/WithoutBiases" type="Convolution" version="opset1">
			<data auto_pad="explicit" dilations="1, 1" pads_begin="0, 0" pads_end="0, 0" strides="1, 1"/>
			<input>
				<port id="0" precision="FP16">
					<dim>1</dim>
					<dim>32</dim>
					<dim>96</dim>
					<dim>160</dim>
				</port>
				<port id="1" precision="FP16">
					<dim>32</dim>
					<dim>32</dim>
					<dim>1</dim>
					<dim>1</dim>
				</port>
			</input>
			<output>
				<port id="2" precision="FP16">
					<dim>1</dim>
					<dim>32</dim>
					<dim>96</dim>
					<dim>160</dim>
				</port>
			</output>
		</layer>
		<layer id="94" name="Conv_77/Dims6638" type="Const" version="opset1">
			<data element_type="f16" offset="12096" shape="1, 32, 1, 1" size="64"/>
			<output>
				<port id="0" precision="FP16">
					<dim>1</dim>
					<dim>32</dim>
					<dim>1</dim>
					<dim>1</dim>
				</port>
			</output>
		</layer>
		<layer id="95" name="Conv_77" type="Add" version="opset1">
			<data auto_broadcast="numpy"/>
			<input>
				<port id="0" precision="FP16">
					<dim>1</dim>
					<dim>32</dim>
					<dim>96</dim>
					<dim>160</dim>
				</port>
				<port id="1" precision="FP16">
					<dim>1</dim>
					<dim>32</dim>
					<dim>1</dim>
					<dim>1</dim>
				</port>
			</input>
			<output>
				<port id="2" names="1589" precision="FP16">
					<dim>1</dim>
					<dim>32</dim>
					<dim>96</dim>
					<dim>160</dim>
				</port>
			</output>
		</layer>
		<layer id="96" name="Mul_79" type="Swish" version="opset4">
			<input>
				<port id="0" precision="FP16">
					<dim>1</dim>
					<dim>32</dim>
					<dim>96</dim>
					<dim>160</dim>
				</port>
			</input>
			<output>
				<port id="1" names="956" precision="FP16">
					<dim>1</dim>
					<dim>32</dim>
					<dim>96</dim>
					<dim>160</dim>
				</port>
			</output>
		</layer>
		<layer id="97" name="1593" type="Const" version="opset1">
			<data element_type="f16" offset="12160" shape="32, 1, 1, 3, 3" size="576"/>
			<output>
				<port id="0" names="1593" precision="FP16">
					<dim>32</dim>
					<dim>1</dim>
					<dim>1</dim>
					<dim>3</dim>
					<dim>3</dim>
				</port>
			</output>
		</layer>
		<layer id="98" name="Conv_80/WithoutBiases" type="GroupConvolution" version="opset1">
			<data auto_pad="explicit" dilations="1, 1" pads_begin="1, 1" pads_end="1, 1" strides="2, 2"/>
			<input>
				<port id="0" precision="FP16">
					<dim>1</dim>
					<dim>32</dim>
					<dim>96</dim>
					<dim>160</dim>
				</port>
				<port id="1" precision="FP16">
					<dim>32</dim>
					<dim>1</dim>
					<dim>1</dim>
					<dim>3</dim>
					<dim>3</dim>
				</port>
			</input>
			<output>
				<port id="2" precision="FP16">
					<dim>1</dim>
					<dim>32</dim>
					<dim>48</dim>
					<dim>80</dim>
				</port>
			</output>
		</layer>
		<layer id="99" name="Conv_80/Dims6608" type="Const" version="opset1">
			<data element_type="f16" offset="12736" shape="1, 32, 1, 1" size="64"/>
			<output>
				<port id="0" precision="FP16">
					<dim>1</dim>
					<dim>32</dim>
					<dim>1</dim>
					<dim>1</dim>
				</port>
			</output>
		</layer>
		<layer id="100" name="Conv_80" type="Add" version="opset1">
			<data auto_broadcast="numpy"/>
			<input>
				<port id="0" precision="FP16">
					<dim>1</dim>
					<dim>32</dim>
					<dim>48</dim>
					<dim>80</dim>
				</port>
				<port id="1" precision="FP16">
					<dim>1</dim>
					<dim>32</dim>
					<dim>1</dim>
					<dim>1</dim>
				</port>
			</input>
			<output>
				<port id="2" names="1592" precision="FP16">
					<dim>1</dim>
					<dim>32</dim>
					<dim>48</dim>
					<dim>80</dim>
				</port>
			</output>
		</layer>
		<layer id="101" name="Mul_82" type="Swish" version="opset4">
			<input>
				<port id="0" precision="FP16">
					<dim>1</dim>
					<dim>32</dim>
					<dim>48</dim>
					<dim>80</dim>
				</port>
			</input>
			<output>
				<port id="1" names="960" precision="FP16">
					<dim>1</dim>
					<dim>32</dim>
					<dim>48</dim>
					<dim>80</dim>
				</port>
			</output>
		</layer>
		<layer id="102" name="1596" type="Const" version="opset1">
			<data element_type="f16" offset="12800" shape="64, 32, 1, 1" size="4096"/>
			<output>
				<port id="0" names="1596" precision="FP16">
					<dim>64</dim>
					<dim>32</dim>
					<dim>1</dim>
					<dim>1</dim>
				</port>
			</output>
		</layer>
		<layer id="103" name="Conv_83/WithoutBiases" type="Convolution" version="opset1">
			<data auto_pad="explicit" dilations="1, 1" pads_begin="0, 0" pads_end="0, 0" strides="1, 1"/>
			<input>
				<port id="0" precision="FP16">
					<dim>1</dim>
					<dim>32</dim>
					<dim>48</dim>
					<dim>80</dim>
				</port>
				<port id="1" precision="FP16">
					<dim>64</dim>
					<dim>32</dim>
					<dim>1</dim>
					<dim>1</dim>
				</port>
			</input>
			<output>
				<port id="2" precision="FP16">
					<dim>1</dim>
					<dim>64</dim>
					<dim>48</dim>
					<dim>80</dim>
				</port>
			</output>
		</layer>
		<layer id="104" name="Conv_83/Dims7316" type="Const" version="opset1">
			<data element_type="f16" offset="16896" shape="1, 64, 1, 1" size="128"/>
			<output>
				<port id="0" precision="FP16">
					<dim>1</dim>
					<dim>64</dim>
					<dim>1</dim>
					<dim>1</dim>
				</port>
			</output>
		</layer>
		<layer id="105" name="Conv_83" type="Add" version="opset1">
			<data auto_broadcast="numpy"/>
			<input>
				<port id="0" precision="FP16">
					<dim>1</dim>
					<dim>64</dim>
					<dim>48</dim>
					<dim>80</dim>
				</port>
				<port id="1" precision="FP16">
					<dim>1</dim>
					<dim>64</dim>
					<dim>1</dim>
					<dim>1</dim>
				</port>
			</input>
			<output>
				<port id="2" names="1595" precision="FP16">
					<dim>1</dim>
					<dim>64</dim>
					<dim>48</dim>
					<dim>80</dim>
				</port>
			</output>
		</layer>
		<layer id="106" name="Mul_85" type="Swish" version="opset4">
			<input>
				<port id="0" precision="FP16">
					<dim>1</dim>
					<dim>64</dim>
					<dim>48</dim>
					<dim>80</dim>
				</port>
			</input>
			<output>
				<port id="1" names="964" precision="FP16">
					<dim>1</dim>
					<dim>64</dim>
					<dim>48</dim>
					<dim>80</dim>
				</port>
			</output>
		</layer>
		<layer id="107" name="1599" type="Const" version="opset1">
			<data element_type="f16" offset="17024" shape="32, 64, 1, 1" size="4096"/>
			<output>
				<port id="0" names="1599" precision="FP16">
					<dim>32</dim>
					<dim>64</dim>
					<dim>1</dim>
					<dim>1</dim>
				</port>
			</output>
		</layer>
		<layer id="108" name="Conv_86/WithoutBiases" type="Convolution" version="opset1">
			<data auto_pad="explicit" dilations="1, 1" pads_begin="0, 0" pads_end="0, 0" strides="1, 1"/>
			<input>
				<port id="0" precision="FP16">
					<dim>1</dim>
					<dim>64</dim>
					<dim>48</dim>
					<dim>80</dim>
				</port>
				<port id="1" precision="FP16">
					<dim>32</dim>
					<dim>64</dim>
					<dim>1</dim>
					<dim>1</dim>
				</port>
			</input>
			<output>
				<port id="2" precision="FP16">
					<dim>1</dim>
					<dim>32</dim>
					<dim>48</dim>
					<dim>80</dim>
				</port>
			</output>
		</layer>
		<layer id="109" name="Conv_86/Dims7430" type="Const" version="opset1">
			<data element_type="f16" offset="21120" shape="1, 32, 1, 1" size="64"/>
			<output>
				<port id="0" precision="FP16">
					<dim>1</dim>
					<dim>32</dim>
					<dim>1</dim>
					<dim>1</dim>
				</port>
			</output>
		</layer>
		<layer id="110" name="Conv_86" type="Add" version="opset1">
			<data auto_broadcast="numpy"/>
			<input>
				<port id="0" precision="FP16">
					<dim>1</dim>
					<dim>32</dim>
					<dim>48</dim>
					<dim>80</dim>
				</port>
				<port id="1" precision="FP16">
					<dim>1</dim>
					<dim>32</dim>
					<dim>1</dim>
					<dim>1</dim>
				</port>
			</input>
			<output>
				<port id="2" names="1598" precision="FP16">
					<dim>1</dim>
					<dim>32</dim>
					<dim>48</dim>
					<dim>80</dim>
				</port>
			</output>
		</layer>
		<layer id="111" name="Mul_88" type="Swish" version="opset4">
			<input>
				<port id="0" precision="FP16">
					<dim>1</dim>
					<dim>32</dim>
					<dim>48</dim>
					<dim>80</dim>
				</port>
			</input>
			<output>
				<port id="1" names="968" precision="FP16">
					<dim>1</dim>
					<dim>32</dim>
					<dim>48</dim>
					<dim>80</dim>
				</port>
			</output>
		</layer>
		<layer id="112" name="1605" type="Const" version="opset1">
			<data element_type="f16" offset="21184" shape="32, 32, 1, 1" size="2048"/>
			<output>
				<port id="0" names="1605" precision="FP16">
					<dim>32</dim>
					<dim>32</dim>
					<dim>1</dim>
					<dim>1</dim>
				</port>
			</output>
		</layer>
		<layer id="113" name="Conv_92/WithoutBiases" type="Convolution" version="opset1">
			<data auto_pad="explicit" dilations="1, 1" pads_begin="0, 0" pads_end="0, 0" strides="1, 1"/>
			<input>
				<port id="0" precision="FP16">
					<dim>1</dim>
					<dim>32</dim>
					<dim>48</dim>
					<dim>80</dim>
				</port>
				<port id="1" precision="FP16">
					<dim>32</dim>
					<dim>32</dim>
					<dim>1</dim>
					<dim>1</dim>
				</port>
			</input>
			<output>
				<port id="2" precision="FP16">
					<dim>1</dim>
					<dim>32</dim>
					<dim>48</dim>
					<dim>80</dim>
				</port>
			</output>
		</layer>
		<layer id="114" name="Conv_92/Dims7082" type="Const" version="opset1">
			<data element_type="f16" offset="23232" shape="1, 32, 1, 1" size="64"/>
			<output>
				<port id="0" precision="FP16">
					<dim>1</dim>
					<dim>32</dim>
					<dim>1</dim>
					<dim>1</dim>
				</port>
			</output>
		</layer>
		<layer id="115" name="Conv_92" type="Add" version="opset1">
			<data auto_broadcast="numpy"/>
			<input>
				<port id="0" precision="FP16">
					<dim>1</dim>
					<dim>32</dim>
					<dim>48</dim>
					<dim>80</dim>
				</port>
				<port id="1" precision="FP16">
					<dim>1</dim>
					<dim>32</dim>
					<dim>1</dim>
					<dim>1</dim>
				</port>
			</input>
			<output>
				<port id="2" names="1604" precision="FP16">
					<dim>1</dim>
					<dim>32</dim>
					<dim>48</dim>
					<dim>80</dim>
				</port>
			</output>
		</layer>
		<layer id="116" name="Mul_94" type="Swish" version="opset4">
			<input>
				<port id="0" precision="FP16">
					<dim>1</dim>
					<dim>32</dim>
					<dim>48</dim>
					<dim>80</dim>
				</port>
			</input>
			<output>
				<port id="1" names="976" precision="FP16">
					<dim>1</dim>
					<dim>32</dim>
					<dim>48</dim>
					<dim>80</dim>
				</port>
			</output>
		</layer>
		<layer id="117" name="1608" type="Const" version="opset1">
			<data element_type="f16" offset="23296" shape="32, 1, 1, 3, 3" size="576"/>
			<output>
				<port id="0" names="1608" precision="FP16">
					<dim>32</dim>
					<dim>1</dim>
					<dim>1</dim>
					<dim>3</dim>
					<dim>3</dim>
				</port>
			</output>
		</layer>
		<layer id="118" name="Conv_95/WithoutBiases" type="GroupConvolution" version="opset1">
			<data auto_pad="explicit" dilations="1, 1" pads_begin="1, 1" pads_end="1, 1" strides="1, 1"/>
			<input>
				<port id="0" precision="FP16">
					<dim>1</dim>
					<dim>32</dim>
					<dim>48</dim>
					<dim>80</dim>
				</port>
				<port id="1" precision="FP16">
					<dim>32</dim>
					<dim>1</dim>
					<dim>1</dim>
					<dim>3</dim>
					<dim>3</dim>
				</port>
			</input>
			<output>
				<port id="2" precision="FP16">
					<dim>1</dim>
					<dim>32</dim>
					<dim>48</dim>
					<dim>80</dim>
				</port>
			</output>
		</layer>
		<layer id="119" name="Conv_95/Dims7106" type="Const" version="opset1">
			<data element_type="f16" offset="23872" shape="1, 32, 1, 1" size="64"/>
			<output>
				<port id="0" precision="FP16">
					<dim>1</dim>
					<dim>32</dim>
					<dim>1</dim>
					<dim>1</dim>
				</port>
			</output>
		</layer>
		<layer id="120" name="Conv_95" type="Add" version="opset1">
			<data auto_broadcast="numpy"/>
			<input>
				<port id="0" precision="FP16">
					<dim>1</dim>
					<dim>32</dim>
					<dim>48</dim>
					<dim>80</dim>
				</port>
				<port id="1" precision="FP16">
					<dim>1</dim>
					<dim>32</dim>
					<dim>1</dim>
					<dim>1</dim>
				</port>
			</input>
			<output>
				<port id="2" names="1607" precision="FP16">
					<dim>1</dim>
					<dim>32</dim>
					<dim>48</dim>
					<dim>80</dim>
				</port>
			</output>
		</layer>
		<layer id="121" name="Mul_97" type="Swish" version="opset4">
			<input>
				<port id="0" precision="FP16">
					<dim>1</dim>
					<dim>32</dim>
					<dim>48</dim>
					<dim>80</dim>
				</port>
			</input>
			<output>
				<port id="1" names="980" precision="FP16">
					<dim>1</dim>
					<dim>32</dim>
					<dim>48</dim>
					<dim>80</dim>
				</port>
			</output>
		</layer>
		<layer id="122" name="1611" type="Const" version="opset1">
			<data element_type="f16" offset="23936" shape="32, 32, 1, 1" size="2048"/>
			<output>
				<port id="0" names="1611" precision="FP16">
					<dim>32</dim>
					<dim>32</dim>
					<dim>1</dim>
					<dim>1</dim>
				</port>
			</output>
		</layer>
		<layer id="123" name="Conv_98/WithoutBiases" type="Convolution" version="opset1">
			<data auto_pad="explicit" dilations="1, 1" pads_begin="0, 0" pads_end="0, 0" strides="1, 1"/>
			<input>
				<port id="0" precision="FP16">
					<dim>1</dim>
					<dim>32</dim>
					<dim>48</dim>
					<dim>80</dim>
				</port>
				<port id="1" precision="FP16">
					<dim>32</dim>
					<dim>32</dim>
					<dim>1</dim>
					<dim>1</dim>
				</port>
			</input>
			<output>
				<port id="2" precision="FP16">
					<dim>1</dim>
					<dim>32</dim>
					<dim>48</dim>
					<dim>80</dim>
				</port>
			</output>
		</layer>
		<layer id="124" name="Conv_98/Dims7418" type="Const" version="opset1">
			<data element_type="f16" offset="25984" shape="1, 32, 1, 1" size="64"/>
			<output>
				<port id="0" precision="FP16">
					<dim>1</dim>
					<dim>32</dim>
					<dim>1</dim>
					<dim>1</dim>
				</port>
			</output>
		</layer>
		<layer id="125" name="Conv_98" type="Add" version="opset1">
			<data auto_broadcast="numpy"/>
			<input>
				<port id="0" precision="FP16">
					<dim>1</dim>
					<dim>32</dim>
					<dim>48</dim>
					<dim>80</dim>
				</port>
				<port id="1" precision="FP16">
					<dim>1</dim>
					<dim>32</dim>
					<dim>1</dim>
					<dim>1</dim>
				</port>
			</input>
			<output>
				<port id="2" names="1610" precision="FP16">
					<dim>1</dim>
					<dim>32</dim>
					<dim>48</dim>
					<dim>80</dim>
				</port>
			</output>
		</layer>
		<layer id="126" name="Mul_100" type="Swish" version="opset4">
			<input>
				<port id="0" precision="FP16">
					<dim>1</dim>
					<dim>32</dim>
					<dim>48</dim>
					<dim>80</dim>
				</port>
			</input>
			<output>
				<port id="1" names="984" precision="FP16">
					<dim>1</dim>
					<dim>32</dim>
					<dim>48</dim>
					<dim>80</dim>
				</port>
			</output>
		</layer>
		<layer id="127" name="Add_101" type="Add" version="opset1">
			<data auto_broadcast="numpy"/>
			<input>
				<port id="0" precision="FP16">
					<dim>1</dim>
					<dim>32</dim>
					<dim>48</dim>
					<dim>80</dim>
				</port>
				<port id="1" precision="FP16">
					<dim>1</dim>
					<dim>32</dim>
					<dim>48</dim>
					<dim>80</dim>
				</port>
			</input>
			<output>
				<port id="2" names="985" precision="FP16">
					<dim>1</dim>
					<dim>32</dim>
					<dim>48</dim>
					<dim>80</dim>
				</port>
			</output>
		</layer>
		<layer id="128" name="1614" type="Const" version="opset1">
			<data element_type="f16" offset="26048" shape="32, 32, 1, 1" size="2048"/>
			<output>
				<port id="0" names="1614" precision="FP16">
					<dim>32</dim>
					<dim>32</dim>
					<dim>1</dim>
					<dim>1</dim>
				</port>
			</output>
		</layer>
		<layer id="129" name="Conv_102/WithoutBiases" type="Convolution" version="opset1">
			<data auto_pad="explicit" dilations="1, 1" pads_begin="0, 0" pads_end="0, 0" strides="1, 1"/>
			<input>
				<port id="0" precision="FP16">
					<dim>1</dim>
					<dim>32</dim>
					<dim>48</dim>
					<dim>80</dim>
				</port>
				<port id="1" precision="FP16">
					<dim>32</dim>
					<dim>32</dim>
					<dim>1</dim>
					<dim>1</dim>
				</port>
			</input>
			<output>
				<port id="2" precision="FP16">
					<dim>1</dim>
					<dim>32</dim>
					<dim>48</dim>
					<dim>80</dim>
				</port>
			</output>
		</layer>
		<layer id="130" name="Conv_102/Dims7202" type="Const" version="opset1">
			<data element_type="f16" offset="28096" shape="1, 32, 1, 1" size="64"/>
			<output>
				<port id="0" precision="FP16">
					<dim>1</dim>
					<dim>32</dim>
					<dim>1</dim>
					<dim>1</dim>
				</port>
			</output>
		</layer>
		<layer id="131" name="Conv_102" type="Add" version="opset1">
			<data auto_broadcast="numpy"/>
			<input>
				<port id="0" precision="FP16">
					<dim>1</dim>
					<dim>32</dim>
					<dim>48</dim>
					<dim>80</dim>
				</port>
				<port id="1" precision="FP16">
					<dim>1</dim>
					<dim>32</dim>
					<dim>1</dim>
					<dim>1</dim>
				</port>
			</input>
			<output>
				<port id="2" names="1613" precision="FP16">
					<dim>1</dim>
					<dim>32</dim>
					<dim>48</dim>
					<dim>80</dim>
				</port>
			</output>
		</layer>
		<layer id="132" name="Mul_104" type="Swish" version="opset4">
			<input>
				<port id="0" precision="FP16">
					<dim>1</dim>
					<dim>32</dim>
					<dim>48</dim>
					<dim>80</dim>
				</port>
			</input>
			<output>
				<port id="1" names="989" precision="FP16">
					<dim>1</dim>
					<dim>32</dim>
					<dim>48</dim>
					<dim>80</dim>
				</port>
			</output>
		</layer>
		<layer id="133" name="1617" type="Const" version="opset1">
			<data element_type="f16" offset="28160" shape="32, 1, 1, 3, 3" size="576"/>
			<output>
				<port id="0" names="1617" precision="FP16">
					<dim>32</dim>
					<dim>1</dim>
					<dim>1</dim>
					<dim>3</dim>
					<dim>3</dim>
				</port>
			</output>
		</layer>
		<layer id="134" name="Conv_105/WithoutBiases" type="GroupConvolution" version="opset1">
			<data auto_pad="explicit" dilations="1, 1" pads_begin="1, 1" pads_end="1, 1" strides="1, 1"/>
			<input>
				<port id="0" precision="FP16">
					<dim>1</dim>
					<dim>32</dim>
					<dim>48</dim>
					<dim>80</dim>
				</port>
				<port id="1" precision="FP16">
					<dim>32</dim>
					<dim>1</dim>
					<dim>1</dim>
					<dim>3</dim>
					<dim>3</dim>
				</port>
			</input>
			<output>
				<port id="2" precision="FP16">
					<dim>1</dim>
					<dim>32</dim>
					<dim>48</dim>
					<dim>80</dim>
				</port>
			</output>
		</layer>
		<layer id="135" name="Conv_105/Dims6734" type="Const" version="opset1">
			<data element_type="f16" offset="28736" shape="1, 32, 1, 1" size="64"/>
			<output>
				<port id="0" precision="FP16">
					<dim>1</dim>
					<dim>32</dim>
					<dim>1</dim>
					<dim>1</dim>
				</port>
			</output>
		</layer>
		<layer id="136" name="Conv_105" type="Add" version="opset1">
			<data auto_broadcast="numpy"/>
			<input>
				<port id="0" precision="FP16">
					<dim>1</dim>
					<dim>32</dim>
					<dim>48</dim>
					<dim>80</dim>
				</port>
				<port id="1" precision="FP16">
					<dim>1</dim>
					<dim>32</dim>
					<dim>1</dim>
					<dim>1</dim>
				</port>
			</input>
			<output>
				<port id="2" names="1616" precision="FP16">
					<dim>1</dim>
					<dim>32</dim>
					<dim>48</dim>
					<dim>80</dim>
				</port>
			</output>
		</layer>
		<layer id="137" name="Mul_107" type="Swish" version="opset4">
			<input>
				<port id="0" precision="FP16">
					<dim>1</dim>
					<dim>32</dim>
					<dim>48</dim>
					<dim>80</dim>
				</port>
			</input>
			<output>
				<port id="1" names="993" precision="FP16">
					<dim>1</dim>
					<dim>32</dim>
					<dim>48</dim>
					<dim>80</dim>
				</port>
			</output>
		</layer>
		<layer id="138" name="1620" type="Const" version="opset1">
			<data element_type="f16" offset="28800" shape="32, 32, 1, 1" size="2048"/>
			<output>
				<port id="0" names="1620" precision="FP16">
					<dim>32</dim>
					<dim>32</dim>
					<dim>1</dim>
					<dim>1</dim>
				</port>
			</output>
		</layer>
		<layer id="139" name="Conv_108/WithoutBiases" type="Convolution" version="opset1">
			<data auto_pad="explicit" dilations="1, 1" pads_begin="0, 0" pads_end="0, 0" strides="1, 1"/>
			<input>
				<port id="0" precision="FP16">
					<dim>1</dim>
					<dim>32</dim>
					<dim>48</dim>
					<dim>80</dim>
				</port>
				<port id="1" precision="FP16">
					<dim>32</dim>
					<dim>32</dim>
					<dim>1</dim>
					<dim>1</dim>
				</port>
			</input>
			<output>
				<port id="2" precision="FP16">
					<dim>1</dim>
					<dim>32</dim>
					<dim>48</dim>
					<dim>80</dim>
				</port>
			</output>
		</layer>
		<layer id="140" name="Conv_108/Dims7400" type="Const" version="opset1">
			<data element_type="f16" offset="30848" shape="1, 32, 1, 1" size="64"/>
			<output>
				<port id="0" precision="FP16">
					<dim>1</dim>
					<dim>32</dim>
					<dim>1</dim>
					<dim>1</dim>
				</port>
			</output>
		</layer>
		<layer id="141" name="Conv_108" type="Add" version="opset1">
			<data auto_broadcast="numpy"/>
			<input>
				<port id="0" precision="FP16">
					<dim>1</dim>
					<dim>32</dim>
					<dim>48</dim>
					<dim>80</dim>
				</port>
				<port id="1" precision="FP16">
					<dim>1</dim>
					<dim>32</dim>
					<dim>1</dim>
					<dim>1</dim>
				</port>
			</input>
			<output>
				<port id="2" names="1619" precision="FP16">
					<dim>1</dim>
					<dim>32</dim>
					<dim>48</dim>
					<dim>80</dim>
				</port>
			</output>
		</layer>
		<layer id="142" name="Mul_110" type="Swish" version="opset4">
			<input>
				<port id="0" precision="FP16">
					<dim>1</dim>
					<dim>32</dim>
					<dim>48</dim>
					<dim>80</dim>
				</port>
			</input>
			<output>
				<port id="1" names="997" precision="FP16">
					<dim>1</dim>
					<dim>32</dim>
					<dim>48</dim>
					<dim>80</dim>
				</port>
			</output>
		</layer>
		<layer id="143" name="Add_111" type="Add" version="opset1">
			<data auto_broadcast="numpy"/>
			<input>
				<port id="0" precision="FP16">
					<dim>1</dim>
					<dim>32</dim>
					<dim>48</dim>
					<dim>80</dim>
				</port>
				<port id="1" precision="FP16">
					<dim>1</dim>
					<dim>32</dim>
					<dim>48</dim>
					<dim>80</dim>
				</port>
			</input>
			<output>
				<port id="2" names="998" precision="FP16">
					<dim>1</dim>
					<dim>32</dim>
					<dim>48</dim>
					<dim>80</dim>
				</port>
			</output>
		</layer>
		<layer id="144" name="1623" type="Const" version="opset1">
			<data element_type="f16" offset="30912" shape="32, 32, 1, 1" size="2048"/>
			<output>
				<port id="0" names="1623" precision="FP16">
					<dim>32</dim>
					<dim>32</dim>
					<dim>1</dim>
					<dim>1</dim>
				</port>
			</output>
		</layer>
		<layer id="145" name="Conv_112/WithoutBiases" type="Convolution" version="opset1">
			<data auto_pad="explicit" dilations="1, 1" pads_begin="0, 0" pads_end="0, 0" strides="1, 1"/>
			<input>
				<port id="0" precision="FP16">
					<dim>1</dim>
					<dim>32</dim>
					<dim>48</dim>
					<dim>80</dim>
				</port>
				<port id="1" precision="FP16">
					<dim>32</dim>
					<dim>32</dim>
					<dim>1</dim>
					<dim>1</dim>
				</port>
			</input>
			<output>
				<port id="2" precision="FP16">
					<dim>1</dim>
					<dim>32</dim>
					<dim>48</dim>
					<dim>80</dim>
				</port>
			</output>
		</layer>
		<layer id="146" name="Conv_112/Dims6626" type="Const" version="opset1">
			<data element_type="f16" offset="32960" shape="1, 32, 1, 1" size="64"/>
			<output>
				<port id="0" precision="FP16">
					<dim>1</dim>
					<dim>32</dim>
					<dim>1</dim>
					<dim>1</dim>
				</port>
			</output>
		</layer>
		<layer id="147" name="Conv_112" type="Add" version="opset1">
			<data auto_broadcast="numpy"/>
			<input>
				<port id="0" precision="FP16">
					<dim>1</dim>
					<dim>32</dim>
					<dim>48</dim>
					<dim>80</dim>
				</port>
				<port id="1" precision="FP16">
					<dim>1</dim>
					<dim>32</dim>
					<dim>1</dim>
					<dim>1</dim>
				</port>
			</input>
			<output>
				<port id="2" names="1622" precision="FP16">
					<dim>1</dim>
					<dim>32</dim>
					<dim>48</dim>
					<dim>80</dim>
				</port>
			</output>
		</layer>
		<layer id="148" name="Mul_114" type="Swish" version="opset4">
			<input>
				<port id="0" precision="FP16">
					<dim>1</dim>
					<dim>32</dim>
					<dim>48</dim>
					<dim>80</dim>
				</port>
			</input>
			<output>
				<port id="1" names="1002" precision="FP16">
					<dim>1</dim>
					<dim>32</dim>
					<dim>48</dim>
					<dim>80</dim>
				</port>
			</output>
		</layer>
		<layer id="149" name="1626" type="Const" version="opset1">
			<data element_type="f16" offset="33024" shape="32, 1, 1, 3, 3" size="576"/>
			<output>
				<port id="0" names="1626" precision="FP16">
					<dim>32</dim>
					<dim>1</dim>
					<dim>1</dim>
					<dim>3</dim>
					<dim>3</dim>
				</port>
			</output>
		</layer>
		<layer id="150" name="Conv_115/WithoutBiases" type="GroupConvolution" version="opset1">
			<data auto_pad="explicit" dilations="1, 1" pads_begin="1, 1" pads_end="1, 1" strides="1, 1"/>
			<input>
				<port id="0" precision="FP16">
					<dim>1</dim>
					<dim>32</dim>
					<dim>48</dim>
					<dim>80</dim>
				</port>
				<port id="1" precision="FP16">
					<dim>32</dim>
					<dim>1</dim>
					<dim>1</dim>
					<dim>3</dim>
					<dim>3</dim>
				</port>
			</input>
			<output>
				<port id="2" precision="FP16">
					<dim>1</dim>
					<dim>32</dim>
					<dim>48</dim>
					<dim>80</dim>
				</port>
			</output>
		</layer>
		<layer id="151" name="Conv_115/Dims7208" type="Const" version="opset1">
			<data element_type="f16" offset="33600" shape="1, 32, 1, 1" size="64"/>
			<output>
				<port id="0" precision="FP16">
					<dim>1</dim>
					<dim>32</dim>
					<dim>1</dim>
					<dim>1</dim>
				</port>
			</output>
		</layer>
		<layer id="152" name="Conv_115" type="Add" version="opset1">
			<data auto_broadcast="numpy"/>
			<input>
				<port id="0" precision="FP16">
					<dim>1</dim>
					<dim>32</dim>
					<dim>48</dim>
					<dim>80</dim>
				</port>
				<port id="1" precision="FP16">
					<dim>1</dim>
					<dim>32</dim>
					<dim>1</dim>
					<dim>1</dim>
				</port>
			</input>
			<output>
				<port id="2" names="1625" precision="FP16">
					<dim>1</dim>
					<dim>32</dim>
					<dim>48</dim>
					<dim>80</dim>
				</port>
			</output>
		</layer>
		<layer id="153" name="Mul_117" type="Swish" version="opset4">
			<input>
				<port id="0" precision="FP16">
					<dim>1</dim>
					<dim>32</dim>
					<dim>48</dim>
					<dim>80</dim>
				</port>
			</input>
			<output>
				<port id="1" names="1006" precision="FP16">
					<dim>1</dim>
					<dim>32</dim>
					<dim>48</dim>
					<dim>80</dim>
				</port>
			</output>
		</layer>
		<layer id="154" name="1629" type="Const" version="opset1">
			<data element_type="f16" offset="33664" shape="32, 32, 1, 1" size="2048"/>
			<output>
				<port id="0" names="1629" precision="FP16">
					<dim>32</dim>
					<dim>32</dim>
					<dim>1</dim>
					<dim>1</dim>
				</port>
			</output>
		</layer>
		<layer id="155" name="Conv_118/WithoutBiases" type="Convolution" version="opset1">
			<data auto_pad="explicit" dilations="1, 1" pads_begin="0, 0" pads_end="0, 0" strides="1, 1"/>
			<input>
				<port id="0" precision="FP16">
					<dim>1</dim>
					<dim>32</dim>
					<dim>48</dim>
					<dim>80</dim>
				</port>
				<port id="1" precision="FP16">
					<dim>32</dim>
					<dim>32</dim>
					<dim>1</dim>
					<dim>1</dim>
				</port>
			</input>
			<output>
				<port id="2" precision="FP16">
					<dim>1</dim>
					<dim>32</dim>
					<dim>48</dim>
					<dim>80</dim>
				</port>
			</output>
		</layer>
		<layer id="156" name="Conv_118/Dims6938" type="Const" version="opset1">
			<data element_type="f16" offset="35712" shape="1, 32, 1, 1" size="64"/>
			<output>
				<port id="0" precision="FP16">
					<dim>1</dim>
					<dim>32</dim>
					<dim>1</dim>
					<dim>1</dim>
				</port>
			</output>
		</layer>
		<layer id="157" name="Conv_118" type="Add" version="opset1">
			<data auto_broadcast="numpy"/>
			<input>
				<port id="0" precision="FP16">
					<dim>1</dim>
					<dim>32</dim>
					<dim>48</dim>
					<dim>80</dim>
				</port>
				<port id="1" precision="FP16">
					<dim>1</dim>
					<dim>32</dim>
					<dim>1</dim>
					<dim>1</dim>
				</port>
			</input>
			<output>
				<port id="2" names="1628" precision="FP16">
					<dim>1</dim>
					<dim>32</dim>
					<dim>48</dim>
					<dim>80</dim>
				</port>
			</output>
		</layer>
		<layer id="158" name="Mul_120" type="Swish" version="opset4">
			<input>
				<port id="0" precision="FP16">
					<dim>1</dim>
					<dim>32</dim>
					<dim>48</dim>
					<dim>80</dim>
				</port>
			</input>
			<output>
				<port id="1" names="1010" precision="FP16">
					<dim>1</dim>
					<dim>32</dim>
					<dim>48</dim>
					<dim>80</dim>
				</port>
			</output>
		</layer>
		<layer id="159" name="Add_121" type="Add" version="opset1">
			<data auto_broadcast="numpy"/>
			<input>
				<port id="0" precision="FP16">
					<dim>1</dim>
					<dim>32</dim>
					<dim>48</dim>
					<dim>80</dim>
				</port>
				<port id="1" precision="FP16">
					<dim>1</dim>
					<dim>32</dim>
					<dim>48</dim>
					<dim>80</dim>
				</port>
			</input>
			<output>
				<port id="2" names="1011" precision="FP16">
					<dim>1</dim>
					<dim>32</dim>
					<dim>48</dim>
					<dim>80</dim>
				</port>
			</output>
		</layer>
		<layer id="160" name="1632" type="Const" version="opset1">
			<data element_type="f16" offset="35776" shape="32, 32, 1, 1" size="2048"/>
			<output>
				<port id="0" names="1632" precision="FP16">
					<dim>32</dim>
					<dim>32</dim>
					<dim>1</dim>
					<dim>1</dim>
				</port>
			</output>
		</layer>
		<layer id="161" name="Conv_122/WithoutBiases" type="Convolution" version="opset1">
			<data auto_pad="explicit" dilations="1, 1" pads_begin="0, 0" pads_end="0, 0" strides="1, 1"/>
			<input>
				<port id="0" precision="FP16">
					<dim>1</dim>
					<dim>32</dim>
					<dim>48</dim>
					<dim>80</dim>
				</port>
				<port id="1" precision="FP16">
					<dim>32</dim>
					<dim>32</dim>
					<dim>1</dim>
					<dim>1</dim>
				</port>
			</input>
			<output>
				<port id="2" precision="FP16">
					<dim>1</dim>
					<dim>32</dim>
					<dim>48</dim>
					<dim>80</dim>
				</port>
			</output>
		</layer>
		<layer id="162" name="Conv_122/Dims7370" type="Const" version="opset1">
			<data element_type="f16" offset="37824" shape="1, 32, 1, 1" size="64"/>
			<output>
				<port id="0" precision="FP16">
					<dim>1</dim>
					<dim>32</dim>
					<dim>1</dim>
					<dim>1</dim>
				</port>
			</output>
		</layer>
		<layer id="163" name="Conv_122" type="Add" version="opset1">
			<data auto_broadcast="numpy"/>
			<input>
				<port id="0" precision="FP16">
					<dim>1</dim>
					<dim>32</dim>
					<dim>48</dim>
					<dim>80</dim>
				</port>
				<port id="1" precision="FP16">
					<dim>1</dim>
					<dim>32</dim>
					<dim>1</dim>
					<dim>1</dim>
				</port>
			</input>
			<output>
				<port id="2" names="1631" precision="FP16">
					<dim>1</dim>
					<dim>32</dim>
					<dim>48</dim>
					<dim>80</dim>
				</port>
			</output>
		</layer>
		<layer id="164" name="Mul_124" type="Swish" version="opset4">
			<input>
				<port id="0" precision="FP16">
					<dim>1</dim>
					<dim>32</dim>
					<dim>48</dim>
					<dim>80</dim>
				</port>
			</input>
			<output>
				<port id="1" names="1015" precision="FP16">
					<dim>1</dim>
					<dim>32</dim>
					<dim>48</dim>
					<dim>80</dim>
				</port>
			</output>
		</layer>
		<layer id="165" name="1635" type="Const" version="opset1">
			<data element_type="f16" offset="37888" shape="32, 1, 1, 3, 3" size="576"/>
			<output>
				<port id="0" names="1635" precision="FP16">
					<dim>32</dim>
					<dim>1</dim>
					<dim>1</dim>
					<dim>3</dim>
					<dim>3</dim>
				</port>
			</output>
		</layer>
		<layer id="166" name="Conv_125/WithoutBiases" type="GroupConvolution" version="opset1">
			<data auto_pad="explicit" dilations="1, 1" pads_begin="1, 1" pads_end="1, 1" strides="1, 1"/>
			<input>
				<port id="0" precision="FP16">
					<dim>1</dim>
					<dim>32</dim>
					<dim>48</dim>
					<dim>80</dim>
				</port>
				<port id="1" precision="FP16">
					<dim>32</dim>
					<dim>1</dim>
					<dim>1</dim>
					<dim>3</dim>
					<dim>3</dim>
				</port>
			</input>
			<output>
				<port id="2" precision="FP16">
					<dim>1</dim>
					<dim>32</dim>
					<dim>48</dim>
					<dim>80</dim>
				</port>
			</output>
		</layer>
		<layer id="167" name="Conv_125/Dims6830" type="Const" version="opset1">
			<data element_type="f16" offset="38464" shape="1, 32, 1, 1" size="64"/>
			<output>
				<port id="0" precision="FP16">
					<dim>1</dim>
					<dim>32</dim>
					<dim>1</dim>
					<dim>1</dim>
				</port>
			</output>
		</layer>
		<layer id="168" name="Conv_125" type="Add" version="opset1">
			<data auto_broadcast="numpy"/>
			<input>
				<port id="0" precision="FP16">
					<dim>1</dim>
					<dim>32</dim>
					<dim>48</dim>
					<dim>80</dim>
				</port>
				<port id="1" precision="FP16">
					<dim>1</dim>
					<dim>32</dim>
					<dim>1</dim>
					<dim>1</dim>
				</port>
			</input>
			<output>
				<port id="2" names="1634" precision="FP16">
					<dim>1</dim>
					<dim>32</dim>
					<dim>48</dim>
					<dim>80</dim>
				</port>
			</output>
		</layer>
		<layer id="169" name="Mul_127" type="Swish" version="opset4">
			<input>
				<port id="0" precision="FP16">
					<dim>1</dim>
					<dim>32</dim>
					<dim>48</dim>
					<dim>80</dim>
				</port>
			</input>
			<output>
				<port id="1" names="1019" precision="FP16">
					<dim>1</dim>
					<dim>32</dim>
					<dim>48</dim>
					<dim>80</dim>
				</port>
			</output>
		</layer>
		<layer id="170" name="1638" type="Const" version="opset1">
			<data element_type="f16" offset="38528" shape="32, 32, 1, 1" size="2048"/>
			<output>
				<port id="0" names="1638" precision="FP16">
					<dim>32</dim>
					<dim>32</dim>
					<dim>1</dim>
					<dim>1</dim>
				</port>
			</output>
		</layer>
		<layer id="171" name="Conv_128/WithoutBiases" type="Convolution" version="opset1">
			<data auto_pad="explicit" dilations="1, 1" pads_begin="0, 0" pads_end="0, 0" strides="1, 1"/>
			<input>
				<port id="0" precision="FP16">
					<dim>1</dim>
					<dim>32</dim>
					<dim>48</dim>
					<dim>80</dim>
				</port>
				<port id="1" precision="FP16">
					<dim>32</dim>
					<dim>32</dim>
					<dim>1</dim>
					<dim>1</dim>
				</port>
			</input>
			<output>
				<port id="2" precision="FP16">
					<dim>1</dim>
					<dim>32</dim>
					<dim>48</dim>
					<dim>80</dim>
				</port>
			</output>
		</layer>
		<layer id="172" name="Conv_128/Dims7028" type="Const" version="opset1">
			<data element_type="f16" offset="40576" shape="1, 32, 1, 1" size="64"/>
			<output>
				<port id="0" precision="FP16">
					<dim>1</dim>
					<dim>32</dim>
					<dim>1</dim>
					<dim>1</dim>
				</port>
			</output>
		</layer>
		<layer id="173" name="Conv_128" type="Add" version="opset1">
			<data auto_broadcast="numpy"/>
			<input>
				<port id="0" precision="FP16">
					<dim>1</dim>
					<dim>32</dim>
					<dim>48</dim>
					<dim>80</dim>
				</port>
				<port id="1" precision="FP16">
					<dim>1</dim>
					<dim>32</dim>
					<dim>1</dim>
					<dim>1</dim>
				</port>
			</input>
			<output>
				<port id="2" names="1637" precision="FP16">
					<dim>1</dim>
					<dim>32</dim>
					<dim>48</dim>
					<dim>80</dim>
				</port>
			</output>
		</layer>
		<layer id="174" name="Mul_130" type="Swish" version="opset4">
			<input>
				<port id="0" precision="FP16">
					<dim>1</dim>
					<dim>32</dim>
					<dim>48</dim>
					<dim>80</dim>
				</port>
			</input>
			<output>
				<port id="1" names="1023" precision="FP16">
					<dim>1</dim>
					<dim>32</dim>
					<dim>48</dim>
					<dim>80</dim>
				</port>
			</output>
		</layer>
		<layer id="175" name="Add_131" type="Add" version="opset1">
			<data auto_broadcast="numpy"/>
			<input>
				<port id="0" precision="FP16">
					<dim>1</dim>
					<dim>32</dim>
					<dim>48</dim>
					<dim>80</dim>
				</port>
				<port id="1" precision="FP16">
					<dim>1</dim>
					<dim>32</dim>
					<dim>48</dim>
					<dim>80</dim>
				</port>
			</input>
			<output>
				<port id="2" names="1024" precision="FP16">
					<dim>1</dim>
					<dim>32</dim>
					<dim>48</dim>
					<dim>80</dim>
				</port>
			</output>
		</layer>
		<layer id="176" name="1641" type="Const" version="opset1">
			<data element_type="f16" offset="40640" shape="32, 32, 1, 1" size="2048"/>
			<output>
				<port id="0" names="1641" precision="FP16">
					<dim>32</dim>
					<dim>32</dim>
					<dim>1</dim>
					<dim>1</dim>
				</port>
			</output>
		</layer>
		<layer id="177" name="Conv_132/WithoutBiases" type="Convolution" version="opset1">
			<data auto_pad="explicit" dilations="1, 1" pads_begin="0, 0" pads_end="0, 0" strides="1, 1"/>
			<input>
				<port id="0" precision="FP16">
					<dim>1</dim>
					<dim>32</dim>
					<dim>48</dim>
					<dim>80</dim>
				</port>
				<port id="1" precision="FP16">
					<dim>32</dim>
					<dim>32</dim>
					<dim>1</dim>
					<dim>1</dim>
				</port>
			</input>
			<output>
				<port id="2" precision="FP16">
					<dim>1</dim>
					<dim>32</dim>
					<dim>48</dim>
					<dim>80</dim>
				</port>
			</output>
		</layer>
		<layer id="178" name="Conv_132/Dims7406" type="Const" version="opset1">
			<data element_type="f16" offset="42688" shape="1, 32, 1, 1" size="64"/>
			<output>
				<port id="0" precision="FP16">
					<dim>1</dim>
					<dim>32</dim>
					<dim>1</dim>
					<dim>1</dim>
				</port>
			</output>
		</layer>
		<layer id="179" name="Conv_132" type="Add" version="opset1">
			<data auto_broadcast="numpy"/>
			<input>
				<port id="0" precision="FP16">
					<dim>1</dim>
					<dim>32</dim>
					<dim>48</dim>
					<dim>80</dim>
				</port>
				<port id="1" precision="FP16">
					<dim>1</dim>
					<dim>32</dim>
					<dim>1</dim>
					<dim>1</dim>
				</port>
			</input>
			<output>
				<port id="2" names="1640" precision="FP16">
					<dim>1</dim>
					<dim>32</dim>
					<dim>48</dim>
					<dim>80</dim>
				</port>
			</output>
		</layer>
		<layer id="180" name="Mul_134" type="Swish" version="opset4">
			<input>
				<port id="0" precision="FP16">
					<dim>1</dim>
					<dim>32</dim>
					<dim>48</dim>
					<dim>80</dim>
				</port>
			</input>
			<output>
				<port id="1" names="1028" precision="FP16">
					<dim>1</dim>
					<dim>32</dim>
					<dim>48</dim>
					<dim>80</dim>
				</port>
			</output>
		</layer>
		<layer id="181" name="1644" type="Const" version="opset1">
			<data element_type="f16" offset="42752" shape="32, 1, 1, 3, 3" size="576"/>
			<output>
				<port id="0" names="1644" precision="FP16">
					<dim>32</dim>
					<dim>1</dim>
					<dim>1</dim>
					<dim>3</dim>
					<dim>3</dim>
				</port>
			</output>
		</layer>
		<layer id="182" name="Conv_135/WithoutBiases" type="GroupConvolution" version="opset1">
			<data auto_pad="explicit" dilations="1, 1" pads_begin="1, 1" pads_end="1, 1" strides="1, 1"/>
			<input>
				<port id="0" precision="FP16">
					<dim>1</dim>
					<dim>32</dim>
					<dim>48</dim>
					<dim>80</dim>
				</port>
				<port id="1" precision="FP16">
					<dim>32</dim>
					<dim>1</dim>
					<dim>1</dim>
					<dim>3</dim>
					<dim>3</dim>
				</port>
			</input>
			<output>
				<port id="2" precision="FP16">
					<dim>1</dim>
					<dim>32</dim>
					<dim>48</dim>
					<dim>80</dim>
				</port>
			</output>
		</layer>
		<layer id="183" name="Conv_135/Dims6914" type="Const" version="opset1">
			<data element_type="f16" offset="43328" shape="1, 32, 1, 1" size="64"/>
			<output>
				<port id="0" precision="FP16">
					<dim>1</dim>
					<dim>32</dim>
					<dim>1</dim>
					<dim>1</dim>
				</port>
			</output>
		</layer>
		<layer id="184" name="Conv_135" type="Add" version="opset1">
			<data auto_broadcast="numpy"/>
			<input>
				<port id="0" precision="FP16">
					<dim>1</dim>
					<dim>32</dim>
					<dim>48</dim>
					<dim>80</dim>
				</port>
				<port id="1" precision="FP16">
					<dim>1</dim>
					<dim>32</dim>
					<dim>1</dim>
					<dim>1</dim>
				</port>
			</input>
			<output>
				<port id="2" names="1643" precision="FP16">
					<dim>1</dim>
					<dim>32</dim>
					<dim>48</dim>
					<dim>80</dim>
				</port>
			</output>
		</layer>
		<layer id="185" name="Mul_137" type="Swish" version="opset4">
			<input>
				<port id="0" precision="FP16">
					<dim>1</dim>
					<dim>32</dim>
					<dim>48</dim>
					<dim>80</dim>
				</port>
			</input>
			<output>
				<port id="1" names="1032" precision="FP16">
					<dim>1</dim>
					<dim>32</dim>
					<dim>48</dim>
					<dim>80</dim>
				</port>
			</output>
		</layer>
		<layer id="186" name="1647" type="Const" version="opset1">
			<data element_type="f16" offset="43392" shape="32, 32, 1, 1" size="2048"/>
			<output>
				<port id="0" names="1647" precision="FP16">
					<dim>32</dim>
					<dim>32</dim>
					<dim>1</dim>
					<dim>1</dim>
				</port>
			</output>
		</layer>
		<layer id="187" name="Conv_138/WithoutBiases" type="Convolution" version="opset1">
			<data auto_pad="explicit" dilations="1, 1" pads_begin="0, 0" pads_end="0, 0" strides="1, 1"/>
			<input>
				<port id="0" precision="FP16">
					<dim>1</dim>
					<dim>32</dim>
					<dim>48</dim>
					<dim>80</dim>
				</port>
				<port id="1" precision="FP16">
					<dim>32</dim>
					<dim>32</dim>
					<dim>1</dim>
					<dim>1</dim>
				</port>
			</input>
			<output>
				<port id="2" precision="FP16">
					<dim>1</dim>
					<dim>32</dim>
					<dim>48</dim>
					<dim>80</dim>
				</port>
			</output>
		</layer>
		<layer id="188" name="Conv_138/Dims7160" type="Const" version="opset1">
			<data element_type="f16" offset="45440" shape="1, 32, 1, 1" size="64"/>
			<output>
				<port id="0" precision="FP16">
					<dim>1</dim>
					<dim>32</dim>
					<dim>1</dim>
					<dim>1</dim>
				</port>
			</output>
		</layer>
		<layer id="189" name="Conv_138" type="Add" version="opset1">
			<data auto_broadcast="numpy"/>
			<input>
				<port id="0" precision="FP16">
					<dim>1</dim>
					<dim>32</dim>
					<dim>48</dim>
					<dim>80</dim>
				</port>
				<port id="1" precision="FP16">
					<dim>1</dim>
					<dim>32</dim>
					<dim>1</dim>
					<dim>1</dim>
				</port>
			</input>
			<output>
				<port id="2" names="1646" precision="FP16">
					<dim>1</dim>
					<dim>32</dim>
					<dim>48</dim>
					<dim>80</dim>
				</port>
			</output>
		</layer>
		<layer id="190" name="Mul_140" type="Swish" version="opset4">
			<input>
				<port id="0" precision="FP16">
					<dim>1</dim>
					<dim>32</dim>
					<dim>48</dim>
					<dim>80</dim>
				</port>
			</input>
			<output>
				<port id="1" names="1036" precision="FP16">
					<dim>1</dim>
					<dim>32</dim>
					<dim>48</dim>
					<dim>80</dim>
				</port>
			</output>
		</layer>
		<layer id="191" name="Add_141" type="Add" version="opset1">
			<data auto_broadcast="numpy"/>
			<input>
				<port id="0" precision="FP16">
					<dim>1</dim>
					<dim>32</dim>
					<dim>48</dim>
					<dim>80</dim>
				</port>
				<port id="1" precision="FP16">
					<dim>1</dim>
					<dim>32</dim>
					<dim>48</dim>
					<dim>80</dim>
				</port>
			</input>
			<output>
				<port id="2" names="1037" precision="FP16">
					<dim>1</dim>
					<dim>32</dim>
					<dim>48</dim>
					<dim>80</dim>
				</port>
			</output>
		</layer>
		<layer id="192" name="1650" type="Const" version="opset1">
			<data element_type="f16" offset="45504" shape="32, 32, 1, 1" size="2048"/>
			<output>
				<port id="0" names="1650" precision="FP16">
					<dim>32</dim>
					<dim>32</dim>
					<dim>1</dim>
					<dim>1</dim>
				</port>
			</output>
		</layer>
		<layer id="193" name="Conv_142/WithoutBiases" type="Convolution" version="opset1">
			<data auto_pad="explicit" dilations="1, 1" pads_begin="0, 0" pads_end="0, 0" strides="1, 1"/>
			<input>
				<port id="0" precision="FP16">
					<dim>1</dim>
					<dim>32</dim>
					<dim>48</dim>
					<dim>80</dim>
				</port>
				<port id="1" precision="FP16">
					<dim>32</dim>
					<dim>32</dim>
					<dim>1</dim>
					<dim>1</dim>
				</port>
			</input>
			<output>
				<port id="2" precision="FP16">
					<dim>1</dim>
					<dim>32</dim>
					<dim>48</dim>
					<dim>80</dim>
				</port>
			</output>
		</layer>
		<layer id="194" name="Conv_142/Dims6932" type="Const" version="opset1">
			<data element_type="f16" offset="47552" shape="1, 32, 1, 1" size="64"/>
			<output>
				<port id="0" precision="FP16">
					<dim>1</dim>
					<dim>32</dim>
					<dim>1</dim>
					<dim>1</dim>
				</port>
			</output>
		</layer>
		<layer id="195" name="Conv_142" type="Add" version="opset1">
			<data auto_broadcast="numpy"/>
			<input>
				<port id="0" precision="FP16">
					<dim>1</dim>
					<dim>32</dim>
					<dim>48</dim>
					<dim>80</dim>
				</port>
				<port id="1" precision="FP16">
					<dim>1</dim>
					<dim>32</dim>
					<dim>1</dim>
					<dim>1</dim>
				</port>
			</input>
			<output>
				<port id="2" names="1649" precision="FP16">
					<dim>1</dim>
					<dim>32</dim>
					<dim>48</dim>
					<dim>80</dim>
				</port>
			</output>
		</layer>
		<layer id="196" name="Mul_144" type="Swish" version="opset4">
			<input>
				<port id="0" precision="FP16">
					<dim>1</dim>
					<dim>32</dim>
					<dim>48</dim>
					<dim>80</dim>
				</port>
			</input>
			<output>
				<port id="1" names="1041" precision="FP16">
					<dim>1</dim>
					<dim>32</dim>
					<dim>48</dim>
					<dim>80</dim>
				</port>
			</output>
		</layer>
		<layer id="197" name="1653" type="Const" version="opset1">
			<data element_type="f16" offset="47616" shape="32, 1, 1, 3, 3" size="576"/>
			<output>
				<port id="0" names="1653" precision="FP16">
					<dim>32</dim>
					<dim>1</dim>
					<dim>1</dim>
					<dim>3</dim>
					<dim>3</dim>
				</port>
			</output>
		</layer>
		<layer id="198" name="Conv_145/WithoutBiases" type="GroupConvolution" version="opset1">
			<data auto_pad="explicit" dilations="1, 1" pads_begin="1, 1" pads_end="1, 1" strides="1, 1"/>
			<input>
				<port id="0" precision="FP16">
					<dim>1</dim>
					<dim>32</dim>
					<dim>48</dim>
					<dim>80</dim>
				</port>
				<port id="1" precision="FP16">
					<dim>32</dim>
					<dim>1</dim>
					<dim>1</dim>
					<dim>3</dim>
					<dim>3</dim>
				</port>
			</input>
			<output>
				<port id="2" precision="FP16">
					<dim>1</dim>
					<dim>32</dim>
					<dim>48</dim>
					<dim>80</dim>
				</port>
			</output>
		</layer>
		<layer id="199" name="Conv_145/Dims7226" type="Const" version="opset1">
			<data element_type="f16" offset="48192" shape="1, 32, 1, 1" size="64"/>
			<output>
				<port id="0" precision="FP16">
					<dim>1</dim>
					<dim>32</dim>
					<dim>1</dim>
					<dim>1</dim>
				</port>
			</output>
		</layer>
		<layer id="200" name="Conv_145" type="Add" version="opset1">
			<data auto_broadcast="numpy"/>
			<input>
				<port id="0" precision="FP16">
					<dim>1</dim>
					<dim>32</dim>
					<dim>48</dim>
					<dim>80</dim>
				</port>
				<port id="1" precision="FP16">
					<dim>1</dim>
					<dim>32</dim>
					<dim>1</dim>
					<dim>1</dim>
				</port>
			</input>
			<output>
				<port id="2" names="1652" precision="FP16">
					<dim>1</dim>
					<dim>32</dim>
					<dim>48</dim>
					<dim>80</dim>
				</port>
			</output>
		</layer>
		<layer id="201" name="Mul_147" type="Swish" version="opset4">
			<input>
				<port id="0" precision="FP16">
					<dim>1</dim>
					<dim>32</dim>
					<dim>48</dim>
					<dim>80</dim>
				</port>
			</input>
			<output>
				<port id="1" names="1045" precision="FP16">
					<dim>1</dim>
					<dim>32</dim>
					<dim>48</dim>
					<dim>80</dim>
				</port>
			</output>
		</layer>
		<layer id="202" name="1656" type="Const" version="opset1">
			<data element_type="f16" offset="48256" shape="32, 32, 1, 1" size="2048"/>
			<output>
				<port id="0" names="1656" precision="FP16">
					<dim>32</dim>
					<dim>32</dim>
					<dim>1</dim>
					<dim>1</dim>
				</port>
			</output>
		</layer>
		<layer id="203" name="Conv_148/WithoutBiases" type="Convolution" version="opset1">
			<data auto_pad="explicit" dilations="1, 1" pads_begin="0, 0" pads_end="0, 0" strides="1, 1"/>
			<input>
				<port id="0" precision="FP16">
					<dim>1</dim>
					<dim>32</dim>
					<dim>48</dim>
					<dim>80</dim>
				</port>
				<port id="1" precision="FP16">
					<dim>32</dim>
					<dim>32</dim>
					<dim>1</dim>
					<dim>1</dim>
				</port>
			</input>
			<output>
				<port id="2" precision="FP16">
					<dim>1</dim>
					<dim>32</dim>
					<dim>48</dim>
					<dim>80</dim>
				</port>
			</output>
		</layer>
		<layer id="204" name="Conv_148/Dims6680" type="Const" version="opset1">
			<data element_type="f16" offset="50304" shape="1, 32, 1, 1" size="64"/>
			<output>
				<port id="0" precision="FP16">
					<dim>1</dim>
					<dim>32</dim>
					<dim>1</dim>
					<dim>1</dim>
				</port>
			</output>
		</layer>
		<layer id="205" name="Conv_148" type="Add" version="opset1">
			<data auto_broadcast="numpy"/>
			<input>
				<port id="0" precision="FP16">
					<dim>1</dim>
					<dim>32</dim>
					<dim>48</dim>
					<dim>80</dim>
				</port>
				<port id="1" precision="FP16">
					<dim>1</dim>
					<dim>32</dim>
					<dim>1</dim>
					<dim>1</dim>
				</port>
			</input>
			<output>
				<port id="2" names="1655" precision="FP16">
					<dim>1</dim>
					<dim>32</dim>
					<dim>48</dim>
					<dim>80</dim>
				</port>
			</output>
		</layer>
		<layer id="206" name="Mul_150" type="Swish" version="opset4">
			<input>
				<port id="0" precision="FP16">
					<dim>1</dim>
					<dim>32</dim>
					<dim>48</dim>
					<dim>80</dim>
				</port>
			</input>
			<output>
				<port id="1" names="1049" precision="FP16">
					<dim>1</dim>
					<dim>32</dim>
					<dim>48</dim>
					<dim>80</dim>
				</port>
			</output>
		</layer>
		<layer id="207" name="Add_151" type="Add" version="opset1">
			<data auto_broadcast="numpy"/>
			<input>
				<port id="0" precision="FP16">
					<dim>1</dim>
					<dim>32</dim>
					<dim>48</dim>
					<dim>80</dim>
				</port>
				<port id="1" precision="FP16">
					<dim>1</dim>
					<dim>32</dim>
					<dim>48</dim>
					<dim>80</dim>
				</port>
			</input>
			<output>
				<port id="2" names="1050" precision="FP16">
					<dim>1</dim>
					<dim>32</dim>
					<dim>48</dim>
					<dim>80</dim>
				</port>
			</output>
		</layer>
		<layer id="208" name="1602" type="Const" version="opset1">
			<data element_type="f16" offset="50368" shape="32, 64, 1, 1" size="4096"/>
			<output>
				<port id="0" names="1602" precision="FP16">
					<dim>32</dim>
					<dim>64</dim>
					<dim>1</dim>
					<dim>1</dim>
				</port>
			</output>
		</layer>
		<layer id="209" name="Conv_89/WithoutBiases" type="Convolution" version="opset1">
			<data auto_pad="explicit" dilations="1, 1" pads_begin="0, 0" pads_end="0, 0" strides="1, 1"/>
			<input>
				<port id="0" precision="FP16">
					<dim>1</dim>
					<dim>64</dim>
					<dim>48</dim>
					<dim>80</dim>
				</port>
				<port id="1" precision="FP16">
					<dim>32</dim>
					<dim>64</dim>
					<dim>1</dim>
					<dim>1</dim>
				</port>
			</input>
			<output>
				<port id="2" precision="FP16">
					<dim>1</dim>
					<dim>32</dim>
					<dim>48</dim>
					<dim>80</dim>
				</port>
			</output>
		</layer>
		<layer id="210" name="Conv_89/Dims7166" type="Const" version="opset1">
			<data element_type="f16" offset="54464" shape="1, 32, 1, 1" size="64"/>
			<output>
				<port id="0" precision="FP16">
					<dim>1</dim>
					<dim>32</dim>
					<dim>1</dim>
					<dim>1</dim>
				</port>
			</output>
		</layer>
		<layer id="211" name="Conv_89" type="Add" version="opset1">
			<data auto_broadcast="numpy"/>
			<input>
				<port id="0" precision="FP16">
					<dim>1</dim>
					<dim>32</dim>
					<dim>48</dim>
					<dim>80</dim>
				</port>
				<port id="1" precision="FP16">
					<dim>1</dim>
					<dim>32</dim>
					<dim>1</dim>
					<dim>1</dim>
				</port>
			</input>
			<output>
				<port id="2" names="1601" precision="FP16">
					<dim>1</dim>
					<dim>32</dim>
					<dim>48</dim>
					<dim>80</dim>
				</port>
			</output>
		</layer>
		<layer id="212" name="Mul_91" type="Swish" version="opset4">
			<input>
				<port id="0" precision="FP16">
					<dim>1</dim>
					<dim>32</dim>
					<dim>48</dim>
					<dim>80</dim>
				</port>
			</input>
			<output>
				<port id="1" names="972" precision="FP16">
					<dim>1</dim>
					<dim>32</dim>
					<dim>48</dim>
					<dim>80</dim>
				</port>
			</output>
		</layer>
		<layer id="213" name="Concat_152" type="Concat" version="opset1">
			<data axis="1"/>
			<input>
				<port id="0" precision="FP16">
					<dim>1</dim>
					<dim>32</dim>
					<dim>48</dim>
					<dim>80</dim>
				</port>
				<port id="1" precision="FP16">
					<dim>1</dim>
					<dim>32</dim>
					<dim>48</dim>
					<dim>80</dim>
				</port>
			</input>
			<output>
				<port id="2" names="1051" precision="FP16">
					<dim>1</dim>
					<dim>64</dim>
					<dim>48</dim>
					<dim>80</dim>
				</port>
			</output>
		</layer>
		<layer id="214" name="1659" type="Const" version="opset1">
			<data element_type="f16" offset="54528" shape="64, 64, 1, 1" size="8192"/>
			<output>
				<port id="0" names="1659" precision="FP16">
					<dim>64</dim>
					<dim>64</dim>
					<dim>1</dim>
					<dim>1</dim>
				</port>
			</output>
		</layer>
		<layer id="215" name="Conv_153/WithoutBiases" type="Convolution" version="opset1">
			<data auto_pad="explicit" dilations="1, 1" pads_begin="0, 0" pads_end="0, 0" strides="1, 1"/>
			<input>
				<port id="0" precision="FP16">
					<dim>1</dim>
					<dim>64</dim>
					<dim>48</dim>
					<dim>80</dim>
				</port>
				<port id="1" precision="FP16">
					<dim>64</dim>
					<dim>64</dim>
					<dim>1</dim>
					<dim>1</dim>
				</port>
			</input>
			<output>
				<port id="2" precision="FP16">
					<dim>1</dim>
					<dim>64</dim>
					<dim>48</dim>
					<dim>80</dim>
				</port>
			</output>
		</layer>
		<layer id="216" name="Conv_153/Dims7004" type="Const" version="opset1">
			<data element_type="f16" offset="62720" shape="1, 64, 1, 1" size="128"/>
			<output>
				<port id="0" precision="FP16">
					<dim>1</dim>
					<dim>64</dim>
					<dim>1</dim>
					<dim>1</dim>
				</port>
			</output>
		</layer>
		<layer id="217" name="Conv_153" type="Add" version="opset1">
			<data auto_broadcast="numpy"/>
			<input>
				<port id="0" precision="FP16">
					<dim>1</dim>
					<dim>64</dim>
					<dim>48</dim>
					<dim>80</dim>
				</port>
				<port id="1" precision="FP16">
					<dim>1</dim>
					<dim>64</dim>
					<dim>1</dim>
					<dim>1</dim>
				</port>
			</input>
			<output>
				<port id="2" names="1658" precision="FP16">
					<dim>1</dim>
					<dim>64</dim>
					<dim>48</dim>
					<dim>80</dim>
				</port>
			</output>
		</layer>
		<layer id="218" name="Mul_155" type="Swish" version="opset4">
			<input>
				<port id="0" precision="FP16">
					<dim>1</dim>
					<dim>64</dim>
					<dim>48</dim>
					<dim>80</dim>
				</port>
			</input>
			<output>
				<port id="1" names="1055" precision="FP16">
					<dim>1</dim>
					<dim>64</dim>
					<dim>48</dim>
					<dim>80</dim>
				</port>
			</output>
		</layer>
		<layer id="219" name="1662" type="Const" version="opset1">
			<data element_type="f16" offset="62848" shape="64, 1, 1, 3, 3" size="1152"/>
			<output>
				<port id="0" names="1662" precision="FP16">
					<dim>64</dim>
					<dim>1</dim>
					<dim>1</dim>
					<dim>3</dim>
					<dim>3</dim>
				</port>
			</output>
		</layer>
		<layer id="220" name="Conv_156/WithoutBiases" type="GroupConvolution" version="opset1">
			<data auto_pad="explicit" dilations="1, 1" pads_begin="1, 1" pads_end="1, 1" strides="2, 2"/>
			<input>
				<port id="0" precision="FP16">
					<dim>1</dim>
					<dim>64</dim>
					<dim>48</dim>
					<dim>80</dim>
				</port>
				<port id="1" precision="FP16">
					<dim>64</dim>
					<dim>1</dim>
					<dim>1</dim>
					<dim>3</dim>
					<dim>3</dim>
				</port>
			</input>
			<output>
				<port id="2" precision="FP16">
					<dim>1</dim>
					<dim>64</dim>
					<dim>24</dim>
					<dim>40</dim>
				</port>
			</output>
		</layer>
		<layer id="221" name="Conv_156/Dims6572" type="Const" version="opset1">
			<data element_type="f16" offset="64000" shape="1, 64, 1, 1" size="128"/>
			<output>
				<port id="0" precision="FP16">
					<dim>1</dim>
					<dim>64</dim>
					<dim>1</dim>
					<dim>1</dim>
				</port>
			</output>
		</layer>
		<layer id="222" name="Conv_156" type="Add" version="opset1">
			<data auto_broadcast="numpy"/>
			<input>
				<port id="0" precision="FP16">
					<dim>1</dim>
					<dim>64</dim>
					<dim>24</dim>
					<dim>40</dim>
				</port>
				<port id="1" precision="FP16">
					<dim>1</dim>
					<dim>64</dim>
					<dim>1</dim>
					<dim>1</dim>
				</port>
			</input>
			<output>
				<port id="2" names="1661" precision="FP16">
					<dim>1</dim>
					<dim>64</dim>
					<dim>24</dim>
					<dim>40</dim>
				</port>
			</output>
		</layer>
		<layer id="223" name="Mul_158" type="Swish" version="opset4">
			<input>
				<port id="0" precision="FP16">
					<dim>1</dim>
					<dim>64</dim>
					<dim>24</dim>
					<dim>40</dim>
				</port>
			</input>
			<output>
				<port id="1" names="1059" precision="FP16">
					<dim>1</dim>
					<dim>64</dim>
					<dim>24</dim>
					<dim>40</dim>
				</port>
			</output>
		</layer>
		<layer id="224" name="1665" type="Const" version="opset1">
			<data element_type="f16" offset="64128" shape="128, 64, 1, 1" size="16384"/>
			<output>
				<port id="0" names="1665" precision="FP16">
					<dim>128</dim>
					<dim>64</dim>
					<dim>1</dim>
					<dim>1</dim>
				</port>
			</output>
		</layer>
		<layer id="225" name="Conv_159/WithoutBiases" type="Convolution" version="opset1">
			<data auto_pad="explicit" dilations="1, 1" pads_begin="0, 0" pads_end="0, 0" strides="1, 1"/>
			<input>
				<port id="0" precision="FP16">
					<dim>1</dim>
					<dim>64</dim>
					<dim>24</dim>
					<dim>40</dim>
				</port>
				<port id="1" precision="FP16">
					<dim>128</dim>
					<dim>64</dim>
					<dim>1</dim>
					<dim>1</dim>
				</port>
			</input>
			<output>
				<port id="2" precision="FP16">
					<dim>1</dim>
					<dim>128</dim>
					<dim>24</dim>
					<dim>40</dim>
				</port>
			</output>
		</layer>
		<layer id="226" name="Conv_159/Dims6872" type="Const" version="opset1">
			<data element_type="f16" offset="80512" shape="1, 128, 1, 1" size="256"/>
			<output>
				<port id="0" precision="FP16">
					<dim>1</dim>
					<dim>128</dim>
					<dim>1</dim>
					<dim>1</dim>
				</port>
			</output>
		</layer>
		<layer id="227" name="Conv_159" type="Add" version="opset1">
			<data auto_broadcast="numpy"/>
			<input>
				<port id="0" precision="FP16">
					<dim>1</dim>
					<dim>128</dim>
					<dim>24</dim>
					<dim>40</dim>
				</port>
				<port id="1" precision="FP16">
					<dim>1</dim>
					<dim>128</dim>
					<dim>1</dim>
					<dim>1</dim>
				</port>
			</input>
			<output>
				<port id="2" names="1664" precision="FP16">
					<dim>1</dim>
					<dim>128</dim>
					<dim>24</dim>
					<dim>40</dim>
				</port>
			</output>
		</layer>
		<layer id="228" name="Mul_161" type="Swish" version="opset4">
			<input>
				<port id="0" precision="FP16">
					<dim>1</dim>
					<dim>128</dim>
					<dim>24</dim>
					<dim>40</dim>
				</port>
			</input>
			<output>
				<port id="1" names="1063" precision="FP16">
					<dim>1</dim>
					<dim>128</dim>
					<dim>24</dim>
					<dim>40</dim>
				</port>
			</output>
		</layer>
		<layer id="229" name="1668" type="Const" version="opset1">
			<data element_type="f16" offset="80768" shape="64, 128, 1, 1" size="16384"/>
			<output>
				<port id="0" names="1668" precision="FP16">
					<dim>64</dim>
					<dim>128</dim>
					<dim>1</dim>
					<dim>1</dim>
				</port>
			</output>
		</layer>
		<layer id="230" name="Conv_162/WithoutBiases" type="Convolution" version="opset1">
			<data auto_pad="explicit" dilations="1, 1" pads_begin="0, 0" pads_end="0, 0" strides="1, 1"/>
			<input>
				<port id="0" precision="FP16">
					<dim>1</dim>
					<dim>128</dim>
					<dim>24</dim>
					<dim>40</dim>
				</port>
				<port id="1" precision="FP16">
					<dim>64</dim>
					<dim>128</dim>
					<dim>1</dim>
					<dim>1</dim>
				</port>
			</input>
			<output>
				<port id="2" precision="FP16">
					<dim>1</dim>
					<dim>64</dim>
					<dim>24</dim>
					<dim>40</dim>
				</port>
			</output>
		</layer>
		<layer id="231" name="Conv_162/Dims7268" type="Const" version="opset1">
			<data element_type="f16" offset="97152" shape="1, 64, 1, 1" size="128"/>
			<output>
				<port id="0" precision="FP16">
					<dim>1</dim>
					<dim>64</dim>
					<dim>1</dim>
					<dim>1</dim>
				</port>
			</output>
		</layer>
		<layer id="232" name="Conv_162" type="Add" version="opset1">
			<data auto_broadcast="numpy"/>
			<input>
				<port id="0" precision="FP16">
					<dim>1</dim>
					<dim>64</dim>
					<dim>24</dim>
					<dim>40</dim>
				</port>
				<port id="1" precision="FP16">
					<dim>1</dim>
					<dim>64</dim>
					<dim>1</dim>
					<dim>1</dim>
				</port>
			</input>
			<output>
				<port id="2" names="1667" precision="FP16">
					<dim>1</dim>
					<dim>64</dim>
					<dim>24</dim>
					<dim>40</dim>
				</port>
			</output>
		</layer>
		<layer id="233" name="Mul_164" type="Swish" version="opset4">
			<input>
				<port id="0" precision="FP16">
					<dim>1</dim>
					<dim>64</dim>
					<dim>24</dim>
					<dim>40</dim>
				</port>
			</input>
			<output>
				<port id="1" names="1067" precision="FP16">
					<dim>1</dim>
					<dim>64</dim>
					<dim>24</dim>
					<dim>40</dim>
				</port>
			</output>
		</layer>
		<layer id="234" name="1674" type="Const" version="opset1">
			<data element_type="f16" offset="97280" shape="64, 64, 1, 1" size="8192"/>
			<output>
				<port id="0" names="1674" precision="FP16">
					<dim>64</dim>
					<dim>64</dim>
					<dim>1</dim>
					<dim>1</dim>
				</port>
			</output>
		</layer>
		<layer id="235" name="Conv_168/WithoutBiases" type="Convolution" version="opset1">
			<data auto_pad="explicit" dilations="1, 1" pads_begin="0, 0" pads_end="0, 0" strides="1, 1"/>
			<input>
				<port id="0" precision="FP16">
					<dim>1</dim>
					<dim>64</dim>
					<dim>24</dim>
					<dim>40</dim>
				</port>
				<port id="1" precision="FP16">
					<dim>64</dim>
					<dim>64</dim>
					<dim>1</dim>
					<dim>1</dim>
				</port>
			</input>
			<output>
				<port id="2" precision="FP16">
					<dim>1</dim>
					<dim>64</dim>
					<dim>24</dim>
					<dim>40</dim>
				</port>
			</output>
		</layer>
		<layer id="236" name="Conv_168/Dims6782" type="Const" version="opset1">
			<data element_type="f16" offset="105472" shape="1, 64, 1, 1" size="128"/>
			<output>
				<port id="0" precision="FP16">
					<dim>1</dim>
					<dim>64</dim>
					<dim>1</dim>
					<dim>1</dim>
				</port>
			</output>
		</layer>
		<layer id="237" name="Conv_168" type="Add" version="opset1">
			<data auto_broadcast="numpy"/>
			<input>
				<port id="0" precision="FP16">
					<dim>1</dim>
					<dim>64</dim>
					<dim>24</dim>
					<dim>40</dim>
				</port>
				<port id="1" precision="FP16">
					<dim>1</dim>
					<dim>64</dim>
					<dim>1</dim>
					<dim>1</dim>
				</port>
			</input>
			<output>
				<port id="2" names="1673" precision="FP16">
					<dim>1</dim>
					<dim>64</dim>
					<dim>24</dim>
					<dim>40</dim>
				</port>
			</output>
		</layer>
		<layer id="238" name="Mul_170" type="Swish" version="opset4">
			<input>
				<port id="0" precision="FP16">
					<dim>1</dim>
					<dim>64</dim>
					<dim>24</dim>
					<dim>40</dim>
				</port>
			</input>
			<output>
				<port id="1" names="1075" precision="FP16">
					<dim>1</dim>
					<dim>64</dim>
					<dim>24</dim>
					<dim>40</dim>
				</port>
			</output>
		</layer>
		<layer id="239" name="1677" type="Const" version="opset1">
			<data element_type="f16" offset="105600" shape="64, 1, 1, 3, 3" size="1152"/>
			<output>
				<port id="0" names="1677" precision="FP16">
					<dim>64</dim>
					<dim>1</dim>
					<dim>1</dim>
					<dim>3</dim>
					<dim>3</dim>
				</port>
			</output>
		</layer>
		<layer id="240" name="Conv_171/WithoutBiases" type="GroupConvolution" version="opset1">
			<data auto_pad="explicit" dilations="1, 1" pads_begin="1, 1" pads_end="1, 1" strides="1, 1"/>
			<input>
				<port id="0" precision="FP16">
					<dim>1</dim>
					<dim>64</dim>
					<dim>24</dim>
					<dim>40</dim>
				</port>
				<port id="1" precision="FP16">
					<dim>64</dim>
					<dim>1</dim>
					<dim>1</dim>
					<dim>3</dim>
					<dim>3</dim>
				</port>
			</input>
			<output>
				<port id="2" precision="FP16">
					<dim>1</dim>
					<dim>64</dim>
					<dim>24</dim>
					<dim>40</dim>
				</port>
			</output>
		</layer>
		<layer id="241" name="Conv_171/Dims6842" type="Const" version="opset1">
			<data element_type="f16" offset="106752" shape="1, 64, 1, 1" size="128"/>
			<output>
				<port id="0" precision="FP16">
					<dim>1</dim>
					<dim>64</dim>
					<dim>1</dim>
					<dim>1</dim>
				</port>
			</output>
		</layer>
		<layer id="242" name="Conv_171" type="Add" version="opset1">
			<data auto_broadcast="numpy"/>
			<input>
				<port id="0" precision="FP16">
					<dim>1</dim>
					<dim>64</dim>
					<dim>24</dim>
					<dim>40</dim>
				</port>
				<port id="1" precision="FP16">
					<dim>1</dim>
					<dim>64</dim>
					<dim>1</dim>
					<dim>1</dim>
				</port>
			</input>
			<output>
				<port id="2" names="1676" precision="FP16">
					<dim>1</dim>
					<dim>64</dim>
					<dim>24</dim>
					<dim>40</dim>
				</port>
			</output>
		</layer>
		<layer id="243" name="Mul_173" type="Swish" version="opset4">
			<input>
				<port id="0" precision="FP16">
					<dim>1</dim>
					<dim>64</dim>
					<dim>24</dim>
					<dim>40</dim>
				</port>
			</input>
			<output>
				<port id="1" names="1079" precision="FP16">
					<dim>1</dim>
					<dim>64</dim>
					<dim>24</dim>
					<dim>40</dim>
				</port>
			</output>
		</layer>
		<layer id="244" name="1680" type="Const" version="opset1">
			<data element_type="f16" offset="106880" shape="64, 64, 1, 1" size="8192"/>
			<output>
				<port id="0" names="1680" precision="FP16">
					<dim>64</dim>
					<dim>64</dim>
					<dim>1</dim>
					<dim>1</dim>
				</port>
			</output>
		</layer>
		<layer id="245" name="Conv_174/WithoutBiases" type="Convolution" version="opset1">
			<data auto_pad="explicit" dilations="1, 1" pads_begin="0, 0" pads_end="0, 0" strides="1, 1"/>
			<input>
				<port id="0" precision="FP16">
					<dim>1</dim>
					<dim>64</dim>
					<dim>24</dim>
					<dim>40</dim>
				</port>
				<port id="1" precision="FP16">
					<dim>64</dim>
					<dim>64</dim>
					<dim>1</dim>
					<dim>1</dim>
				</port>
			</input>
			<output>
				<port id="2" precision="FP16">
					<dim>1</dim>
					<dim>64</dim>
					<dim>24</dim>
					<dim>40</dim>
				</port>
			</output>
		</layer>
		<layer id="246" name="Conv_174/Dims7340" type="Const" version="opset1">
			<data element_type="f16" offset="115072" shape="1, 64, 1, 1" size="128"/>
			<output>
				<port id="0" precision="FP16">
					<dim>1</dim>
					<dim>64</dim>
					<dim>1</dim>
					<dim>1</dim>
				</port>
			</output>
		</layer>
		<layer id="247" name="Conv_174" type="Add" version="opset1">
			<data auto_broadcast="numpy"/>
			<input>
				<port id="0" precision="FP16">
					<dim>1</dim>
					<dim>64</dim>
					<dim>24</dim>
					<dim>40</dim>
				</port>
				<port id="1" precision="FP16">
					<dim>1</dim>
					<dim>64</dim>
					<dim>1</dim>
					<dim>1</dim>
				</port>
			</input>
			<output>
				<port id="2" names="1679" precision="FP16">
					<dim>1</dim>
					<dim>64</dim>
					<dim>24</dim>
					<dim>40</dim>
				</port>
			</output>
		</layer>
		<layer id="248" name="Mul_176" type="Swish" version="opset4">
			<input>
				<port id="0" precision="FP16">
					<dim>1</dim>
					<dim>64</dim>
					<dim>24</dim>
					<dim>40</dim>
				</port>
			</input>
			<output>
				<port id="1" names="1083" precision="FP16">
					<dim>1</dim>
					<dim>64</dim>
					<dim>24</dim>
					<dim>40</dim>
				</port>
			</output>
		</layer>
		<layer id="249" name="Add_177" type="Add" version="opset1">
			<data auto_broadcast="numpy"/>
			<input>
				<port id="0" precision="FP16">
					<dim>1</dim>
					<dim>64</dim>
					<dim>24</dim>
					<dim>40</dim>
				</port>
				<port id="1" precision="FP16">
					<dim>1</dim>
					<dim>64</dim>
					<dim>24</dim>
					<dim>40</dim>
				</port>
			</input>
			<output>
				<port id="2" names="1084" precision="FP16">
					<dim>1</dim>
					<dim>64</dim>
					<dim>24</dim>
					<dim>40</dim>
				</port>
			</output>
		</layer>
		<layer id="250" name="1683" type="Const" version="opset1">
			<data element_type="f16" offset="115200" shape="64, 64, 1, 1" size="8192"/>
			<output>
				<port id="0" names="1683" precision="FP16">
					<dim>64</dim>
					<dim>64</dim>
					<dim>1</dim>
					<dim>1</dim>
				</port>
			</output>
		</layer>
		<layer id="251" name="Conv_178/WithoutBiases" type="Convolution" version="opset1">
			<data auto_pad="explicit" dilations="1, 1" pads_begin="0, 0" pads_end="0, 0" strides="1, 1"/>
			<input>
				<port id="0" precision="FP16">
					<dim>1</dim>
					<dim>64</dim>
					<dim>24</dim>
					<dim>40</dim>
				</port>
				<port id="1" precision="FP16">
					<dim>64</dim>
					<dim>64</dim>
					<dim>1</dim>
					<dim>1</dim>
				</port>
			</input>
			<output>
				<port id="2" precision="FP16">
					<dim>1</dim>
					<dim>64</dim>
					<dim>24</dim>
					<dim>40</dim>
				</port>
			</output>
		</layer>
		<layer id="252" name="Conv_178/Dims6854" type="Const" version="opset1">
			<data element_type="f16" offset="123392" shape="1, 64, 1, 1" size="128"/>
			<output>
				<port id="0" precision="FP16">
					<dim>1</dim>
					<dim>64</dim>
					<dim>1</dim>
					<dim>1</dim>
				</port>
			</output>
		</layer>
		<layer id="253" name="Conv_178" type="Add" version="opset1">
			<data auto_broadcast="numpy"/>
			<input>
				<port id="0" precision="FP16">
					<dim>1</dim>
					<dim>64</dim>
					<dim>24</dim>
					<dim>40</dim>
				</port>
				<port id="1" precision="FP16">
					<dim>1</dim>
					<dim>64</dim>
					<dim>1</dim>
					<dim>1</dim>
				</port>
			</input>
			<output>
				<port id="2" names="1682" precision="FP16">
					<dim>1</dim>
					<dim>64</dim>
					<dim>24</dim>
					<dim>40</dim>
				</port>
			</output>
		</layer>
		<layer id="254" name="Mul_180" type="Swish" version="opset4">
			<input>
				<port id="0" precision="FP16">
					<dim>1</dim>
					<dim>64</dim>
					<dim>24</dim>
					<dim>40</dim>
				</port>
			</input>
			<output>
				<port id="1" names="1088" precision="FP16">
					<dim>1</dim>
					<dim>64</dim>
					<dim>24</dim>
					<dim>40</dim>
				</port>
			</output>
		</layer>
		<layer id="255" name="1686" type="Const" version="opset1">
			<data element_type="f16" offset="123520" shape="64, 1, 1, 3, 3" size="1152"/>
			<output>
				<port id="0" names="1686" precision="FP16">
					<dim>64</dim>
					<dim>1</dim>
					<dim>1</dim>
					<dim>3</dim>
					<dim>3</dim>
				</port>
			</output>
		</layer>
		<layer id="256" name="Conv_181/WithoutBiases" type="GroupConvolution" version="opset1">
			<data auto_pad="explicit" dilations="1, 1" pads_begin="1, 1" pads_end="1, 1" strides="1, 1"/>
			<input>
				<port id="0" precision="FP16">
					<dim>1</dim>
					<dim>64</dim>
					<dim>24</dim>
					<dim>40</dim>
				</port>
				<port id="1" precision="FP16">
					<dim>64</dim>
					<dim>1</dim>
					<dim>1</dim>
					<dim>3</dim>
					<dim>3</dim>
				</port>
			</input>
			<output>
				<port id="2" precision="FP16">
					<dim>1</dim>
					<dim>64</dim>
					<dim>24</dim>
					<dim>40</dim>
				</port>
			</output>
		</layer>
		<layer id="257" name="Conv_181/Dims6956" type="Const" version="opset1">
			<data element_type="f16" offset="124672" shape="1, 64, 1, 1" size="128"/>
			<output>
				<port id="0" precision="FP16">
					<dim>1</dim>
					<dim>64</dim>
					<dim>1</dim>
					<dim>1</dim>
				</port>
			</output>
		</layer>
		<layer id="258" name="Conv_181" type="Add" version="opset1">
			<data auto_broadcast="numpy"/>
			<input>
				<port id="0" precision="FP16">
					<dim>1</dim>
					<dim>64</dim>
					<dim>24</dim>
					<dim>40</dim>
				</port>
				<port id="1" precision="FP16">
					<dim>1</dim>
					<dim>64</dim>
					<dim>1</dim>
					<dim>1</dim>
				</port>
			</input>
			<output>
				<port id="2" names="1685" precision="FP16">
					<dim>1</dim>
					<dim>64</dim>
					<dim>24</dim>
					<dim>40</dim>
				</port>
			</output>
		</layer>
		<layer id="259" name="Mul_183" type="Swish" version="opset4">
			<input>
				<port id="0" precision="FP16">
					<dim>1</dim>
					<dim>64</dim>
					<dim>24</dim>
					<dim>40</dim>
				</port>
			</input>
			<output>
				<port id="1" names="1092" precision="FP16">
					<dim>1</dim>
					<dim>64</dim>
					<dim>24</dim>
					<dim>40</dim>
				</port>
			</output>
		</layer>
		<layer id="260" name="1689" type="Const" version="opset1">
			<data element_type="f16" offset="124800" shape="64, 64, 1, 1" size="8192"/>
			<output>
				<port id="0" names="1689" precision="FP16">
					<dim>64</dim>
					<dim>64</dim>
					<dim>1</dim>
					<dim>1</dim>
				</port>
			</output>
		</layer>
		<layer id="261" name="Conv_184/WithoutBiases" type="Convolution" version="opset1">
			<data auto_pad="explicit" dilations="1, 1" pads_begin="0, 0" pads_end="0, 0" strides="1, 1"/>
			<input>
				<port id="0" precision="FP16">
					<dim>1</dim>
					<dim>64</dim>
					<dim>24</dim>
					<dim>40</dim>
				</port>
				<port id="1" precision="FP16">
					<dim>64</dim>
					<dim>64</dim>
					<dim>1</dim>
					<dim>1</dim>
				</port>
			</input>
			<output>
				<port id="2" precision="FP16">
					<dim>1</dim>
					<dim>64</dim>
					<dim>24</dim>
					<dim>40</dim>
				</port>
			</output>
		</layer>
		<layer id="262" name="Conv_184/Dims7076" type="Const" version="opset1">
			<data element_type="f16" offset="132992" shape="1, 64, 1, 1" size="128"/>
			<output>
				<port id="0" precision="FP16">
					<dim>1</dim>
					<dim>64</dim>
					<dim>1</dim>
					<dim>1</dim>
				</port>
			</output>
		</layer>
		<layer id="263" name="Conv_184" type="Add" version="opset1">
			<data auto_broadcast="numpy"/>
			<input>
				<port id="0" precision="FP16">
					<dim>1</dim>
					<dim>64</dim>
					<dim>24</dim>
					<dim>40</dim>
				</port>
				<port id="1" precision="FP16">
					<dim>1</dim>
					<dim>64</dim>
					<dim>1</dim>
					<dim>1</dim>
				</port>
			</input>
			<output>
				<port id="2" names="1688" precision="FP16">
					<dim>1</dim>
					<dim>64</dim>
					<dim>24</dim>
					<dim>40</dim>
				</port>
			</output>
		</layer>
		<layer id="264" name="Mul_186" type="Swish" version="opset4">
			<input>
				<port id="0" precision="FP16">
					<dim>1</dim>
					<dim>64</dim>
					<dim>24</dim>
					<dim>40</dim>
				</port>
			</input>
			<output>
				<port id="1" names="1096" precision="FP16">
					<dim>1</dim>
					<dim>64</dim>
					<dim>24</dim>
					<dim>40</dim>
				</port>
			</output>
		</layer>
		<layer id="265" name="Add_187" type="Add" version="opset1">
			<data auto_broadcast="numpy"/>
			<input>
				<port id="0" precision="FP16">
					<dim>1</dim>
					<dim>64</dim>
					<dim>24</dim>
					<dim>40</dim>
				</port>
				<port id="1" precision="FP16">
					<dim>1</dim>
					<dim>64</dim>
					<dim>24</dim>
					<dim>40</dim>
				</port>
			</input>
			<output>
				<port id="2" names="1097" precision="FP16">
					<dim>1</dim>
					<dim>64</dim>
					<dim>24</dim>
					<dim>40</dim>
				</port>
			</output>
		</layer>
		<layer id="266" name="1692" type="Const" version="opset1">
			<data element_type="f16" offset="133120" shape="64, 64, 1, 1" size="8192"/>
			<output>
				<port id="0" names="1692" precision="FP16">
					<dim>64</dim>
					<dim>64</dim>
					<dim>1</dim>
					<dim>1</dim>
				</port>
			</output>
		</layer>
		<layer id="267" name="Conv_188/WithoutBiases" type="Convolution" version="opset1">
			<data auto_pad="explicit" dilations="1, 1" pads_begin="0, 0" pads_end="0, 0" strides="1, 1"/>
			<input>
				<port id="0" precision="FP16">
					<dim>1</dim>
					<dim>64</dim>
					<dim>24</dim>
					<dim>40</dim>
				</port>
				<port id="1" precision="FP16">
					<dim>64</dim>
					<dim>64</dim>
					<dim>1</dim>
					<dim>1</dim>
				</port>
			</input>
			<output>
				<port id="2" precision="FP16">
					<dim>1</dim>
					<dim>64</dim>
					<dim>24</dim>
					<dim>40</dim>
				</port>
			</output>
		</layer>
		<layer id="268" name="Conv_188/Dims6710" type="Const" version="opset1">
			<data element_type="f16" offset="141312" shape="1, 64, 1, 1" size="128"/>
			<output>
				<port id="0" precision="FP16">
					<dim>1</dim>
					<dim>64</dim>
					<dim>1</dim>
					<dim>1</dim>
				</port>
			</output>
		</layer>
		<layer id="269" name="Conv_188" type="Add" version="opset1">
			<data auto_broadcast="numpy"/>
			<input>
				<port id="0" precision="FP16">
					<dim>1</dim>
					<dim>64</dim>
					<dim>24</dim>
					<dim>40</dim>
				</port>
				<port id="1" precision="FP16">
					<dim>1</dim>
					<dim>64</dim>
					<dim>1</dim>
					<dim>1</dim>
				</port>
			</input>
			<output>
				<port id="2" names="1691" precision="FP16">
					<dim>1</dim>
					<dim>64</dim>
					<dim>24</dim>
					<dim>40</dim>
				</port>
			</output>
		</layer>
		<layer id="270" name="Mul_190" type="Swish" version="opset4">
			<input>
				<port id="0" precision="FP16">
					<dim>1</dim>
					<dim>64</dim>
					<dim>24</dim>
					<dim>40</dim>
				</port>
			</input>
			<output>
				<port id="1" names="1101" precision="FP16">
					<dim>1</dim>
					<dim>64</dim>
					<dim>24</dim>
					<dim>40</dim>
				</port>
			</output>
		</layer>
		<layer id="271" name="1695" type="Const" version="opset1">
			<data element_type="f16" offset="141440" shape="64, 1, 1, 3, 3" size="1152"/>
			<output>
				<port id="0" names="1695" precision="FP16">
					<dim>64</dim>
					<dim>1</dim>
					<dim>1</dim>
					<dim>3</dim>
					<dim>3</dim>
				</port>
			</output>
		</layer>
		<layer id="272" name="Conv_191/WithoutBiases" type="GroupConvolution" version="opset1">
			<data auto_pad="explicit" dilations="1, 1" pads_begin="1, 1" pads_end="1, 1" strides="1, 1"/>
			<input>
				<port id="0" precision="FP16">
					<dim>1</dim>
					<dim>64</dim>
					<dim>24</dim>
					<dim>40</dim>
				</port>
				<port id="1" precision="FP16">
					<dim>64</dim>
					<dim>1</dim>
					<dim>1</dim>
					<dim>3</dim>
					<dim>3</dim>
				</port>
			</input>
			<output>
				<port id="2" precision="FP16">
					<dim>1</dim>
					<dim>64</dim>
					<dim>24</dim>
					<dim>40</dim>
				</port>
			</output>
		</layer>
		<layer id="273" name="Conv_191/Dims7022" type="Const" version="opset1">
			<data element_type="f16" offset="142592" shape="1, 64, 1, 1" size="128"/>
			<output>
				<port id="0" precision="FP16">
					<dim>1</dim>
					<dim>64</dim>
					<dim>1</dim>
					<dim>1</dim>
				</port>
			</output>
		</layer>
		<layer id="274" name="Conv_191" type="Add" version="opset1">
			<data auto_broadcast="numpy"/>
			<input>
				<port id="0" precision="FP16">
					<dim>1</dim>
					<dim>64</dim>
					<dim>24</dim>
					<dim>40</dim>
				</port>
				<port id="1" precision="FP16">
					<dim>1</dim>
					<dim>64</dim>
					<dim>1</dim>
					<dim>1</dim>
				</port>
			</input>
			<output>
				<port id="2" names="1694" precision="FP16">
					<dim>1</dim>
					<dim>64</dim>
					<dim>24</dim>
					<dim>40</dim>
				</port>
			</output>
		</layer>
		<layer id="275" name="Mul_193" type="Swish" version="opset4">
			<input>
				<port id="0" precision="FP16">
					<dim>1</dim>
					<dim>64</dim>
					<dim>24</dim>
					<dim>40</dim>
				</port>
			</input>
			<output>
				<port id="1" names="1105" precision="FP16">
					<dim>1</dim>
					<dim>64</dim>
					<dim>24</dim>
					<dim>40</dim>
				</port>
			</output>
		</layer>
		<layer id="276" name="1698" type="Const" version="opset1">
			<data element_type="f16" offset="142720" shape="64, 64, 1, 1" size="8192"/>
			<output>
				<port id="0" names="1698" precision="FP16">
					<dim>64</dim>
					<dim>64</dim>
					<dim>1</dim>
					<dim>1</dim>
				</port>
			</output>
		</layer>
		<layer id="277" name="Conv_194/WithoutBiases" type="Convolution" version="opset1">
			<data auto_pad="explicit" dilations="1, 1" pads_begin="0, 0" pads_end="0, 0" strides="1, 1"/>
			<input>
				<port id="0" precision="FP16">
					<dim>1</dim>
					<dim>64</dim>
					<dim>24</dim>
					<dim>40</dim>
				</port>
				<port id="1" precision="FP16">
					<dim>64</dim>
					<dim>64</dim>
					<dim>1</dim>
					<dim>1</dim>
				</port>
			</input>
			<output>
				<port id="2" precision="FP16">
					<dim>1</dim>
					<dim>64</dim>
					<dim>24</dim>
					<dim>40</dim>
				</port>
			</output>
		</layer>
		<layer id="278" name="Conv_194/Dims7424" type="Const" version="opset1">
			<data element_type="f16" offset="150912" shape="1, 64, 1, 1" size="128"/>
			<output>
				<port id="0" precision="FP16">
					<dim>1</dim>
					<dim>64</dim>
					<dim>1</dim>
					<dim>1</dim>
				</port>
			</output>
		</layer>
		<layer id="279" name="Conv_194" type="Add" version="opset1">
			<data auto_broadcast="numpy"/>
			<input>
				<port id="0" precision="FP16">
					<dim>1</dim>
					<dim>64</dim>
					<dim>24</dim>
					<dim>40</dim>
				</port>
				<port id="1" precision="FP16">
					<dim>1</dim>
					<dim>64</dim>
					<dim>1</dim>
					<dim>1</dim>
				</port>
			</input>
			<output>
				<port id="2" names="1697" precision="FP16">
					<dim>1</dim>
					<dim>64</dim>
					<dim>24</dim>
					<dim>40</dim>
				</port>
			</output>
		</layer>
		<layer id="280" name="Mul_196" type="Swish" version="opset4">
			<input>
				<port id="0" precision="FP16">
					<dim>1</dim>
					<dim>64</dim>
					<dim>24</dim>
					<dim>40</dim>
				</port>
			</input>
			<output>
				<port id="1" names="1109" precision="FP16">
					<dim>1</dim>
					<dim>64</dim>
					<dim>24</dim>
					<dim>40</dim>
				</port>
			</output>
		</layer>
		<layer id="281" name="Add_197" type="Add" version="opset1">
			<data auto_broadcast="numpy"/>
			<input>
				<port id="0" precision="FP16">
					<dim>1</dim>
					<dim>64</dim>
					<dim>24</dim>
					<dim>40</dim>
				</port>
				<port id="1" precision="FP16">
					<dim>1</dim>
					<dim>64</dim>
					<dim>24</dim>
					<dim>40</dim>
				</port>
			</input>
			<output>
				<port id="2" names="1110" precision="FP16">
					<dim>1</dim>
					<dim>64</dim>
					<dim>24</dim>
					<dim>40</dim>
				</port>
			</output>
		</layer>
		<layer id="282" name="1701" type="Const" version="opset1">
			<data element_type="f16" offset="151040" shape="64, 64, 1, 1" size="8192"/>
			<output>
				<port id="0" names="1701" precision="FP16">
					<dim>64</dim>
					<dim>64</dim>
					<dim>1</dim>
					<dim>1</dim>
				</port>
			</output>
		</layer>
		<layer id="283" name="Conv_198/WithoutBiases" type="Convolution" version="opset1">
			<data auto_pad="explicit" dilations="1, 1" pads_begin="0, 0" pads_end="0, 0" strides="1, 1"/>
			<input>
				<port id="0" precision="FP16">
					<dim>1</dim>
					<dim>64</dim>
					<dim>24</dim>
					<dim>40</dim>
				</port>
				<port id="1" precision="FP16">
					<dim>64</dim>
					<dim>64</dim>
					<dim>1</dim>
					<dim>1</dim>
				</port>
			</input>
			<output>
				<port id="2" precision="FP16">
					<dim>1</dim>
					<dim>64</dim>
					<dim>24</dim>
					<dim>40</dim>
				</port>
			</output>
		</layer>
		<layer id="284" name="Conv_198/Dims6704" type="Const" version="opset1">
			<data element_type="f16" offset="159232" shape="1, 64, 1, 1" size="128"/>
			<output>
				<port id="0" precision="FP16">
					<dim>1</dim>
					<dim>64</dim>
					<dim>1</dim>
					<dim>1</dim>
				</port>
			</output>
		</layer>
		<layer id="285" name="Conv_198" type="Add" version="opset1">
			<data auto_broadcast="numpy"/>
			<input>
				<port id="0" precision="FP16">
					<dim>1</dim>
					<dim>64</dim>
					<dim>24</dim>
					<dim>40</dim>
				</port>
				<port id="1" precision="FP16">
					<dim>1</dim>
					<dim>64</dim>
					<dim>1</dim>
					<dim>1</dim>
				</port>
			</input>
			<output>
				<port id="2" names="1700" precision="FP16">
					<dim>1</dim>
					<dim>64</dim>
					<dim>24</dim>
					<dim>40</dim>
				</port>
			</output>
		</layer>
		<layer id="286" name="Mul_200" type="Swish" version="opset4">
			<input>
				<port id="0" precision="FP16">
					<dim>1</dim>
					<dim>64</dim>
					<dim>24</dim>
					<dim>40</dim>
				</port>
			</input>
			<output>
				<port id="1" names="1114" precision="FP16">
					<dim>1</dim>
					<dim>64</dim>
					<dim>24</dim>
					<dim>40</dim>
				</port>
			</output>
		</layer>
		<layer id="287" name="1704" type="Const" version="opset1">
			<data element_type="f16" offset="159360" shape="64, 1, 1, 3, 3" size="1152"/>
			<output>
				<port id="0" names="1704" precision="FP16">
					<dim>64</dim>
					<dim>1</dim>
					<dim>1</dim>
					<dim>3</dim>
					<dim>3</dim>
				</port>
			</output>
		</layer>
		<layer id="288" name="Conv_201/WithoutBiases" type="GroupConvolution" version="opset1">
			<data auto_pad="explicit" dilations="1, 1" pads_begin="1, 1" pads_end="1, 1" strides="1, 1"/>
			<input>
				<port id="0" precision="FP16">
					<dim>1</dim>
					<dim>64</dim>
					<dim>24</dim>
					<dim>40</dim>
				</port>
				<port id="1" precision="FP16">
					<dim>64</dim>
					<dim>1</dim>
					<dim>1</dim>
					<dim>3</dim>
					<dim>3</dim>
				</port>
			</input>
			<output>
				<port id="2" precision="FP16">
					<dim>1</dim>
					<dim>64</dim>
					<dim>24</dim>
					<dim>40</dim>
				</port>
			</output>
		</layer>
		<layer id="289" name="Conv_201/Dims6974" type="Const" version="opset1">
			<data element_type="f16" offset="160512" shape="1, 64, 1, 1" size="128"/>
			<output>
				<port id="0" precision="FP16">
					<dim>1</dim>
					<dim>64</dim>
					<dim>1</dim>
					<dim>1</dim>
				</port>
			</output>
		</layer>
		<layer id="290" name="Conv_201" type="Add" version="opset1">
			<data auto_broadcast="numpy"/>
			<input>
				<port id="0" precision="FP16">
					<dim>1</dim>
					<dim>64</dim>
					<dim>24</dim>
					<dim>40</dim>
				</port>
				<port id="1" precision="FP16">
					<dim>1</dim>
					<dim>64</dim>
					<dim>1</dim>
					<dim>1</dim>
				</port>
			</input>
			<output>
				<port id="2" names="1703" precision="FP16">
					<dim>1</dim>
					<dim>64</dim>
					<dim>24</dim>
					<dim>40</dim>
				</port>
			</output>
		</layer>
		<layer id="291" name="Mul_203" type="Swish" version="opset4">
			<input>
				<port id="0" precision="FP16">
					<dim>1</dim>
					<dim>64</dim>
					<dim>24</dim>
					<dim>40</dim>
				</port>
			</input>
			<output>
				<port id="1" names="1118" precision="FP16">
					<dim>1</dim>
					<dim>64</dim>
					<dim>24</dim>
					<dim>40</dim>
				</port>
			</output>
		</layer>
		<layer id="292" name="1707" type="Const" version="opset1">
			<data element_type="f16" offset="160640" shape="64, 64, 1, 1" size="8192"/>
			<output>
				<port id="0" names="1707" precision="FP16">
					<dim>64</dim>
					<dim>64</dim>
					<dim>1</dim>
					<dim>1</dim>
				</port>
			</output>
		</layer>
		<layer id="293" name="Conv_204/WithoutBiases" type="Convolution" version="opset1">
			<data auto_pad="explicit" dilations="1, 1" pads_begin="0, 0" pads_end="0, 0" strides="1, 1"/>
			<input>
				<port id="0" precision="FP16">
					<dim>1</dim>
					<dim>64</dim>
					<dim>24</dim>
					<dim>40</dim>
				</port>
				<port id="1" precision="FP16">
					<dim>64</dim>
					<dim>64</dim>
					<dim>1</dim>
					<dim>1</dim>
				</port>
			</input>
			<output>
				<port id="2" precision="FP16">
					<dim>1</dim>
					<dim>64</dim>
					<dim>24</dim>
					<dim>40</dim>
				</port>
			</output>
		</layer>
		<layer id="294" name="Conv_204/Dims7040" type="Const" version="opset1">
			<data element_type="f16" offset="168832" shape="1, 64, 1, 1" size="128"/>
			<output>
				<port id="0" precision="FP16">
					<dim>1</dim>
					<dim>64</dim>
					<dim>1</dim>
					<dim>1</dim>
				</port>
			</output>
		</layer>
		<layer id="295" name="Conv_204" type="Add" version="opset1">
			<data auto_broadcast="numpy"/>
			<input>
				<port id="0" precision="FP16">
					<dim>1</dim>
					<dim>64</dim>
					<dim>24</dim>
					<dim>40</dim>
				</port>
				<port id="1" precision="FP16">
					<dim>1</dim>
					<dim>64</dim>
					<dim>1</dim>
					<dim>1</dim>
				</port>
			</input>
			<output>
				<port id="2" names="1706" precision="FP16">
					<dim>1</dim>
					<dim>64</dim>
					<dim>24</dim>
					<dim>40</dim>
				</port>
			</output>
		</layer>
		<layer id="296" name="Mul_206" type="Swish" version="opset4">
			<input>
				<port id="0" precision="FP16">
					<dim>1</dim>
					<dim>64</dim>
					<dim>24</dim>
					<dim>40</dim>
				</port>
			</input>
			<output>
				<port id="1" names="1122" precision="FP16">
					<dim>1</dim>
					<dim>64</dim>
					<dim>24</dim>
					<dim>40</dim>
				</port>
			</output>
		</layer>
		<layer id="297" name="Add_207" type="Add" version="opset1">
			<data auto_broadcast="numpy"/>
			<input>
				<port id="0" precision="FP16">
					<dim>1</dim>
					<dim>64</dim>
					<dim>24</dim>
					<dim>40</dim>
				</port>
				<port id="1" precision="FP16">
					<dim>1</dim>
					<dim>64</dim>
					<dim>24</dim>
					<dim>40</dim>
				</port>
			</input>
			<output>
				<port id="2" names="1123" precision="FP16">
					<dim>1</dim>
					<dim>64</dim>
					<dim>24</dim>
					<dim>40</dim>
				</port>
			</output>
		</layer>
		<layer id="298" name="1710" type="Const" version="opset1">
			<data element_type="f16" offset="168960" shape="64, 64, 1, 1" size="8192"/>
			<output>
				<port id="0" names="1710" precision="FP16">
					<dim>64</dim>
					<dim>64</dim>
					<dim>1</dim>
					<dim>1</dim>
				</port>
			</output>
		</layer>
		<layer id="299" name="Conv_208/WithoutBiases" type="Convolution" version="opset1">
			<data auto_pad="explicit" dilations="1, 1" pads_begin="0, 0" pads_end="0, 0" strides="1, 1"/>
			<input>
				<port id="0" precision="FP16">
					<dim>1</dim>
					<dim>64</dim>
					<dim>24</dim>
					<dim>40</dim>
				</port>
				<port id="1" precision="FP16">
					<dim>64</dim>
					<dim>64</dim>
					<dim>1</dim>
					<dim>1</dim>
				</port>
			</input>
			<output>
				<port id="2" precision="FP16">
					<dim>1</dim>
					<dim>64</dim>
					<dim>24</dim>
					<dim>40</dim>
				</port>
			</output>
		</layer>
		<layer id="300" name="Conv_208/Dims6836" type="Const" version="opset1">
			<data element_type="f16" offset="177152" shape="1, 64, 1, 1" size="128"/>
			<output>
				<port id="0" precision="FP16">
					<dim>1</dim>
					<dim>64</dim>
					<dim>1</dim>
					<dim>1</dim>
				</port>
			</output>
		</layer>
		<layer id="301" name="Conv_208" type="Add" version="opset1">
			<data auto_broadcast="numpy"/>
			<input>
				<port id="0" precision="FP16">
					<dim>1</dim>
					<dim>64</dim>
					<dim>24</dim>
					<dim>40</dim>
				</port>
				<port id="1" precision="FP16">
					<dim>1</dim>
					<dim>64</dim>
					<dim>1</dim>
					<dim>1</dim>
				</port>
			</input>
			<output>
				<port id="2" names="1709" precision="FP16">
					<dim>1</dim>
					<dim>64</dim>
					<dim>24</dim>
					<dim>40</dim>
				</port>
			</output>
		</layer>
		<layer id="302" name="Mul_210" type="Swish" version="opset4">
			<input>
				<port id="0" precision="FP16">
					<dim>1</dim>
					<dim>64</dim>
					<dim>24</dim>
					<dim>40</dim>
				</port>
			</input>
			<output>
				<port id="1" names="1127" precision="FP16">
					<dim>1</dim>
					<dim>64</dim>
					<dim>24</dim>
					<dim>40</dim>
				</port>
			</output>
		</layer>
		<layer id="303" name="1713" type="Const" version="opset1">
			<data element_type="f16" offset="177280" shape="64, 1, 1, 3, 3" size="1152"/>
			<output>
				<port id="0" names="1713" precision="FP16">
					<dim>64</dim>
					<dim>1</dim>
					<dim>1</dim>
					<dim>3</dim>
					<dim>3</dim>
				</port>
			</output>
		</layer>
		<layer id="304" name="Conv_211/WithoutBiases" type="GroupConvolution" version="opset1">
			<data auto_pad="explicit" dilations="1, 1" pads_begin="1, 1" pads_end="1, 1" strides="1, 1"/>
			<input>
				<port id="0" precision="FP16">
					<dim>1</dim>
					<dim>64</dim>
					<dim>24</dim>
					<dim>40</dim>
				</port>
				<port id="1" precision="FP16">
					<dim>64</dim>
					<dim>1</dim>
					<dim>1</dim>
					<dim>3</dim>
					<dim>3</dim>
				</port>
			</input>
			<output>
				<port id="2" precision="FP16">
					<dim>1</dim>
					<dim>64</dim>
					<dim>24</dim>
					<dim>40</dim>
				</port>
			</output>
		</layer>
		<layer id="305" name="Conv_211/Dims6764" type="Const" version="opset1">
			<data element_type="f16" offset="178432" shape="1, 64, 1, 1" size="128"/>
			<output>
				<port id="0" precision="FP16">
					<dim>1</dim>
					<dim>64</dim>
					<dim>1</dim>
					<dim>1</dim>
				</port>
			</output>
		</layer>
		<layer id="306" name="Conv_211" type="Add" version="opset1">
			<data auto_broadcast="numpy"/>
			<input>
				<port id="0" precision="FP16">
					<dim>1</dim>
					<dim>64</dim>
					<dim>24</dim>
					<dim>40</dim>
				</port>
				<port id="1" precision="FP16">
					<dim>1</dim>
					<dim>64</dim>
					<dim>1</dim>
					<dim>1</dim>
				</port>
			</input>
			<output>
				<port id="2" names="1712" precision="FP16">
					<dim>1</dim>
					<dim>64</dim>
					<dim>24</dim>
					<dim>40</dim>
				</port>
			</output>
		</layer>
		<layer id="307" name="Mul_213" type="Swish" version="opset4">
			<input>
				<port id="0" precision="FP16">
					<dim>1</dim>
					<dim>64</dim>
					<dim>24</dim>
					<dim>40</dim>
				</port>
			</input>
			<output>
				<port id="1" names="1131" precision="FP16">
					<dim>1</dim>
					<dim>64</dim>
					<dim>24</dim>
					<dim>40</dim>
				</port>
			</output>
		</layer>
		<layer id="308" name="1716" type="Const" version="opset1">
			<data element_type="f16" offset="178560" shape="64, 64, 1, 1" size="8192"/>
			<output>
				<port id="0" names="1716" precision="FP16">
					<dim>64</dim>
					<dim>64</dim>
					<dim>1</dim>
					<dim>1</dim>
				</port>
			</output>
		</layer>
		<layer id="309" name="Conv_214/WithoutBiases" type="Convolution" version="opset1">
			<data auto_pad="explicit" dilations="1, 1" pads_begin="0, 0" pads_end="0, 0" strides="1, 1"/>
			<input>
				<port id="0" precision="FP16">
					<dim>1</dim>
					<dim>64</dim>
					<dim>24</dim>
					<dim>40</dim>
				</port>
				<port id="1" precision="FP16">
					<dim>64</dim>
					<dim>64</dim>
					<dim>1</dim>
					<dim>1</dim>
				</port>
			</input>
			<output>
				<port id="2" precision="FP16">
					<dim>1</dim>
					<dim>64</dim>
					<dim>24</dim>
					<dim>40</dim>
				</port>
			</output>
		</layer>
		<layer id="310" name="Conv_214/Dims6812" type="Const" version="opset1">
			<data element_type="f16" offset="186752" shape="1, 64, 1, 1" size="128"/>
			<output>
				<port id="0" precision="FP16">
					<dim>1</dim>
					<dim>64</dim>
					<dim>1</dim>
					<dim>1</dim>
				</port>
			</output>
		</layer>
		<layer id="311" name="Conv_214" type="Add" version="opset1">
			<data auto_broadcast="numpy"/>
			<input>
				<port id="0" precision="FP16">
					<dim>1</dim>
					<dim>64</dim>
					<dim>24</dim>
					<dim>40</dim>
				</port>
				<port id="1" precision="FP16">
					<dim>1</dim>
					<dim>64</dim>
					<dim>1</dim>
					<dim>1</dim>
				</port>
			</input>
			<output>
				<port id="2" names="1715" precision="FP16">
					<dim>1</dim>
					<dim>64</dim>
					<dim>24</dim>
					<dim>40</dim>
				</port>
			</output>
		</layer>
		<layer id="312" name="Mul_216" type="Swish" version="opset4">
			<input>
				<port id="0" precision="FP16">
					<dim>1</dim>
					<dim>64</dim>
					<dim>24</dim>
					<dim>40</dim>
				</port>
			</input>
			<output>
				<port id="1" names="1135" precision="FP16">
					<dim>1</dim>
					<dim>64</dim>
					<dim>24</dim>
					<dim>40</dim>
				</port>
			</output>
		</layer>
		<layer id="313" name="Add_217" type="Add" version="opset1">
			<data auto_broadcast="numpy"/>
			<input>
				<port id="0" precision="FP16">
					<dim>1</dim>
					<dim>64</dim>
					<dim>24</dim>
					<dim>40</dim>
				</port>
				<port id="1" precision="FP16">
					<dim>1</dim>
					<dim>64</dim>
					<dim>24</dim>
					<dim>40</dim>
				</port>
			</input>
			<output>
				<port id="2" names="1136" precision="FP16">
					<dim>1</dim>
					<dim>64</dim>
					<dim>24</dim>
					<dim>40</dim>
				</port>
			</output>
		</layer>
		<layer id="314" name="1719" type="Const" version="opset1">
			<data element_type="f16" offset="186880" shape="64, 64, 1, 1" size="8192"/>
			<output>
				<port id="0" names="1719" precision="FP16">
					<dim>64</dim>
					<dim>64</dim>
					<dim>1</dim>
					<dim>1</dim>
				</port>
			</output>
		</layer>
		<layer id="315" name="Conv_218/WithoutBiases" type="Convolution" version="opset1">
			<data auto_pad="explicit" dilations="1, 1" pads_begin="0, 0" pads_end="0, 0" strides="1, 1"/>
			<input>
				<port id="0" precision="FP16">
					<dim>1</dim>
					<dim>64</dim>
					<dim>24</dim>
					<dim>40</dim>
				</port>
				<port id="1" precision="FP16">
					<dim>64</dim>
					<dim>64</dim>
					<dim>1</dim>
					<dim>1</dim>
				</port>
			</input>
			<output>
				<port id="2" precision="FP16">
					<dim>1</dim>
					<dim>64</dim>
					<dim>24</dim>
					<dim>40</dim>
				</port>
			</output>
		</layer>
		<layer id="316" name="Conv_218/Dims7376" type="Const" version="opset1">
			<data element_type="f16" offset="195072" shape="1, 64, 1, 1" size="128"/>
			<output>
				<port id="0" precision="FP16">
					<dim>1</dim>
					<dim>64</dim>
					<dim>1</dim>
					<dim>1</dim>
				</port>
			</output>
		</layer>
		<layer id="317" name="Conv_218" type="Add" version="opset1">
			<data auto_broadcast="numpy"/>
			<input>
				<port id="0" precision="FP16">
					<dim>1</dim>
					<dim>64</dim>
					<dim>24</dim>
					<dim>40</dim>
				</port>
				<port id="1" precision="FP16">
					<dim>1</dim>
					<dim>64</dim>
					<dim>1</dim>
					<dim>1</dim>
				</port>
			</input>
			<output>
				<port id="2" names="1718" precision="FP16">
					<dim>1</dim>
					<dim>64</dim>
					<dim>24</dim>
					<dim>40</dim>
				</port>
			</output>
		</layer>
		<layer id="318" name="Mul_220" type="Swish" version="opset4">
			<input>
				<port id="0" precision="FP16">
					<dim>1</dim>
					<dim>64</dim>
					<dim>24</dim>
					<dim>40</dim>
				</port>
			</input>
			<output>
				<port id="1" names="1140" precision="FP16">
					<dim>1</dim>
					<dim>64</dim>
					<dim>24</dim>
					<dim>40</dim>
				</port>
			</output>
		</layer>
		<layer id="319" name="1722" type="Const" version="opset1">
			<data element_type="f16" offset="195200" shape="64, 1, 1, 3, 3" size="1152"/>
			<output>
				<port id="0" names="1722" precision="FP16">
					<dim>64</dim>
					<dim>1</dim>
					<dim>1</dim>
					<dim>3</dim>
					<dim>3</dim>
				</port>
			</output>
		</layer>
		<layer id="320" name="Conv_221/WithoutBiases" type="GroupConvolution" version="opset1">
			<data auto_pad="explicit" dilations="1, 1" pads_begin="1, 1" pads_end="1, 1" strides="1, 1"/>
			<input>
				<port id="0" precision="FP16">
					<dim>1</dim>
					<dim>64</dim>
					<dim>24</dim>
					<dim>40</dim>
				</port>
				<port id="1" precision="FP16">
					<dim>64</dim>
					<dim>1</dim>
					<dim>1</dim>
					<dim>3</dim>
					<dim>3</dim>
				</port>
			</input>
			<output>
				<port id="2" precision="FP16">
					<dim>1</dim>
					<dim>64</dim>
					<dim>24</dim>
					<dim>40</dim>
				</port>
			</output>
		</layer>
		<layer id="321" name="Conv_221/Dims7322" type="Const" version="opset1">
			<data element_type="f16" offset="196352" shape="1, 64, 1, 1" size="128"/>
			<output>
				<port id="0" precision="FP16">
					<dim>1</dim>
					<dim>64</dim>
					<dim>1</dim>
					<dim>1</dim>
				</port>
			</output>
		</layer>
		<layer id="322" name="Conv_221" type="Add" version="opset1">
			<data auto_broadcast="numpy"/>
			<input>
				<port id="0" precision="FP16">
					<dim>1</dim>
					<dim>64</dim>
					<dim>24</dim>
					<dim>40</dim>
				</port>
				<port id="1" precision="FP16">
					<dim>1</dim>
					<dim>64</dim>
					<dim>1</dim>
					<dim>1</dim>
				</port>
			</input>
			<output>
				<port id="2" names="1721" precision="FP16">
					<dim>1</dim>
					<dim>64</dim>
					<dim>24</dim>
					<dim>40</dim>
				</port>
			</output>
		</layer>
		<layer id="323" name="Mul_223" type="Swish" version="opset4">
			<input>
				<port id="0" precision="FP16">
					<dim>1</dim>
					<dim>64</dim>
					<dim>24</dim>
					<dim>40</dim>
				</port>
			</input>
			<output>
				<port id="1" names="1144" precision="FP16">
					<dim>1</dim>
					<dim>64</dim>
					<dim>24</dim>
					<dim>40</dim>
				</port>
			</output>
		</layer>
		<layer id="324" name="1725" type="Const" version="opset1">
			<data element_type="f16" offset="196480" shape="64, 64, 1, 1" size="8192"/>
			<output>
				<port id="0" names="1725" precision="FP16">
					<dim>64</dim>
					<dim>64</dim>
					<dim>1</dim>
					<dim>1</dim>
				</port>
			</output>
		</layer>
		<layer id="325" name="Conv_224/WithoutBiases" type="Convolution" version="opset1">
			<data auto_pad="explicit" dilations="1, 1" pads_begin="0, 0" pads_end="0, 0" strides="1, 1"/>
			<input>
				<port id="0" precision="FP16">
					<dim>1</dim>
					<dim>64</dim>
					<dim>24</dim>
					<dim>40</dim>
				</port>
				<port id="1" precision="FP16">
					<dim>64</dim>
					<dim>64</dim>
					<dim>1</dim>
					<dim>1</dim>
				</port>
			</input>
			<output>
				<port id="2" precision="FP16">
					<dim>1</dim>
					<dim>64</dim>
					<dim>24</dim>
					<dim>40</dim>
				</port>
			</output>
		</layer>
		<layer id="326" name="Conv_224/Dims7238" type="Const" version="opset1">
			<data element_type="f16" offset="204672" shape="1, 64, 1, 1" size="128"/>
			<output>
				<port id="0" precision="FP16">
					<dim>1</dim>
					<dim>64</dim>
					<dim>1</dim>
					<dim>1</dim>
				</port>
			</output>
		</layer>
		<layer id="327" name="Conv_224" type="Add" version="opset1">
			<data auto_broadcast="numpy"/>
			<input>
				<port id="0" precision="FP16">
					<dim>1</dim>
					<dim>64</dim>
					<dim>24</dim>
					<dim>40</dim>
				</port>
				<port id="1" precision="FP16">
					<dim>1</dim>
					<dim>64</dim>
					<dim>1</dim>
					<dim>1</dim>
				</port>
			</input>
			<output>
				<port id="2" names="1724" precision="FP16">
					<dim>1</dim>
					<dim>64</dim>
					<dim>24</dim>
					<dim>40</dim>
				</port>
			</output>
		</layer>
		<layer id="328" name="Mul_226" type="Swish" version="opset4">
			<input>
				<port id="0" precision="FP16">
					<dim>1</dim>
					<dim>64</dim>
					<dim>24</dim>
					<dim>40</dim>
				</port>
			</input>
			<output>
				<port id="1" names="1148" precision="FP16">
					<dim>1</dim>
					<dim>64</dim>
					<dim>24</dim>
					<dim>40</dim>
				</port>
			</output>
		</layer>
		<layer id="329" name="Add_227" type="Add" version="opset1">
			<data auto_broadcast="numpy"/>
			<input>
				<port id="0" precision="FP16">
					<dim>1</dim>
					<dim>64</dim>
					<dim>24</dim>
					<dim>40</dim>
				</port>
				<port id="1" precision="FP16">
					<dim>1</dim>
					<dim>64</dim>
					<dim>24</dim>
					<dim>40</dim>
				</port>
			</input>
			<output>
				<port id="2" names="1149" precision="FP16">
					<dim>1</dim>
					<dim>64</dim>
					<dim>24</dim>
					<dim>40</dim>
				</port>
			</output>
		</layer>
		<layer id="330" name="1671" type="Const" version="opset1">
			<data element_type="f16" offset="204800" shape="64, 128, 1, 1" size="16384"/>
			<output>
				<port id="0" names="1671" precision="FP16">
					<dim>64</dim>
					<dim>128</dim>
					<dim>1</dim>
					<dim>1</dim>
				</port>
			</output>
		</layer>
		<layer id="331" name="Conv_165/WithoutBiases" type="Convolution" version="opset1">
			<data auto_pad="explicit" dilations="1, 1" pads_begin="0, 0" pads_end="0, 0" strides="1, 1"/>
			<input>
				<port id="0" precision="FP16">
					<dim>1</dim>
					<dim>128</dim>
					<dim>24</dim>
					<dim>40</dim>
				</port>
				<port id="1" precision="FP16">
					<dim>64</dim>
					<dim>128</dim>
					<dim>1</dim>
					<dim>1</dim>
				</port>
			</input>
			<output>
				<port id="2" precision="FP16">
					<dim>1</dim>
					<dim>64</dim>
					<dim>24</dim>
					<dim>40</dim>
				</port>
			</output>
		</layer>
		<layer id="332" name="Conv_165/Dims7172" type="Const" version="opset1">
			<data element_type="f16" offset="221184" shape="1, 64, 1, 1" size="128"/>
			<output>
				<port id="0" precision="FP16">
					<dim>1</dim>
					<dim>64</dim>
					<dim>1</dim>
					<dim>1</dim>
				</port>
			</output>
		</layer>
		<layer id="333" name="Conv_165" type="Add" version="opset1">
			<data auto_broadcast="numpy"/>
			<input>
				<port id="0" precision="FP16">
					<dim>1</dim>
					<dim>64</dim>
					<dim>24</dim>
					<dim>40</dim>
				</port>
				<port id="1" precision="FP16">
					<dim>1</dim>
					<dim>64</dim>
					<dim>1</dim>
					<dim>1</dim>
				</port>
			</input>
			<output>
				<port id="2" names="1670" precision="FP16">
					<dim>1</dim>
					<dim>64</dim>
					<dim>24</dim>
					<dim>40</dim>
				</port>
			</output>
		</layer>
		<layer id="334" name="Mul_167" type="Swish" version="opset4">
			<input>
				<port id="0" precision="FP16">
					<dim>1</dim>
					<dim>64</dim>
					<dim>24</dim>
					<dim>40</dim>
				</port>
			</input>
			<output>
				<port id="1" names="1071" precision="FP16">
					<dim>1</dim>
					<dim>64</dim>
					<dim>24</dim>
					<dim>40</dim>
				</port>
			</output>
		</layer>
		<layer id="335" name="Concat_228" type="Concat" version="opset1">
			<data axis="1"/>
			<input>
				<port id="0" precision="FP16">
					<dim>1</dim>
					<dim>64</dim>
					<dim>24</dim>
					<dim>40</dim>
				</port>
				<port id="1" precision="FP16">
					<dim>1</dim>
					<dim>64</dim>
					<dim>24</dim>
					<dim>40</dim>
				</port>
			</input>
			<output>
				<port id="2" names="1150" precision="FP16">
					<dim>1</dim>
					<dim>128</dim>
					<dim>24</dim>
					<dim>40</dim>
				</port>
			</output>
		</layer>
		<layer id="336" name="1728" type="Const" version="opset1">
			<data element_type="f16" offset="221312" shape="128, 128, 1, 1" size="32768"/>
			<output>
				<port id="0" names="1728" precision="FP16">
					<dim>128</dim>
					<dim>128</dim>
					<dim>1</dim>
					<dim>1</dim>
				</port>
			</output>
		</layer>
		<layer id="337" name="Conv_229/WithoutBiases" type="Convolution" version="opset1">
			<data auto_pad="explicit" dilations="1, 1" pads_begin="0, 0" pads_end="0, 0" strides="1, 1"/>
			<input>
				<port id="0" precision="FP16">
					<dim>1</dim>
					<dim>128</dim>
					<dim>24</dim>
					<dim>40</dim>
				</port>
				<port id="1" precision="FP16">
					<dim>128</dim>
					<dim>128</dim>
					<dim>1</dim>
					<dim>1</dim>
				</port>
			</input>
			<output>
				<port id="2" precision="FP16">
					<dim>1</dim>
					<dim>128</dim>
					<dim>24</dim>
					<dim>40</dim>
				</port>
			</output>
		</layer>
		<layer id="338" name="Conv_229/Dims7196" type="Const" version="opset1">
			<data element_type="f16" offset="254080" shape="1, 128, 1, 1" size="256"/>
			<output>
				<port id="0" precision="FP16">
					<dim>1</dim>
					<dim>128</dim>
					<dim>1</dim>
					<dim>1</dim>
				</port>
			</output>
		</layer>
		<layer id="339" name="Conv_229" type="Add" version="opset1">
			<data auto_broadcast="numpy"/>
			<input>
				<port id="0" precision="FP16">
					<dim>1</dim>
					<dim>128</dim>
					<dim>24</dim>
					<dim>40</dim>
				</port>
				<port id="1" precision="FP16">
					<dim>1</dim>
					<dim>128</dim>
					<dim>1</dim>
					<dim>1</dim>
				</port>
			</input>
			<output>
				<port id="2" names="1727" precision="FP16">
					<dim>1</dim>
					<dim>128</dim>
					<dim>24</dim>
					<dim>40</dim>
				</port>
			</output>
		</layer>
		<layer id="340" name="Mul_231" type="Swish" version="opset4">
			<input>
				<port id="0" precision="FP16">
					<dim>1</dim>
					<dim>128</dim>
					<dim>24</dim>
					<dim>40</dim>
				</port>
			</input>
			<output>
				<port id="1" names="1154" precision="FP16">
					<dim>1</dim>
					<dim>128</dim>
					<dim>24</dim>
					<dim>40</dim>
				</port>
			</output>
		</layer>
		<layer id="341" name="1731" type="Const" version="opset1">
			<data element_type="f16" offset="254336" shape="128, 1, 1, 3, 3" size="2304"/>
			<output>
				<port id="0" names="1731" precision="FP16">
					<dim>128</dim>
					<dim>1</dim>
					<dim>1</dim>
					<dim>3</dim>
					<dim>3</dim>
				</port>
			</output>
		</layer>
		<layer id="342" name="Conv_232/WithoutBiases" type="GroupConvolution" version="opset1">
			<data auto_pad="explicit" dilations="1, 1" pads_begin="1, 1" pads_end="1, 1" strides="2, 2"/>
			<input>
				<port id="0" precision="FP16">
					<dim>1</dim>
					<dim>128</dim>
					<dim>24</dim>
					<dim>40</dim>
				</port>
				<port id="1" precision="FP16">
					<dim>128</dim>
					<dim>1</dim>
					<dim>1</dim>
					<dim>3</dim>
					<dim>3</dim>
				</port>
			</input>
			<output>
				<port id="2" precision="FP16">
					<dim>1</dim>
					<dim>128</dim>
					<dim>12</dim>
					<dim>20</dim>
				</port>
			</output>
		</layer>
		<layer id="343" name="Conv_232/Dims6878" type="Const" version="opset1">
			<data element_type="f16" offset="256640" shape="1, 128, 1, 1" size="256"/>
			<output>
				<port id="0" precision="FP16">
					<dim>1</dim>
					<dim>128</dim>
					<dim>1</dim>
					<dim>1</dim>
				</port>
			</output>
		</layer>
		<layer id="344" name="Conv_232" type="Add" version="opset1">
			<data auto_broadcast="numpy"/>
			<input>
				<port id="0" precision="FP16">
					<dim>1</dim>
					<dim>128</dim>
					<dim>12</dim>
					<dim>20</dim>
				</port>
				<port id="1" precision="FP16">
					<dim>1</dim>
					<dim>128</dim>
					<dim>1</dim>
					<dim>1</dim>
				</port>
			</input>
			<output>
				<port id="2" names="1730" precision="FP16">
					<dim>1</dim>
					<dim>128</dim>
					<dim>12</dim>
					<dim>20</dim>
				</port>
			</output>
		</layer>
		<layer id="345" name="Mul_234" type="Swish" version="opset4">
			<input>
				<port id="0" precision="FP16">
					<dim>1</dim>
					<dim>128</dim>
					<dim>12</dim>
					<dim>20</dim>
				</port>
			</input>
			<output>
				<port id="1" names="1158" precision="FP16">
					<dim>1</dim>
					<dim>128</dim>
					<dim>12</dim>
					<dim>20</dim>
				</port>
			</output>
		</layer>
		<layer id="346" name="1734" type="Const" version="opset1">
			<data element_type="f16" offset="256896" shape="256, 128, 1, 1" size="65536"/>
			<output>
				<port id="0" names="1734" precision="FP16">
					<dim>256</dim>
					<dim>128</dim>
					<dim>1</dim>
					<dim>1</dim>
				</port>
			</output>
		</layer>
		<layer id="347" name="Conv_235/WithoutBiases" type="Convolution" version="opset1">
			<data auto_pad="explicit" dilations="1, 1" pads_begin="0, 0" pads_end="0, 0" strides="1, 1"/>
			<input>
				<port id="0" precision="FP16">
					<dim>1</dim>
					<dim>128</dim>
					<dim>12</dim>
					<dim>20</dim>
				</port>
				<port id="1" precision="FP16">
					<dim>256</dim>
					<dim>128</dim>
					<dim>1</dim>
					<dim>1</dim>
				</port>
			</input>
			<output>
				<port id="2" precision="FP16">
					<dim>1</dim>
					<dim>256</dim>
					<dim>12</dim>
					<dim>20</dim>
				</port>
			</output>
		</layer>
		<layer id="348" name="Conv_235/Dims7310" type="Const" version="opset1">
			<data element_type="f16" offset="322432" shape="1, 256, 1, 1" size="512"/>
			<output>
				<port id="0" precision="FP16">
					<dim>1</dim>
					<dim>256</dim>
					<dim>1</dim>
					<dim>1</dim>
				</port>
			</output>
		</layer>
		<layer id="349" name="Conv_235" type="Add" version="opset1">
			<data auto_broadcast="numpy"/>
			<input>
				<port id="0" precision="FP16">
					<dim>1</dim>
					<dim>256</dim>
					<dim>12</dim>
					<dim>20</dim>
				</port>
				<port id="1" precision="FP16">
					<dim>1</dim>
					<dim>256</dim>
					<dim>1</dim>
					<dim>1</dim>
				</port>
			</input>
			<output>
…
		<edge from-layer="178" from-port="0" to-layer="179" to-port="1"/>
		<edge from-layer="179" from-port="2" to-layer="180" to-port="0"/>
		<edge from-layer="180" from-port="1" to-layer="182" to-port="0"/>
		<edge from-layer="181" from-port="0" to-layer="182" to-port="1"/>
		<edge from-layer="182" from-port="2" to-layer="184" to-port="0"/>
		<edge from-layer="183" from-port="0" to-layer="184" to-port="1"/>
		<edge from-layer="184" from-port="2" to-layer="185" to-port="0"/>
		<edge from-layer="185" from-port="1" to-layer="187" to-port="0"/>
		<edge from-layer="186" from-port="0" to-layer="187" to-port="1"/>
		<edge from-layer="187" from-port="2" to-layer="189" to-port="0"/>
		<edge from-layer="188" from-port="0" to-layer="189" to-port="1"/>
		<edge from-layer="189" from-port="2" to-layer="190" to-port="0"/>
		<edge from-layer="190" from-port="1" to-layer="191" to-port="0"/>
		<edge from-layer="191" from-port="2" to-layer="193" to-port="0"/>
		<edge from-layer="191" from-port="2" to-layer="207" to-port="1"/>
		<edge from-layer="192" from-port="0" to-layer="193" to-port="1"/>
		<edge from-layer="193" from-port="2" to-layer="195" to-port="0"/>
		<edge from-layer="194" from-port="0" to-layer="195" to-port="1"/>
		<edge from-layer="195" from-port="2" to-layer="196" to-port="0"/>
		<edge from-layer="196" from-port="1" to-layer="198" to-port="0"/>
		<edge from-layer="197" from-port="0" to-layer="198" to-port="1"/>
		<edge from-layer="198" from-port="2" to-layer="200" to-port="0"/>
		<edge from-layer="199" from-port="0" to-layer="200" to-port="1"/>
		<edge from-layer="200" from-port="2" to-layer="201" to-port="0"/>
		<edge from-layer="201" from-port="1" to-layer="203" to-port="0"/>
		<edge from-layer="202" from-port="0" to-layer="203" to-port="1"/>
		<edge from-layer="203" from-port="2" to-layer="205" to-port="0"/>
		<edge from-layer="204" from-port="0" to-layer="205" to-port="1"/>
		<edge from-layer="205" from-port="2" to-layer="206" to-port="0"/>
		<edge from-layer="206" from-port="1" to-layer="207" to-port="0"/>
		<edge from-layer="207" from-port="2" to-layer="213" to-port="0"/>
		<edge from-layer="208" from-port="0" to-layer="209" to-port="1"/>
		<edge from-layer="209" from-port="2" to-layer="211" to-port="0"/>
		<edge from-layer="210" from-port="0" to-layer="211" to-port="1"/>
		<edge from-layer="211" from-port="2" to-layer="212" to-port="0"/>
		<edge from-layer="212" from-port="1" to-layer="213" to-port="1"/>
		<edge from-layer="213" from-port="2" to-layer="215" to-port="0"/>
		<edge from-layer="214" from-port="0" to-layer="215" to-port="1"/>
		<edge from-layer="215" from-port="2" to-layer="217" to-port="0"/>
		<edge from-layer="216" from-port="0" to-layer="217" to-port="1"/>
		<edge from-layer="217" from-port="2" to-layer="218" to-port="0"/>
		<edge from-layer="218" from-port="1" to-layer="220" to-port="0"/>
		<edge from-layer="218" from-port="1" to-layer="498" to-port="1"/>
		<edge from-layer="219" from-port="0" to-layer="220" to-port="1"/>
		<edge from-layer="220" from-port="2" to-layer="222" to-port="0"/>
		<edge from-layer="221" from-port="0" to-layer="222" to-port="1"/>
		<edge from-layer="222" from-port="2" to-layer="223" to-port="0"/>
		<edge from-layer="223" from-port="1" to-layer="225" to-port="0"/>
		<edge from-layer="224" from-port="0" to-layer="225" to-port="1"/>
		<edge from-layer="225" from-port="2" to-layer="227" to-port="0"/>
		<edge from-layer="226" from-port="0" to-layer="227" to-port="1"/>
		<edge from-layer="227" from-port="2" to-layer="228" to-port="0"/>
		<edge from-layer="228" from-port="1" to-layer="230" to-port="0"/>
		<edge from-layer="228" from-port="1" to-layer="331" to-port="0"/>
		<edge from-layer="229" from-port="0" to-layer="230" to-port="1"/>
		<edge from-layer="230" from-port="2" to-layer="232" to-port="0"/>
		<edge from-layer="231" from-port="0" to-layer="232" to-port="1"/>
		<edge from-layer="232" from-port="2" to-layer="233" to-port="0"/>
		<edge from-layer="233" from-port="1" to-layer="235" to-port="0"/>
		<edge from-layer="233" from-port="1" to-layer="249" to-port="1"/>
		<edge from-layer="234" from-port="0" to-layer="235" to-port="1"/>
		<edge from-layer="235" from-port="2" to-layer="237" to-port="0"/>
		<edge from-layer="236" from-port="0" to-layer="237" to-port="1"/>
		<edge from-layer="237" from-port="2" to-layer="238" to-port="0"/>
		<edge from-layer="238" from-port="1" to-layer="240" to-port="0"/>
		<edge from-layer="239" from-port="0" to-layer="240" to-port="1"/>
		<edge from-layer="240" from-port="2" to-layer="242" to-port="0"/>
		<edge from-layer="241" from-port="0" to-layer="242" to-port="1"/>
		<edge from-layer="242" from-port="2" to-layer="243" to-port="0"/>
		<edge from-layer="243" from-port="1" to-layer="245" to-port="0"/>
		<edge from-layer="244" from-port="0" to-layer="245" to-port="1"/>
		<edge from-layer="245" from-port="2" to-layer="247" to-port="0"/>
		<edge from-layer="246" from-port="0" to-layer="247" to-port="1"/>
		<edge from-layer="247" from-port="2" to-layer="248" to-port="0"/>
		<edge from-layer="248" from-port="1" to-layer="249" to-port="0"/>
		<edge from-layer="249" from-port="2" to-layer="251" to-port="0"/>
		<edge from-layer="249" from-port="2" to-layer="265" to-port="1"/>
		<edge from-layer="250" from-port="0" to-layer="251" to-port="1"/>
		<edge from-layer="251" from-port="2" to-layer="253" to-port="0"/>
		<edge from-layer="252" from-port="0" to-layer="253" to-port="1"/>
		<edge from-layer="253" from-port="2" to-layer="254" to-port="0"/>
		<edge from-layer="254" from-port="1" to-layer="256" to-port="0"/>
		<edge from-layer="255" from-port="0" to-layer="256" to-port="1"/>
		<edge from-layer="256" from-port="2" to-layer="258" to-port="0"/>
		<edge from-layer="257" from-port="0" to-layer="258" to-port="1"/>
		<edge from-layer="258" from-port="2" to-layer="259" to-port="0"/>
		<edge from-layer="259" from-port="1" to-layer="261" to-port="0"/>
		<edge from-layer="260" from-port="0" to-layer="261" to-port="1"/>
		<edge from-layer="261" from-port="2" to-layer="263" to-port="0"/>
		<edge from-layer="262" from-port="0" to-layer="263" to-port="1"/>
		<edge from-layer="263" from-port="2" to-layer="264" to-port="0"/>
		<edge from-layer="264" from-port="1" to-layer="265" to-port="0"/>
		<edge from-layer="265" from-port="2" to-layer="267" to-port="0"/>
		<edge from-layer="265" from-port="2" to-layer="281" to-port="1"/>
		<edge from-layer="266" from-port="0" to-layer="267" to-port="1"/>
		<edge from-layer="267" from-port="2" to-layer="269" to-port="0"/>
		<edge from-layer="268" from-port="0" to-layer="269" to-port="1"/>
		<edge from-layer="269" from-port="2" to-layer="270" to-port="0"/>
		<edge from-layer="270" from-port="1" to-layer="272" to-port="0"/>
		<edge from-layer="271" from-port="0" to-layer="272" to-port="1"/>
		<edge from-layer="272" from-port="2" to-layer="274" to-port="0"/>
		<edge from-layer="273" from-port="0" to-layer="274" to-port="1"/>
		<edge from-layer="274" from-port="2" to-layer="275" to-port="0"/>
		<edge from-layer="275" from-port="1" to-layer="277" to-port="0"/>
		<edge from-layer="276" from-port="0" to-layer="277" to-port="1"/>
		<edge from-layer="277" from-port="2" to-layer="279" to-port="0"/>
		<edge from-layer="278" from-port="0" to-layer="279" to-port="1"/>
		<edge from-layer="279" from-port="2" to-layer="280" to-port="0"/>
		<edge from-layer="280" from-port="1" to-layer="281" to-port="0"/>
		<edge from-layer="281" from-port="2" to-layer="297" to-port="1"/>
		<edge from-layer="281" from-port="2" to-layer="283" to-port="0"/>
		<edge from-layer="282" from-port="0" to-layer="283" to-port="1"/>
		<edge from-layer="283" from-port="2" to-layer="285" to-port="0"/>
		<edge from-layer="284" from-port="0" to-layer="285" to-port="1"/>
		<edge from-layer="285" from-port="2" to-layer="286" to-port="0"/>
		<edge from-layer="286" from-port="1" to-layer="288" to-port="0"/>
		<edge from-layer="287" from-port="0" to-layer="288" to-port="1"/>
		<edge from-layer="288" from-port="2" to-layer="290" to-port="0"/>
		<edge from-layer="289" from-port="0" to-layer="290" to-port="1"/>
		<edge from-layer="290" from-port="2" to-layer="291" to-port="0"/>
		<edge from-layer="291" from-port="1" to-layer="293" to-port="0"/>
		<edge from-layer="292" from-port="0" to-layer="293" to-port="1"/>
		<edge from-layer="293" from-port="2" to-layer="295" to-port="0"/>
		<edge from-layer="294" from-port="0" to-layer="295" to-port="1"/>
		<edge from-layer="295" from-port="2" to-layer="296" to-port="0"/>
		<edge from-layer="296" from-port="1" to-layer="297" to-port="0"/>
		<edge from-layer="297" from-port="2" to-layer="313" to-port="1"/>
		<edge from-layer="297" from-port="2" to-layer="299" to-port="0"/>
		<edge from-layer="298" from-port="0" to-layer="299" to-port="1"/>
		<edge from-layer="299" from-port="2" to-layer="301" to-port="0"/>
		<edge from-layer="300" from-port="0" to-layer="301" to-port="1"/>
		<edge from-layer="301" from-port="2" to-layer="302" to-port="0"/>
		<edge from-layer="302" from-port="1" to-layer="304" to-port="0"/>
		<edge from-layer="303" from-port="0" to-layer="304" to-port="1"/>
		<edge from-layer="304" from-port="2" to-layer="306" to-port="0"/>
		<edge from-layer="305" from-port="0" to-layer="306" to-port="1"/>
		<edge from-layer="306" from-port="2" to-layer="307" to-port="0"/>
		<edge from-layer="307" from-port="1" to-layer="309" to-port="0"/>
		<edge from-layer="308" from-port="0" to-layer="309" to-port="1"/>
		<edge from-layer="309" from-port="2" to-layer="311" to-port="0"/>
		<edge from-layer="310" from-port="0" to-layer="311" to-port="1"/>
		<edge from-layer="311" from-port="2" to-layer="312" to-port="0"/>
		<edge from-layer="312" from-port="1" to-layer="313" to-port="0"/>
		<edge from-layer="313" from-port="2" to-layer="315" to-port="0"/>
		<edge from-layer="313" from-port="2" to-layer="329" to-port="1"/>
		<edge from-layer="314" from-port="0" to-layer="315" to-port="1"/>
		<edge from-layer="315" from-port="2" to-layer="317" to-port="0"/>
		<edge from-layer="316" from-port="0" to-layer="317" to-port="1"/>
		<edge from-layer="317" from-port="2" to-layer="318" to-port="0"/>
		<edge from-layer="318" from-port="1" to-layer="320" to-port="0"/>
		<edge from-layer="319" from-port="0" to-layer="320" to-port="1"/>
		<edge from-layer="320" from-port="2" to-layer="322" to-port="0"/>
		<edge from-layer="321" from-port="0" to-layer="322" to-port="1"/>
		<edge from-layer="322" from-port="2" to-layer="323" to-port="0"/>
		<edge from-layer="323" from-port="1" to-layer="325" to-port="0"/>
		<edge from-layer="324" from-port="0" to-layer="325" to-port="1"/>
		<edge from-layer="325" from-port="2" to-layer="327" to-port="0"/>
		<edge from-layer="326" from-port="0" to-layer="327" to-port="1"/>
		<edge from-layer="327" from-port="2" to-layer="328" to-port="0"/>
		<edge from-layer="328" from-port="1" to-layer="329" to-port="0"/>
		<edge from-layer="329" from-port="2" to-layer="335" to-port="0"/>
		<edge from-layer="330" from-port="0" to-layer="331" to-port="1"/>
		<edge from-layer="331" from-port="2" to-layer="333" to-port="0"/>
		<edge from-layer="332" from-port="0" to-layer="333" to-port="1"/>
		<edge from-layer="333" from-port="2" to-layer="334" to-port="0"/>
		<edge from-layer="334" from-port="1" to-layer="335" to-port="1"/>
		<edge from-layer="335" from-port="2" to-layer="337" to-port="0"/>
		<edge from-layer="336" from-port="0" to-layer="337" to-port="1"/>
		<edge from-layer="337" from-port="2" to-layer="339" to-port="0"/>
		<edge from-layer="338" from-port="0" to-layer="339" to-port="1"/>
		<edge from-layer="339" from-port="2" to-layer="340" to-port="0"/>
		<edge from-layer="340" from-port="1" to-layer="431" to-port="1"/>
		<edge from-layer="340" from-port="1" to-layer="342" to-port="0"/>
		<edge from-layer="341" from-port="0" to-layer="342" to-port="1"/>
		<edge from-layer="342" from-port="2" to-layer="344" to-port="0"/>
		<edge from-layer="343" from-port="0" to-layer="344" to-port="1"/>
		<edge from-layer="344" from-port="2" to-layer="345" to-port="0"/>
		<edge from-layer="345" from-port="1" to-layer="347" to-port="0"/>
		<edge from-layer="346" from-port="0" to-layer="347" to-port="1"/>
		<edge from-layer="347" from-port="2" to-layer="349" to-port="0"/>
		<edge from-layer="348" from-port="0" to-layer="349" to-port="1"/>
		<edge from-layer="349" from-port="2" to-layer="350" to-port="0"/>
		<edge from-layer="350" from-port="1" to-layer="352" to-port="0"/>
		<edge from-layer="351" from-port="0" to-layer="352" to-port="1"/>
		<edge from-layer="352" from-port="2" to-layer="354" to-port="0"/>
		<edge from-layer="353" from-port="0" to-layer="354" to-port="1"/>
		<edge from-layer="354" from-port="2" to-layer="355" to-port="0"/>
		<edge from-layer="355" from-port="1" to-layer="356" to-port="0"/>
		<edge from-layer="355" from-port="1" to-layer="357" to-port="0"/>
		<edge from-layer="355" from-port="1" to-layer="358" to-port="0"/>
		<edge from-layer="355" from-port="1" to-layer="359" to-port="0"/>
		<edge from-layer="356" from-port="1" to-layer="359" to-port="1"/>
		<edge from-layer="357" from-port="1" to-layer="359" to-port="2"/>
		<edge from-layer="358" from-port="1" to-layer="359" to-port="3"/>
		<edge from-layer="359" from-port="4" to-layer="361" to-port="0"/>
		<edge from-layer="360" from-port="0" to-layer="361" to-port="1"/>
		<edge from-layer="361" from-port="2" to-layer="363" to-port="0"/>
		<edge from-layer="362" from-port="0" to-layer="363" to-port="1"/>
		<edge from-layer="363" from-port="2" to-layer="364" to-port="0"/>
		<edge from-layer="364" from-port="1" to-layer="366" to-port="0"/>
		<edge from-layer="364" from-port="1" to-layer="401" to-port="0"/>
		<edge from-layer="365" from-port="0" to-layer="366" to-port="1"/>
		<edge from-layer="366" from-port="2" to-layer="368" to-port="0"/>
		<edge from-layer="367" from-port="0" to-layer="368" to-port="1"/>
		<edge from-layer="368" from-port="2" to-layer="369" to-port="0"/>
		<edge from-layer="369" from-port="1" to-layer="371" to-port="0"/>
		<edge from-layer="370" from-port="0" to-layer="371" to-port="1"/>
		<edge from-layer="371" from-port="2" to-layer="373" to-port="0"/>
		<edge from-layer="372" from-port="0" to-layer="373" to-port="1"/>
		<edge from-layer="373" from-port="2" to-layer="374" to-port="0"/>
		<edge from-layer="374" from-port="1" to-layer="376" to-port="0"/>
		<edge from-layer="375" from-port="0" to-layer="376" to-port="1"/>
		<edge from-layer="376" from-port="2" to-layer="378" to-port="0"/>
		<edge from-layer="377" from-port="0" to-layer="378" to-port="1"/>
		<edge from-layer="378" from-port="2" to-layer="379" to-port="0"/>
		<edge from-layer="379" from-port="1" to-layer="381" to-port="0"/>
		<edge from-layer="380" from-port="0" to-layer="381" to-port="1"/>
		<edge from-layer="381" from-port="2" to-layer="383" to-port="0"/>
		<edge from-layer="382" from-port="0" to-layer="383" to-port="1"/>
		<edge from-layer="383" from-port="2" to-layer="384" to-port="0"/>
		<edge from-layer="384" from-port="1" to-layer="386" to-port="0"/>
		<edge from-layer="385" from-port="0" to-layer="386" to-port="1"/>
		<edge from-layer="386" from-port="2" to-layer="388" to-port="0"/>
		<edge from-layer="387" from-port="0" to-layer="388" to-port="1"/>
		<edge from-layer="388" from-port="2" to-layer="389" to-port="0"/>
		<edge from-layer="389" from-port="1" to-layer="391" to-port="0"/>
		<edge from-layer="390" from-port="0" to-layer="391" to-port="1"/>
		<edge from-layer="391" from-port="2" to-layer="393" to-port="0"/>
		<edge from-layer="392" from-port="0" to-layer="393" to-port="1"/>
		<edge from-layer="393" from-port="2" to-layer="394" to-port="0"/>
		<edge from-layer="394" from-port="1" to-layer="396" to-port="0"/>
		<edge from-layer="395" from-port="0" to-layer="396" to-port="1"/>
		<edge from-layer="396" from-port="2" to-layer="398" to-port="0"/>
		<edge from-layer="397" from-port="0" to-layer="398" to-port="1"/>
		<edge from-layer="398" from-port="2" to-layer="399" to-port="0"/>
		<edge from-layer="399" from-port="1" to-layer="405" to-port="0"/>
		<edge from-layer="400" from-port="0" to-layer="401" to-port="1"/>
		<edge from-layer="401" from-port="2" to-layer="403" to-port="0"/>
		<edge from-layer="402" from-port="0" to-layer="403" to-port="1"/>
		<edge from-layer="403" from-port="2" to-layer="404" to-port="0"/>
		<edge from-layer="404" from-port="1" to-layer="405" to-port="1"/>
		<edge from-layer="405" from-port="2" to-layer="407" to-port="0"/>
		<edge from-layer="406" from-port="0" to-layer="407" to-port="1"/>
		<edge from-layer="407" from-port="2" to-layer="409" to-port="0"/>
		<edge from-layer="408" from-port="0" to-layer="409" to-port="1"/>
		<edge from-layer="409" from-port="2" to-layer="410" to-port="0"/>
		<edge from-layer="410" from-port="1" to-layer="412" to-port="0"/>
		<edge from-layer="411" from-port="0" to-layer="412" to-port="1"/>
		<edge from-layer="412" from-port="2" to-layer="414" to-port="0"/>
		<edge from-layer="413" from-port="0" to-layer="414" to-port="1"/>
		<edge from-layer="414" from-port="2" to-layer="415" to-port="0"/>
		<edge from-layer="415" from-port="1" to-layer="416" to-port="0"/>
		<edge from-layer="415" from-port="1" to-layer="430" to-port="0"/>
		<edge from-layer="415" from-port="1" to-layer="746" to-port="1"/>
		<edge from-layer="416" from-port="1" to-layer="417" to-port="0"/>
		<edge from-layer="417" from-port="1" to-layer="419" to-port="0"/>
		<edge from-layer="418" from-port="0" to-layer="419" to-port="1"/>
		<edge from-layer="419" from-port="2" to-layer="421" to-port="0"/>
		<edge from-layer="420" from-port="0" to-layer="421" to-port="1"/>
		<edge from-layer="421" from-port="2" to-layer="422" to-port="0"/>
		<edge from-layer="422" from-port="1" to-layer="423" to-port="0"/>
		<edge from-layer="423" from-port="1" to-layer="427" to-port="0"/>
		<edge from-layer="424" from-port="0" to-layer="427" to-port="1"/>
		<edge from-layer="425" from-port="0" to-layer="427" to-port="2"/>
		<edge from-layer="426" from-port="0" to-layer="427" to-port="3"/>
		<edge from-layer="427" from-port="4" to-layer="430" to-port="1"/>
		<edge from-layer="428" from-port="0" to-layer="430" to-port="2"/>
		<edge from-layer="429" from-port="0" to-layer="430" to-port="3"/>
		<edge from-layer="430" from-port="4" to-layer="431" to-port="0"/>
		<edge from-layer="431" from-port="2" to-layer="468" to-port="0"/>
		<edge from-layer="431" from-port="2" to-layer="433" to-port="0"/>
		<edge from-layer="432" from-port="0" to-layer="433" to-port="1"/>
		<edge from-layer="433" from-port="2" to-layer="435" to-port="0"/>
		<edge from-layer="434" from-port="0" to-layer="435" to-port="1"/>
		<edge from-layer="435" from-port="2" to-layer="436" to-port="0"/>
		<edge from-layer="436" from-port="1" to-layer="438" to-port="0"/>
		<edge from-layer="437" from-port="0" to-layer="438" to-port="1"/>
		<edge from-layer="438" from-port="2" to-layer="440" to-port="0"/>
		<edge from-layer="439" from-port="0" to-layer="440" to-port="1"/>
		<edge from-layer="440" from-port="2" to-layer="441" to-port="0"/>
		<edge from-layer="441" from-port="1" to-layer="443" to-port="0"/>
		<edge from-layer="442" from-port="0" to-layer="443" to-port="1"/>
		<edge from-layer="443" from-port="2" to-layer="445" to-port="0"/>
		<edge from-layer="444" from-port="0" to-layer="445" to-port="1"/>
		<edge from-layer="445" from-port="2" to-layer="446" to-port="0"/>
		<edge from-layer="446" from-port="1" to-layer="448" to-port="0"/>
		<edge from-layer="447" from-port="0" to-layer="448" to-port="1"/>
		<edge from-layer="448" from-port="2" to-layer="450" to-port="0"/>
		<edge from-layer="449" from-port="0" to-layer="450" to-port="1"/>
		<edge from-layer="450" from-port="2" to-layer="451" to-port="0"/>
		<edge from-layer="451" from-port="1" to-layer="453" to-port="0"/>
		<edge from-layer="452" from-port="0" to-layer="453" to-port="1"/>
		<edge from-layer="453" from-port="2" to-layer="455" to-port="0"/>
		<edge from-layer="454" from-port="0" to-layer="455" to-port="1"/>
		<edge from-layer="455" from-port="2" to-layer="456" to-port="0"/>
		<edge from-layer="456" from-port="1" to-layer="458" to-port="0"/>
		<edge from-layer="457" from-port="0" to-layer="458" to-port="1"/>
		<edge from-layer="458" from-port="2" to-layer="460" to-port="0"/>
		<edge from-layer="459" from-port="0" to-layer="460" to-port="1"/>
		<edge from-layer="460" from-port="2" to-layer="461" to-port="0"/>
		<edge from-layer="461" from-port="1" to-layer="463" to-port="0"/>
		<edge from-layer="462" from-port="0" to-layer="463" to-port="1"/>
		<edge from-layer="463" from-port="2" to-layer="465" to-port="0"/>
		<edge from-layer="464" from-port="0" to-layer="465" to-port="1"/>
		<edge from-layer="465" from-port="2" to-layer="466" to-port="0"/>
		<edge from-layer="466" from-port="1" to-layer="472" to-port="0"/>
		<edge from-layer="467" from-port="0" to-layer="468" to-port="1"/>
		<edge from-layer="468" from-port="2" to-layer="470" to-port="0"/>
		<edge from-layer="469" from-port="0" to-layer="470" to-port="1"/>
		<edge from-layer="470" from-port="2" to-layer="471" to-port="0"/>
		<edge from-layer="471" from-port="1" to-layer="472" to-port="1"/>
		<edge from-layer="472" from-port="2" to-layer="474" to-port="0"/>
		<edge from-layer="473" from-port="0" to-layer="474" to-port="1"/>
		<edge from-layer="474" from-port="2" to-layer="476" to-port="0"/>
		<edge from-layer="475" from-port="0" to-layer="476" to-port="1"/>
		<edge from-layer="476" from-port="2" to-layer="477" to-port="0"/>
		<edge from-layer="477" from-port="1" to-layer="479" to-port="0"/>
		<edge from-layer="478" from-port="0" to-layer="479" to-port="1"/>
		<edge from-layer="479" from-port="2" to-layer="481" to-port="0"/>
		<edge from-layer="480" from-port="0" to-layer="481" to-port="1"/>
		<edge from-layer="481" from-port="2" to-layer="482" to-port="0"/>
		<edge from-layer="482" from-port="1" to-layer="622" to-port="1"/>
		<edge from-layer="482" from-port="1" to-layer="497" to-port="0"/>
		<edge from-layer="482" from-port="1" to-layer="483" to-port="0"/>
		<edge from-layer="483" from-port="1" to-layer="484" to-port="0"/>
		<edge from-layer="484" from-port="1" to-layer="486" to-port="0"/>
		<edge from-layer="485" from-port="0" to-layer="486" to-port="1"/>
		<edge from-layer="486" from-port="2" to-layer="488" to-port="0"/>
		<edge from-layer="487" from-port="0" to-layer="488" to-port="1"/>
		<edge from-layer="488" from-port="2" to-layer="489" to-port="0"/>
		<edge from-layer="489" from-port="1" to-layer="490" to-port="0"/>
		<edge from-layer="490" from-port="1" to-layer="494" to-port="0"/>
		<edge from-layer="491" from-port="0" to-layer="494" to-port="1"/>
		<edge from-layer="492" from-port="0" to-layer="494" to-port="2"/>
		<edge from-layer="493" from-port="0" to-layer="494" to-port="3"/>
		<edge from-layer="494" from-port="4" to-layer="497" to-port="1"/>
		<edge from-layer="495" from-port="0" to-layer="497" to-port="2"/>
		<edge from-layer="496" from-port="0" to-layer="497" to-port="3"/>
		<edge from-layer="497" from-port="4" to-layer="498" to-port="0"/>
		<edge from-layer="498" from-port="2" to-layer="535" to-port="0"/>
		<edge from-layer="498" from-port="2" to-layer="500" to-port="0"/>
		<edge from-layer="499" from-port="0" to-layer="500" to-port="1"/>
		<edge from-layer="500" from-port="2" to-layer="502" to-port="0"/>
		<edge from-layer="501" from-port="0" to-layer="502" to-port="1"/>
		<edge from-layer="502" from-port="2" to-layer="503" to-port="0"/>
		<edge from-layer="503" from-port="1" to-layer="505" to-port="0"/>
		<edge from-layer="504" from-port="0" to-layer="505" to-port="1"/>
		<edge from-layer="505" from-port="2" to-layer="507" to-port="0"/>
		<edge from-layer="506" from-port="0" to-layer="507" to-port="1"/>
		<edge from-layer="507" from-port="2" to-layer="508" to-port="0"/>
		<edge from-layer="508" from-port="1" to-layer="510" to-port="0"/>
		<edge from-layer="509" from-port="0" to-layer="510" to-port="1"/>
		<edge from-layer="510" from-port="2" to-layer="512" to-port="0"/>
		<edge from-layer="511" from-port="0" to-layer="512" to-port="1"/>
		<edge from-layer="512" from-port="2" to-layer="513" to-port="0"/>
		<edge from-layer="513" from-port="1" to-layer="515" to-port="0"/>
		<edge from-layer="514" from-port="0" to-layer="515" to-port="1"/>
		<edge from-layer="515" from-port="2" to-layer="517" to-port="0"/>
		<edge from-layer="516" from-port="0" to-layer="517" to-port="1"/>
		<edge from-layer="517" from-port="2" to-layer="518" to-port="0"/>
		<edge from-layer="518" from-port="1" to-layer="520" to-port="0"/>
		<edge from-layer="519" from-port="0" to-layer="520" to-port="1"/>
		<edge from-layer="520" from-port="2" to-layer="522" to-port="0"/>
		<edge from-layer="521" from-port="0" to-layer="522" to-port="1"/>
		<edge from-layer="522" from-port="2" to-layer="523" to-port="0"/>
		<edge from-layer="523" from-port="1" to-layer="525" to-port="0"/>
		<edge from-layer="524" from-port="0" to-layer="525" to-port="1"/>
		<edge from-layer="525" from-port="2" to-layer="527" to-port="0"/>
		<edge from-layer="526" from-port="0" to-layer="527" to-port="1"/>
		<edge from-layer="527" from-port="2" to-layer="528" to-port="0"/>
		<edge from-layer="528" from-port="1" to-layer="530" to-port="0"/>
		<edge from-layer="529" from-port="0" to-layer="530" to-port="1"/>
		<edge from-layer="530" from-port="2" to-layer="532" to-port="0"/>
		<edge from-layer="531" from-port="0" to-layer="532" to-port="1"/>
		<edge from-layer="532" from-port="2" to-layer="533" to-port="0"/>
		<edge from-layer="533" from-port="1" to-layer="539" to-port="0"/>
		<edge from-layer="534" from-port="0" to-layer="535" to-port="1"/>
		<edge from-layer="535" from-port="2" to-layer="537" to-port="0"/>
		<edge from-layer="536" from-port="0" to-layer="537" to-port="1"/>
		<edge from-layer="537" from-port="2" to-layer="538" to-port="0"/>
		<edge from-layer="538" from-port="1" to-layer="539" to-port="1"/>
		<edge from-layer="539" from-port="2" to-layer="541" to-port="0"/>
		<edge from-layer="540" from-port="0" to-layer="541" to-port="1"/>
		<edge from-layer="541" from-port="2" to-layer="543" to-port="0"/>
		<edge from-layer="542" from-port="0" to-layer="543" to-port="1"/>
		<edge from-layer="543" from-port="2" to-layer="544" to-port="0"/>
		<edge from-layer="544" from-port="1" to-layer="546" to-port="0"/>
		<edge from-layer="544" from-port="1" to-layer="613" to-port="0"/>
		<edge from-layer="545" from-port="0" to-layer="546" to-port="1"/>
		<edge from-layer="546" from-port="2" to-layer="548" to-port="0"/>
		<edge from-layer="547" from-port="0" to-layer="548" to-port="1"/>
		<edge from-layer="548" from-port="2" to-layer="549" to-port="0"/>
		<edge from-layer="549" from-port="1" to-layer="580" to-port="0"/>
		<edge from-layer="549" from-port="1" to-layer="551" to-port="0"/>
		<edge from-layer="550" from-port="0" to-layer="551" to-port="1"/>
		<edge from-layer="551" from-port="2" to-layer="553" to-port="0"/>
		<edge from-layer="552" from-port="0" to-layer="553" to-port="1"/>
		<edge from-layer="553" from-port="2" to-layer="554" to-port="0"/>
		<edge from-layer="554" from-port="1" to-layer="556" to-port="0"/>
		<edge from-layer="555" from-port="0" to-layer="556" to-port="1"/>
		<edge from-layer="556" from-port="2" to-layer="558" to-port="0"/>
		<edge from-layer="557" from-port="0" to-layer="558" to-port="1"/>
		<edge from-layer="558" from-port="2" to-layer="559" to-port="0"/>
		<edge from-layer="559" from-port="1" to-layer="561" to-port="0"/>
		<edge from-layer="560" from-port="0" to-layer="561" to-port="1"/>
		<edge from-layer="561" from-port="2" to-layer="563" to-port="0"/>
		<edge from-layer="562" from-port="0" to-layer="563" to-port="1"/>
		<edge from-layer="563" from-port="2" to-layer="564" to-port="0"/>
		<edge from-layer="564" from-port="1" to-layer="566" to-port="0"/>
		<edge from-layer="565" from-port="0" to-layer="566" to-port="1"/>
		<edge from-layer="566" from-port="2" to-layer="568" to-port="0"/>
		<edge from-layer="567" from-port="0" to-layer="568" to-port="1"/>
		<edge from-layer="568" from-port="2" to-layer="569" to-port="0"/>
		<edge from-layer="569" from-port="1" to-layer="575" to-port="0"/>
		<edge from-layer="569" from-port="1" to-layer="571" to-port="0"/>
		<edge from-layer="570" from-port="0" to-layer="571" to-port="1"/>
		<edge from-layer="571" from-port="2" to-layer="573" to-port="0"/>
		<edge from-layer="572" from-port="0" to-layer="573" to-port="1"/>
		<edge from-layer="573" from-port="2" to-layer="609" to-port="0"/>
		<edge from-layer="574" from-port="0" to-layer="575" to-port="1"/>
		<edge from-layer="575" from-port="2" to-layer="577" to-port="0"/>
		<edge from-layer="576" from-port="0" to-layer="577" to-port="1"/>
		<edge from-layer="577" from-port="2" to-layer="578" to-port="0"/>
		<edge from-layer="578" from-port="1" to-layer="609" to-port="1"/>
		<edge from-layer="579" from-port="0" to-layer="580" to-port="1"/>
		<edge from-layer="580" from-port="2" to-layer="582" to-port="0"/>
		<edge from-layer="581" from-port="0" to-layer="582" to-port="1"/>
		<edge from-layer="582" from-port="2" to-layer="583" to-port="0"/>
		<edge from-layer="583" from-port="1" to-layer="585" to-port="0"/>
		<edge from-layer="584" from-port="0" to-layer="585" to-port="1"/>
		<edge from-layer="585" from-port="2" to-layer="587" to-port="0"/>
		<edge from-layer="586" from-port="0" to-layer="587" to-port="1"/>
		<edge from-layer="587" from-port="2" to-layer="588" to-port="0"/>
		<edge from-layer="588" from-port="1" to-layer="590" to-port="0"/>
		<edge from-layer="589" from-port="0" to-layer="590" to-port="1"/>
		<edge from-layer="590" from-port="2" to-layer="592" to-port="0"/>
		<edge from-layer="591" from-port="0" to-layer="592" to-port="1"/>
		<edge from-layer="592" from-port="2" to-layer="593" to-port="0"/>
		<edge from-layer="593" from-port="1" to-layer="595" to-port="0"/>
		<edge from-layer="594" from-port="0" to-layer="595" to-port="1"/>
		<edge from-layer="595" from-port="2" to-layer="597" to-port="0"/>
		<edge from-layer="596" from-port="0" to-layer="597" to-port="1"/>
		<edge from-layer="597" from-port="2" to-layer="598" to-port="0"/>
		<edge from-layer="598" from-port="1" to-layer="600" to-port="0"/>
		<edge from-layer="598" from-port="1" to-layer="605" to-port="0"/>
		<edge from-layer="599" from-port="0" to-layer="600" to-port="1"/>
		<edge from-layer="600" from-port="2" to-layer="602" to-port="0"/>
		<edge from-layer="601" from-port="0" to-layer="602" to-port="1"/>
		<edge from-layer="602" from-port="2" to-layer="603" to-port="0"/>
		<edge from-layer="603" from-port="1" to-layer="609" to-port="2"/>
		<edge from-layer="604" from-port="0" to-layer="605" to-port="1"/>
		<edge from-layer="605" from-port="2" to-layer="607" to-port="0"/>
		<edge from-layer="606" from-port="0" to-layer="607" to-port="1"/>
		<edge from-layer="607" from-port="2" to-layer="608" to-port="0"/>
		<edge from-layer="608" from-port="1" to-layer="609" to-port="3"/>
		<edge from-layer="609" from-port="4" to-layer="611" to-port="0"/>
		<edge from-layer="610" from-port="0" to-layer="611" to-port="1"/>
		<edge from-layer="611" from-port="2" to-layer="860" to-port="0"/>
		<edge from-layer="612" from-port="0" to-layer="613" to-port="1"/>
		<edge from-layer="613" from-port="2" to-layer="615" to-port="0"/>
		<edge from-layer="614" from-port="0" to-layer="615" to-port="1"/>
		<edge from-layer="615" from-port="2" to-layer="616" to-port="0"/>
		<edge from-layer="616" from-port="1" to-layer="618" to-port="0"/>
		<edge from-layer="617" from-port="0" to-layer="618" to-port="1"/>
		<edge from-layer="618" from-port="2" to-layer="620" to-port="0"/>
		<edge from-layer="619" from-port="0" to-layer="620" to-port="1"/>
		<edge from-layer="620" from-port="2" to-layer="621" to-port="0"/>
		<edge from-layer="621" from-port="1" to-layer="622" to-port="0"/>
		<edge from-layer="622" from-port="2" to-layer="659" to-port="0"/>
		<edge from-layer="622" from-port="2" to-layer="624" to-port="0"/>
		<edge from-layer="623" from-port="0" to-layer="624" to-port="1"/>
		<edge from-layer="624" from-port="2" to-layer="626" to-port="0"/>
		<edge from-layer="625" from-port="0" to-layer="626" to-port="1"/>
		<edge from-layer="626" from-port="2" to-layer="627" to-port="0"/>
		<edge from-layer="627" from-port="1" to-layer="629" to-port="0"/>
		<edge from-layer="628" from-port="0" to-layer="629" to-port="1"/>
		<edge from-layer="629" from-port="2" to-layer="631" to-port="0"/>
		<edge from-layer="630" from-port="0" to-layer="631" to-port="1"/>
		<edge from-layer="631" from-port="2" to-layer="632" to-port="0"/>
		<edge from-layer="632" from-port="1" to-layer="634" to-port="0"/>
		<edge from-layer="633" from-port="0" to-layer="634" to-port="1"/>
		<edge from-layer="634" from-port="2" to-layer="636" to-port="0"/>
		<edge from-layer="635" from-port="0" to-layer="636" to-port="1"/>
		<edge from-layer="636" from-port="2" to-layer="637" to-port="0"/>
		<edge from-layer="637" from-port="1" to-layer="639" to-port="0"/>
		<edge from-layer="638" from-port="0" to-layer="639" to-port="1"/>
		<edge from-layer="639" from-port="2" to-layer="641" to-port="0"/>
		<edge from-layer="640" from-port="0" to-layer="641" to-port="1"/>
		<edge from-layer="641" from-port="2" to-layer="642" to-port="0"/>
		<edge from-layer="642" from-port="1" to-layer="644" to-port="0"/>
		<edge from-layer="643" from-port="0" to-layer="644" to-port="1"/>
		<edge from-layer="644" from-port="2" to-layer="646" to-port="0"/>
		<edge from-layer="645" from-port="0" to-layer="646" to-port="1"/>
		<edge from-layer="646" from-port="2" to-layer="647" to-port="0"/>
		<edge from-layer="647" from-port="1" to-layer="649" to-port="0"/>
		<edge from-layer="648" from-port="0" to-layer="649" to-port="1"/>
		<edge from-layer="649" from-port="2" to-layer="651" to-port="0"/>
		<edge from-layer="650" from-port="0" to-layer="651" to-port="1"/>
		<edge from-layer="651" from-port="2" to-layer="652" to-port="0"/>
		<edge from-layer="652" from-port="1" to-layer="654" to-port="0"/>
		<edge from-layer="653" from-port="0" to-layer="654" to-port="1"/>
		<edge from-layer="654" from-port="2" to-layer="656" to-port="0"/>
		<edge from-layer="655" from-port="0" to-layer="656" to-port="1"/>
		<edge from-layer="656" from-port="2" to-layer="657" to-port="0"/>
		<edge from-layer="657" from-port="1" to-layer="663" to-port="0"/>
		<edge from-layer="658" from-port="0" to-layer="659" to-port="1"/>
		<edge from-layer="659" from-port="2" to-layer="661" to-port="0"/>
		<edge from-layer="660" from-port="0" to-layer="661" to-port="1"/>
		<edge from-layer="661" from-port="2" to-layer="662" to-port="0"/>
		<edge from-layer="662" from-port="1" to-layer="663" to-port="1"/>
		<edge from-layer="663" from-port="2" to-layer="665" to-port="0"/>
		<edge from-layer="664" from-port="0" to-layer="665" to-port="1"/>
		<edge from-layer="665" from-port="2" to-layer="667" to-port="0"/>
		<edge from-layer="666" from-port="0" to-layer="667" to-port="1"/>
		<edge from-layer="667" from-port="2" to-layer="668" to-port="0"/>
		<edge from-layer="668" from-port="1" to-layer="670" to-port="0"/>
		<edge from-layer="668" from-port="1" to-layer="737" to-port="0"/>
		<edge from-layer="669" from-port="0" to-layer="670" to-port="1"/>
		<edge from-layer="670" from-port="2" to-layer="672" to-port="0"/>
		<edge from-layer="671" from-port="0" to-layer="672" to-port="1"/>
		<edge from-layer="672" from-port="2" to-layer="673" to-port="0"/>
		<edge from-layer="673" from-port="1" to-layer="675" to-port="0"/>
		<edge from-layer="673" from-port="1" to-layer="704" to-port="0"/>
		<edge from-layer="674" from-port="0" to-layer="675" to-port="1"/>
		<edge from-layer="675" from-port="2" to-layer="677" to-port="0"/>
		<edge from-layer="676" from-port="0" to-layer="677" to-port="1"/>
		<edge from-layer="677" from-port="2" to-layer="678" to-port="0"/>
		<edge from-layer="678" from-port="1" to-layer="680" to-port="0"/>
		<edge from-layer="679" from-port="0" to-layer="680" to-port="1"/>
		<edge from-layer="680" from-port="2" to-layer="682" to-port="0"/>
		<edge from-layer="681" from-port="0" to-layer="682" to-port="1"/>
		<edge from-layer="682" from-port="2" to-layer="683" to-port="0"/>
		<edge from-layer="683" from-port="1" to-layer="685" to-port="0"/>
		<edge from-layer="684" from-port="0" to-layer="685" to-port="1"/>
		<edge from-layer="685" from-port="2" to-layer="687" to-port="0"/>
		<edge from-layer="686" from-port="0" to-layer="687" to-port="1"/>
		<edge from-layer="687" from-port="2" to-layer="688" to-port="0"/>
		<edge from-layer="688" from-port="1" to-layer="690" to-port="0"/>
		<edge from-layer="689" from-port="0" to-layer="690" to-port="1"/>
		<edge from-layer="690" from-port="2" to-layer="692" to-port="0"/>
		<edge from-layer="691" from-port="0" to-layer="692" to-port="1"/>
		<edge from-layer="692" from-port="2" to-layer="693" to-port="0"/>
		<edge from-layer="693" from-port="1" to-layer="695" to-port="0"/>
		<edge from-layer="693" from-port="1" to-layer="699" to-port="0"/>
		<edge from-layer="694" from-port="0" to-layer="695" to-port="1"/>
		<edge from-layer="695" from-port="2" to-layer="697" to-port="0"/>
		<edge from-layer="696" from-port="0" to-layer="697" to-port="1"/>
		<edge from-layer="697" from-port="2" to-layer="733" to-port="0"/>
		<edge from-layer="698" from-port="0" to-layer="699" to-port="1"/>
		<edge from-layer="699" from-port="2" to-layer="701" to-port="0"/>
		<edge from-layer="700" from-port="0" to-layer="701" to-port="1"/>
		<edge from-layer="701" from-port="2" to-layer="702" to-port="0"/>
		<edge from-layer="702" from-port="1" to-layer="733" to-port="1"/>
		<edge from-layer="703" from-port="0" to-layer="704" to-port="1"/>
		<edge from-layer="704" from-port="2" to-layer="706" to-port="0"/>
		<edge from-layer="705" from-port="0" to-layer="706" to-port="1"/>
		<edge from-layer="706" from-port="2" to-layer="707" to-port="0"/>
		<edge from-layer="707" from-port="1" to-layer="709" to-port="0"/>
		<edge from-layer="708" from-port="0" to-layer="709" to-port="1"/>
		<edge from-layer="709" from-port="2" to-layer="711" to-port="0"/>
		<edge from-layer="710" from-port="0" to-layer="711" to-port="1"/>
		<edge from-layer="711" from-port="2" to-layer="712" to-port="0"/>
		<edge from-layer="712" from-port="1" to-layer="714" to-port="0"/>
		<edge from-layer="713" from-port="0" to-layer="714" to-port="1"/>
		<edge from-layer="714" from-port="2" to-layer="716" to-port="0"/>
		<edge from-layer="715" from-port="0" to-layer="716" to-port="1"/>
		<edge from-layer="716" from-port="2" to-layer="717" to-port="0"/>
		<edge from-layer="717" from-port="1" to-layer="719" to-port="0"/>
		<edge from-layer="718" from-port="0" to-layer="719" to-port="1"/>
		<edge from-layer="719" from-port="2" to-layer="721" to-port="0"/>
		<edge from-layer="720" from-port="0" to-layer="721" to-port="1"/>
		<edge from-layer="721" from-port="2" to-layer="722" to-port="0"/>
		<edge from-layer="722" from-port="1" to-layer="724" to-port="0"/>
		<edge from-layer="722" from-port="1" to-layer="729" to-port="0"/>
		<edge from-layer="723" from-port="0" to-layer="724" to-port="1"/>
		<edge from-layer="724" from-port="2" to-layer="726" to-port="0"/>
		<edge from-layer="725" from-port="0" to-layer="726" to-port="1"/>
		<edge from-layer="726" from-port="2" to-layer="727" to-port="0"/>
		<edge from-layer="727" from-port="1" to-layer="733" to-port="2"/>
		<edge from-layer="728" from-port="0" to-layer="729" to-port="1"/>
		<edge from-layer="729" from-port="2" to-layer="731" to-port="0"/>
		<edge from-layer="730" from-port="0" to-layer="731" to-port="1"/>
		<edge from-layer="731" from-port="2" to-layer="732" to-port="0"/>
		<edge from-layer="732" from-port="1" to-layer="733" to-port="3"/>
		<edge from-layer="733" from-port="4" to-layer="735" to-port="0"/>
		<edge from-layer="734" from-port="0" to-layer="735" to-port="1"/>
		<edge from-layer="735" from-port="2" to-layer="860" to-port="1"/>
		<edge from-layer="736" from-port="0" to-layer="737" to-port="1"/>
		<edge from-layer="737" from-port="2" to-layer="739" to-port="0"/>
		<edge from-layer="738" from-port="0" to-layer="739" to-port="1"/>
		<edge from-layer="739" from-port="2" to-layer="740" to-port="0"/>
		<edge from-layer="740" from-port="1" to-layer="742" to-port="0"/>
		<edge from-layer="741" from-port="0" to-layer="742" to-port="1"/>
		<edge from-layer="742" from-port="2" to-layer="744" to-port="0"/>
		<edge from-layer="743" from-port="0" to-layer="744" to-port="1"/>
		<edge from-layer="744" from-port="2" to-layer="745" to-port="0"/>
		<edge from-layer="745" from-port="1" to-layer="746" to-port="0"/>
		<edge from-layer="746" from-port="2" to-layer="783" to-port="0"/>
		<edge from-layer="746" from-port="2" to-layer="748" to-port="0"/>
		<edge from-layer="747" from-port="0" to-layer="748" to-port="1"/>
		<edge from-layer="748" from-port="2" to-layer="750" to-port="0"/>
		<edge from-layer="749" from-port="0" to-layer="750" to-port="1"/>
		<edge from-layer="750" from-port="2" to-layer="751" to-port="0"/>
		<edge from-layer="751" from-port="1" to-layer="753" to-port="0"/>
		<edge from-layer="752" from-port="0" to-layer="753" to-port="1"/>
		<edge from-layer="753" from-port="2" to-layer="755" to-port="0"/>
		<edge from-layer="754" from-port="0" to-layer="755" to-port="1"/>
		<edge from-layer="755" from-port="2" to-layer="756" to-port="0"/>
		<edge from-layer="756" from-port="1" to-layer="758" to-port="0"/>
		<edge from-layer="757" from-port="0" to-layer="758" to-port="1"/>
		<edge from-layer="758" from-port="2" to-layer="760" to-port="0"/>
		<edge from-layer="759" from-port="0" to-layer="760" to-port="1"/>
		<edge from-layer="760" from-port="2" to-layer="761" to-port="0"/>
		<edge from-layer="761" from-port="1" to-layer="763" to-port="0"/>
		<edge from-layer="762" from-port="0" to-layer="763" to-port="1"/>
		<edge from-layer="763" from-port="2" to-layer="765" to-port="0"/>
		<edge from-layer="764" from-port="0" to-layer="765" to-port="1"/>
		<edge from-layer="765" from-port="2" to-layer="766" to-port="0"/>
		<edge from-layer="766" from-port="1" to-layer="768" to-port="0"/>
		<edge from-layer="767" from-port="0" to-layer="768" to-port="1"/>
		<edge from-layer="768" from-port="2" to-layer="770" to-port="0"/>
		<edge from-layer="769" from-port="0" to-layer="770" to-port="1"/>
		<edge from-layer="770" from-port="2" to-layer="771" to-port="0"/>
		<edge from-layer="771" from-port="1" to-layer="773" to-port="0"/>
		<edge from-layer="772" from-port="0" to-layer="773" to-port="1"/>
		<edge from-layer="773" from-port="2" to-layer="775" to-port="0"/>
		<edge from-layer="774" from-port="0" to-layer="775" to-port="1"/>
		<edge from-layer="775" from-port="2" to-layer="776" to-port="0"/>
		<edge from-layer="776" from-port="1" to-layer="778" to-port="0"/>
		<edge from-layer="777" from-port="0" to-layer="778" to-port="1"/>
		<edge from-layer="778" from-port="2" to-layer="780" to-port="0"/>
		<edge from-layer="779" from-port="0" to-layer="780" to-port="1"/>
		<edge from-layer="780" from-port="2" to-layer="781" to-port="0"/>
		<edge from-layer="781" from-port="1" to-layer="787" to-port="0"/>
		<edge from-layer="782" from-port="0" to-layer="783" to-port="1"/>
		<edge from-layer="783" from-port="2" to-layer="785" to-port="0"/>
		<edge from-layer="784" from-port="0" to-layer="785" to-port="1"/>
		<edge from-layer="785" from-port="2" to-layer="786" to-port="0"/>
		<edge from-layer="786" from-port="1" to-layer="787" to-port="1"/>
		<edge from-layer="787" from-port="2" to-layer="789" to-port="0"/>
		<edge from-layer="788" from-port="0" to-layer="789" to-port="1"/>
		<edge from-layer="789" from-port="2" to-layer="791" to-port="0"/>
		<edge from-layer="790" from-port="0" to-layer="791" to-port="1"/>
		<edge from-layer="791" from-port="2" to-layer="792" to-port="0"/>
		<edge from-layer="792" from-port="1" to-layer="794" to-port="0"/>
		<edge from-layer="793" from-port="0" to-layer="794" to-port="1"/>
		<edge from-layer="794" from-port="2" to-layer="796" to-port="0"/>
		<edge from-layer="795" from-port="0" to-layer="796" to-port="1"/>
		<edge from-layer="796" from-port="2" to-layer="797" to-port="0"/>
		<edge from-layer="797" from-port="1" to-layer="828" to-port="0"/>
		<edge from-layer="797" from-port="1" to-layer="799" to-port="0"/>
		<edge from-layer="798" from-port="0" to-layer="799" to-port="1"/>
		<edge from-layer="799" from-port="2" to-layer="801" to-port="0"/>
		<edge from-layer="800" from-port="0" to-layer="801" to-port="1"/>
		<edge from-layer="801" from-port="2" to-layer="802" to-port="0"/>
		<edge from-layer="802" from-port="1" to-layer="804" to-port="0"/>
		<edge from-layer="803" from-port="0" to-layer="804" to-port="1"/>
		<edge from-layer="804" from-port="2" to-layer="806" to-port="0"/>
		<edge from-layer="805" from-port="0" to-layer="806" to-port="1"/>
		<edge from-layer="806" from-port="2" to-layer="807" to-port="0"/>
		<edge from-layer="807" from-port="1" to-layer="809" to-port="0"/>
		<edge from-layer="808" from-port="0" to-layer="809" to-port="1"/>
		<edge from-layer="809" from-port="2" to-layer="811" to-port="0"/>
		<edge from-layer="810" from-port="0" to-layer="811" to-port="1"/>
		<edge from-layer="811" from-port="2" to-layer="812" to-port="0"/>
		<edge from-layer="812" from-port="1" to-layer="814" to-port="0"/>
		<edge from-layer="813" from-port="0" to-layer="814" to-port="1"/>
		<edge from-layer="814" from-port="2" to-layer="816" to-port="0"/>
		<edge from-layer="815" from-port="0" to-layer="816" to-port="1"/>
		<edge from-layer="816" from-port="2" to-layer="817" to-port="0"/>
		<edge from-layer="817" from-port="1" to-layer="823" to-port="0"/>
		<edge from-layer="817" from-port="1" to-layer="819" to-port="0"/>
		<edge from-layer="818" from-port="0" to-layer="819" to-port="1"/>
		<edge from-layer="819" from-port="2" to-layer="821" to-port="0"/>
		<edge from-layer="820" from-port="0" to-layer="821" to-port="1"/>
		<edge from-layer="821" from-port="2" to-layer="857" to-port="0"/>
		<edge from-layer="822" from-port="0" to-layer="823" to-port="1"/>
		<edge from-layer="823" from-port="2" to-layer="825" to-port="0"/>
		<edge from-layer="824" from-port="0" to-layer="825" to-port="1"/>
		<edge from-layer="825" from-port="2" to-layer="826" to-port="0"/>
		<edge from-layer="826" from-port="1" to-layer="857" to-port="1"/>
		<edge from-layer="827" from-port="0" to-layer="828" to-port="1"/>
		<edge from-layer="828" from-port="2" to-layer="830" to-port="0"/>
		<edge from-layer="829" from-port="0" to-layer="830" to-port="1"/>
		<edge from-layer="830" from-port="2" to-layer="831" to-port="0"/>
		<edge from-layer="831" from-port="1" to-layer="833" to-port="0"/>
		<edge from-layer="832" from-port="0" to-layer="833" to-port="1"/>
		<edge from-layer="833" from-port="2" to-layer="835" to-port="0"/>
		<edge from-layer="834" from-port="0" to-layer="835" to-port="1"/>
		<edge from-layer="835" from-port="2" to-layer="836" to-port="0"/>
		<edge from-layer="836" from-port="1" to-layer="838" to-port="0"/>
		<edge from-layer="837" from-port="0" to-layer="838" to-port="1"/>
		<edge from-layer="838" from-port="2" to-layer="840" to-port="0"/>
		<edge from-layer="839" from-port="0" to-layer="840" to-port="1"/>
		<edge from-layer="840" from-port="2" to-layer="841" to-port="0"/>
		<edge from-layer="841" from-port="1" to-layer="843" to-port="0"/>
		<edge from-layer="842" from-port="0" to-layer="843" to-port="1"/>
		<edge from-layer="843" from-port="2" to-layer="845" to-port="0"/>
		<edge from-layer="844" from-port="0" to-layer="845" to-port="1"/>
		<edge from-layer="845" from-port="2" to-layer="846" to-port="0"/>
		<edge from-layer="846" from-port="1" to-layer="853" to-port="0"/>
		<edge from-layer="846" from-port="1" to-layer="848" to-port="0"/>
		<edge from-layer="847" from-port="0" to-layer="848" to-port="1"/>
		<edge from-layer="848" from-port="2" to-layer="850" to-port="0"/>
		<edge from-layer="849" from-port="0" to-layer="850" to-port="1"/>
		<edge from-layer="850" from-port="2" to-layer="851" to-port="0"/>
		<edge from-layer="851" from-port="1" to-layer="857" to-port="2"/>
		<edge from-layer="852" from-port="0" to-layer="853" to-port="1"/>
		<edge from-layer="853" from-port="2" to-layer="855" to-port="0"/>
		<edge from-layer="854" from-port="0" to-layer="855" to-port="1"/>
		<edge from-layer="855" from-port="2" to-layer="856" to-port="0"/>
		<edge from-layer="856" from-port="1" to-layer="857" to-port="3"/>
		<edge from-layer="857" from-port="4" to-layer="859" to-port="0"/>
		<edge from-layer="858" from-port="0" to-layer="859" to-port="1"/>
		<edge from-layer="859" from-port="2" to-layer="860" to-port="2"/>
		<edge from-layer="860" from-port="3" to-layer="862" to-port="0"/>
		<edge from-layer="861" from-port="0" to-layer="862" to-port="1"/>
		<edge from-layer="862" from-port="2" to-layer="863" to-port="0"/>
	</edges>
	<meta_data>
		<MO_version value="2021.4.1-3926-14e67d86634-releases/2021/4"/>
		<cli_parameters>
			<data_type value="FP16"/>
			<disable_resnet_optimization value="False"/>
			<disable_weights_compression value="False"/>
			<enable_concat_optimization value="False"/>
			<extensions value="DIR"/>
			<framework value="onnx"/>
			<freeze_placeholder_with_value value="{}"/>
			<generate_deprecated_IR_V7 value="False"/>
			<input_model value="DIR/yolox.onnx"/>
			<keep_shape_ops value="True"/>
			<legacy_ir_generation value="False"/>
			<log_level value="ERROR"/>
			<mean_scale_values value="{}"/>
			<mean_values value="()"/>
			<model_name value="yolox"/>
			<output_dir value="DIR"/>
			<placeholder_data_types value="{}"/>
			<progress value="False"/>
			<reverse_input_channels value="False"/>
			<scale_values value="()"/>
			<silent value="False"/>
			<static_shape value="False"/>
			<stream_output value="False"/>
			<transform value=""/>
			<unset unset_cli_parameters="batch, disable_fusing, disable_gfusing, finegrain_fusing, input, input_shape, move_to_preprocess, output, placeholder_shapes, scale, transformations_config"/>
		</cli_parameters>
	</meta_data>
</net>
