<?xml version="1.0" ?>
<net name="yolox" version="10">
	<layers>
		<layer id="0" name="images" type="Parameter" version="opset1">
			<data element_type="f16" shape="1, 3, 384, 640"/>
			<output>
				<port id="0" names="images" precision="FP16">
					<dim>1</dim>
					<dim>3</dim>
					<dim>384</dim>
					<dim>640</dim>
				</port>
			</output>
		</layer>
		<layer id="1" name="Slice_4/Concat1240049287" type="Const" version="opset1">
			<data element_type="i64" offset="0" shape="4" size="32"/>
			<output>
				<port id="0" precision="I64">
					<dim>4</dim>
				</port>
			</output>
		</layer>
		<layer id="2" name="Slice_4/Concat123841240149299" type="Const" version="opset1">
			<data element_type="i64" offset="32" shape="4" size="32"/>
			<output>
				<port id="0" precision="I64">
					<dim>4</dim>
				</port>
			</output>
		</layer>
		<layer id="3" name="Slice_4/Strides1240249626" type="Const" version="opset1">
			<data element_type="i64" offset="64" shape="4" size="32"/>
			<output>
				<port id="0" precision="I64">
					<dim>4</dim>
				</port>
			</output>
		</layer>
		<layer id="4" name="Slice_4" type="StridedSlice" version="opset1">
			<data begin_mask="1, 1, 0, 1" ellipsis_mask="0, 0, 0, 0" end_mask="1, 1, 0, 1" new_axis_mask="0, 0, 0, 0" shrink_axis_mask="0, 0, 0, 0"/>
			<input>
				<port id="0" precision="FP16">
					<dim>1</dim>
					<dim>3</dim>
					<dim>384</dim>
					<dim>640</dim>
				</port>
				<port id="1" precision="I64">
					<dim>4</dim>
				</port>
				<port id="2" precision="I64">
					<dim>4</dim>
				</port>
				<port id="3" precision="I64">
					<dim>4</dim>
				</port>
			</input>
			<output>
				<port id="4" names="653" precision="FP16">
					<dim>1</dim>
					<dim>3</dim>
					<dim>192</dim>
					<dim>640</dim>
				</port>
			</output>
		</layer>
		<layer id="5" name="Slice_9/Concat1244850355" type="Const" version="opset1">
			<data element_type="i64" offset="0" shape="4" size="32"/>
			<output>
				<port id="0" precision="I64">
					<dim>4</dim>
				</port>
			</output>
		</layer>
		<layer id="6" name="Slice_9/Concat124321244950553" type="Const" version="opset1">
			<data element_type="i64" offset="96" shape="4" size="32"/>
			<output>
				<port id="0" precision="I64">
					<dim>4</dim>
				</port>
			</output>
		</layer>
		<layer id="7" name="Slice_9/Strides1245049872" type="Const" version="opset1">
			<data element_type="i64" offset="128" shape="4" size="32"/>
			<output>
				<port id="0" precision="I64">
					<dim>4</dim>
				</port>
			</output>
		</layer>
		<layer id="8" name="Slice_9" type="StridedSlice" version="opset1">
			<data begin_mask="1, 1, 1, 0" ellipsis_mask="0, 0, 0, 0" end_mask="1, 1, 1, 0" new_axis_mask="0, 0, 0, 0" shrink_axis_mask="0, 0, 0, 0"/>
			<input>
				<port id="0" precision="FP16">
					<dim>1</dim>
					<dim>3</dim>
					<dim>192</dim>
					<dim>640</dim>
				</port>
				<port id="1" precision="I64">
					<dim>4</dim>
				</port>
				<port id="2" precision="I64">
					<dim>4</dim>
				</port>
				<port id="3" precision="I64">
					<dim>4</dim>
				</port>
			</input>
			<output>
				<port id="4" names="658" precision="FP16">
					<dim>1</dim>
					<dim>3</dim>
					<dim>192</dim>
					<dim>320</dim>
				</port>
			</output>
		</layer>
		<layer id="9" name="Slice_24/Concat1259250214" type="Const" version="opset1">
			<data element_type="i64" offset="160" shape="4" size="32"/>
			<output>
				<port id="0" precision="I64">
					<dim>4</dim>
				</port>
			</output>
		</layer>
		<layer id="10" name="Slice_24/Concat125761259350160" type="Const" version="opset1">
			<data element_type="i64" offset="32" shape="4" size="32"/>
			<output>
				<port id="0" precision="I64">
					<dim>4</dim>
				</port>
			</output>
		</layer>
		<layer id="11" name="Slice_24/Strides1259449704" type="Const" version="opset1">
			<data element_type="i64" offset="64" shape="4" size="32"/>
			<output>
				<port id="0" precision="I64">
					<dim>4</dim>
				</port>
			</output>
		</layer>
		<layer id="12" name="Slice_24" type="StridedSlice" version="opset1">
			<data begin_mask="1, 1, 0, 1" ellipsis_mask="0, 0, 0, 0" end_mask="1, 1, 0, 1" new_axis_mask="0, 0, 0, 0" shrink_axis_mask="0, 0, 0, 0"/>
			<input>
				<port id="0" precision="FP16">
					<dim>1</dim>
					<dim>3</dim>
					<dim>384</dim>
					<dim>640</dim>
				</port>
				<port id="1" precision="I64">
					<dim>4</dim>
				</port>
				<port id="2" precision="I64">
					<dim>4</dim>
				</port>
				<port id="3" precision="I64">
					<dim>4</dim>
				</port>
			</input>
			<output>
				<port id="4" names="673" precision="FP16">
					<dim>1</dim>
					<dim>3</dim>
					<dim>192</dim>
					<dim>640</dim>
				</port>
			</output>
		</layer>
		<layer id="13" name="Slice_29/Concat1264049782" type="Const" version="opset1">
			<data element_type="i64" offset="0" shape="4" size="32"/>
			<output>
				<port id="0" precision="I64">
					<dim>4</dim>
				</port>
			</output>
		</layer>
		<layer id="14" name="Slice_29/Concat126241264149221" type="Const" version="opset1">
			<data element_type="i64" offset="96" shape="4" size="32"/>
			<output>
				<port id="0" precision="I64">
					<dim>4</dim>
				</port>
			</output>
		</layer>
		<layer id="15" name="Slice_29/Strides1264250316" type="Const" version="opset1">
			<data element_type="i64" offset="128" shape="4" size="32"/>
			<output>
				<port id="0" precision="I64">
					<dim>4</dim>
				</port>
			</output>
		</layer>
		<layer id="16" name="Slice_29" type="StridedSlice" version="opset1">
			<data begin_mask="1, 1, 1, 0" ellipsis_mask="0, 0, 0, 0" end_mask="1, 1, 1, 0" new_axis_mask="0, 0, 0, 0" shrink_axis_mask="0, 0, 0, 0"/>
			<input>
				<port id="0" precision="FP16">
					<dim>1</dim>
					<dim>3</dim>
					<dim>192</dim>
					<dim>640</dim>
				</port>
				<port id="1" precision="I64">
					<dim>4</dim>
				</port>
				<port id="2" precision="I64">
					<dim>4</dim>
				</port>
				<port id="3" precision="I64">
					<dim>4</dim>
				</port>
			</input>
			<output>
				<port id="4" names="678" precision="FP16">
					<dim>1</dim>
					<dim>3</dim>
					<dim>192</dim>
					<dim>320</dim>
				</port>
			</output>
		</layer>
		<layer id="17" name="Slice_14/Concat1249649995" type="Const" version="opset1">
			<data element_type="i64" offset="0" shape="4" size="32"/>
			<output>
				<port id="0" precision="I64">
					<dim>4</dim>
				</port>
			</output>
		</layer>
		<layer id="18" name="Slice_14/Concat124801249750202" type="Const" version="opset1">
			<data element_type="i64" offset="32" shape="4" size="32"/>
			<output>
				<port id="0" precision="I64">
					<dim>4</dim>
				</port>
			</output>
		</layer>
		<layer id="19" name="Slice_14/Strides1249849530" type="Const" version="opset1">
			<data element_type="i64" offset="64" shape="4" size="32"/>
			<output>
				<port id="0" precision="I64">
					<dim>4</dim>
				</port>
			</output>
		</layer>
		<layer id="20" name="Slice_14" type="StridedSlice" version="opset1">
			<data begin_mask="1, 1, 0, 1" ellipsis_mask="0, 0, 0, 0" end_mask="1, 1, 0, 1" new_axis_mask="0, 0, 0, 0" shrink_axis_mask="0, 0, 0, 0"/>
			<input>
				<port id="0" precision="FP16">
					<dim>1</dim>
					<dim>3</dim>
					<dim>384</dim>
					<dim>640</dim>
				</port>
				<port id="1" precision="I64">
					<dim>4</dim>
				</port>
				<port id="2" precision="I64">
					<dim>4</dim>
				</port>
				<port id="3" precision="I64">
					<dim>4</dim>
				</port>
			</input>
			<output>
				<port id="4" names="663" precision="FP16">
					<dim>1</dim>
					<dim>3</dim>
					<dim>192</dim>
					<dim>640</dim>
				</port>
			</output>
		</layer>
		<layer id="21" name="Slice_19/Concat1254450412" type="Const" version="opset1">
			<data element_type="i64" offset="192" shape="4" size="32"/>
			<output>
				<port id="0" precision="I64">
					<dim>4</dim>
				</port>
			</output>
		</layer>
		<layer id="22" name="Slice_19/Concat125281254549605" type="Const" version="opset1">
			<data element_type="i64" offset="96" shape="4" size="32"/>
			<output>
				<port id="0" precision="I64">
					<dim>4</dim>
				</port>
			</output>
		</layer>
		<layer id="23" name="Slice_19/Strides1254650493" type="Const" version="opset1">
			<data element_type="i64" offset="128" shape="4" size="32"/>
			<output>
				<port id="0" precision="I64">
					<dim>4</dim>
				</port>
			</output>
		</layer>
		<layer id="24" name="Slice_19" type="StridedSlice" version="opset1">
			<data begin_mask="1, 1, 1, 0" ellipsis_mask="0, 0, 0, 0" end_mask="1, 1, 1, 0" new_axis_mask="0, 0, 0, 0" shrink_axis_mask="0, 0, 0, 0"/>
			<input>
				<port id="0" precision="FP16">
					<dim>1</dim>
					<dim>3</dim>
					<dim>192</dim>
					<dim>640</dim>
				</port>
				<port id="1" precision="I64">
					<dim>4</dim>
				</port>
				<port id="2" precision="I64">
					<dim>4</dim>
				</port>
				<port id="3" precision="I64">
					<dim>4</dim>
				</port>
			</input>
			<output>
				<port id="4" names="668" precision="FP16">
					<dim>1</dim>
					<dim>3</dim>
					<dim>192</dim>
					<dim>320</dim>
				</port>
			</output>
		</layer>
		<layer id="25" name="Slice_34/Concat1268850415" type="Const" version="opset1">
			<data element_type="i64" offset="160" shape="4" size="32"/>
			<output>
				<port id="0" precision="I64">
					<dim>4</dim>
				</port>
			</output>
		</layer>
		<layer id="26" name="Slice_34/Concat126721268949371" type="Const" version="opset1">
			<data element_type="i64" offset="32" shape="4" size="32"/>
			<output>
				<port id="0" precision="I64">
					<dim>4</dim>
				</port>
			</output>
		</layer>
		<layer id="27" name="Slice_34/Strides1269049296" type="Const" version="opset1">
			<data element_type="i64" offset="64" shape="4" size="32"/>
			<output>
				<port id="0" precision="I64">
					<dim>4</dim>
				</port>
			</output>
		</layer>
		<layer id="28" name="Slice_34" type="StridedSlice" version="opset1">
			<data begin_mask="1, 1, 0, 1" ellipsis_mask="0, 0, 0, 0" end_mask="1, 1, 0, 1" new_axis_mask="0, 0, 0, 0" shrink_axis_mask="0, 0, 0, 0"/>
			<input>
				<port id="0" precision="FP16">
					<dim>1</dim>
					<dim>3</dim>
					<dim>384</dim>
					<dim>640</dim>
				</port>
				<port id="1" precision="I64">
					<dim>4</dim>
				</port>
				<port id="2" precision="I64">
					<dim>4</dim>
				</port>
				<port id="3" precision="I64">
					<dim>4</dim>
				</port>
			</input>
			<output>
				<port id="4" names="683" precision="FP16">
					<dim>1</dim>
					<dim>3</dim>
					<dim>192</dim>
					<dim>640</dim>
				</port>
			</output>
		</layer>
		<layer id="29" name="Slice_39/Concat1273650124" type="Const" version="opset1">
			<data element_type="i64" offset="192" shape="4" size="32"/>
			<output>
				<port id="0" precision="I64">
					<dim>4</dim>
				</port>
			</output>
		</layer>
		<layer id="30" name="Slice_39/Concat127201273749308" type="Const" version="opset1">
			<data element_type="i64" offset="96" shape="4" size="32"/>
			<output>
				<port id="0" precision="I64">
					<dim>4</dim>
				</port>
			</output>
		</layer>
		<layer id="31" name="Slice_39/Strides1273850385" type="Const" version="opset1">
			<data element_type="i64" offset="128" shape="4" size="32"/>
			<output>
				<port id="0" precision="I64">
					<dim>4</dim>
				</port>
			</output>
		</layer>
		<layer id="32" name="Slice_39" type="StridedSlice" version="opset1">
			<data begin_mask="1, 1, 1, 0" ellipsis_mask="0, 0, 0, 0" end_mask="1, 1, 1, 0" new_axis_mask="0, 0, 0, 0" shrink_axis_mask="0, 0, 0, 0"/>
			<input>
				<port id="0" precision="FP16">
					<dim>1</dim>
					<dim>3</dim>
					<dim>192</dim>
					<dim>640</dim>
				</port>
				<port id="1" precision="I64">
					<dim>4</dim>
				</port>
				<port id="2" precision="I64">
					<dim>4</dim>
				</port>
				<port id="3" precision="I64">
					<dim>4</dim>
				</port>
			</input>
			<output>
				<port id="4" names="688" precision="FP16">
					<dim>1</dim>
					<dim>3</dim>
					<dim>192</dim>
					<dim>320</dim>
				</port>
			</output>
		</layer>
		<layer id="33" name="Concat_40" type="Concat" version="opset1">
			<data axis="1"/>
			<input>
				<port id="0" precision="FP16">
					<dim>1</dim>
					<dim>3</dim>
					<dim>192</dim>
					<dim>320</dim>
				</port>
				<port id="1" precision="FP16">
					<dim>1</dim>
					<dim>3</dim>
					<dim>192</dim>
					<dim>320</dim>
				</port>
				<port id="2" precision="FP16">
					<dim>1</dim>
					<dim>3</dim>
					<dim>192</dim>
					<dim>320</dim>
				</port>
				<port id="3" precision="FP16">
					<dim>1</dim>
					<dim>3</dim>
					<dim>192</dim>
					<dim>320</dim>
				</port>
			</input>
			<output>
				<port id="4" names="689" precision="FP16">
					<dim>1</dim>
					<dim>12</dim>
					<dim>192</dim>
					<dim>320</dim>
				</port>
			</output>
		</layer>
		<layer id="34" name="1814" type="Const" version="opset1">
			<data element_type="f16" offset="224" shape="16, 12, 3, 3" size="3456"/>
			<output>
				<port id="0" names="1814" precision="FP16">
					<dim>16</dim>
					<dim>12</dim>
					<dim>3</dim>
					<dim>3</dim>
				</port>
			</output>
		</layer>
		<layer id="35" name="Conv_41/WithoutBiases" type="Convolution" version="opset1">
			<data auto_pad="explicit" dilations="1, 1" pads_begin="1, 1" pads_end="1, 1" strides="1, 1"/>
			<input>
				<port id="0" precision="FP16">
					<dim>1</dim>
					<dim>12</dim>
					<dim>192</dim>
					<dim>320</dim>
				</port>
				<port id="1" precision="FP16">
					<dim>16</dim>
					<dim>12</dim>
					<dim>3</dim>
					<dim>3</dim>
				</port>
			</input>
			<output>
				<port id="2" precision="FP16">
					<dim>1</dim>
					<dim>16</dim>
					<dim>192</dim>
					<dim>320</dim>
				</port>
			</output>
		</layer>
		<layer id="36" name="Conv_41/Dims11351" type="Const" version="opset1">
			<data element_type="f16" offset="3680" shape="1, 16, 1, 1" size="32"/>
			<output>
				<port id="0" precision="FP16">
					<dim>1</dim>
					<dim>16</dim>
					<dim>1</dim>
					<dim>1</dim>
				</port>
			</output>
		</layer>
		<layer id="37" name="Conv_41" type="Add" version="opset1">
			<data auto_broadcast="numpy"/>
			<input>
				<port id="0" precision="FP16">
					<dim>1</dim>
					<dim>16</dim>
					<dim>192</dim>
					<dim>320</dim>
				</port>
				<port id="1" precision="FP16">
					<dim>1</dim>
					<dim>16</dim>
					<dim>1</dim>
					<dim>1</dim>
				</port>
			</input>
			<output>
				<port id="2" names="1813" precision="FP16">
					<dim>1</dim>
					<dim>16</dim>
					<dim>192</dim>
					<dim>320</dim>
				</port>
			</output>
		</layer>
		<layer id="38" name="69249134" type="Const" version="opset1">
			<data element_type="f16" offset="3712" shape="1, 1, 1, 1" size="2"/>
			<output>
				<port id="0" names="692" precision="FP16">
					<dim>1</dim>
					<dim>1</dim>
					<dim>1</dim>
					<dim>1</dim>
				</port>
			</output>
		</layer>
		<layer id="39" name="Add_43" type="Add" version="opset1">
			<data auto_broadcast="numpy"/>
			<input>
				<port id="0" precision="FP16">
					<dim>1</dim>
					<dim>16</dim>
					<dim>192</dim>
					<dim>320</dim>
				</port>
				<port id="1" precision="FP16">
					<dim>1</dim>
					<dim>1</dim>
					<dim>1</dim>
					<dim>1</dim>
				</port>
			</input>
			<output>
				<port id="2" names="693" precision="FP16">
					<dim>1</dim>
					<dim>16</dim>
					<dim>192</dim>
					<dim>320</dim>
				</port>
			</output>
		</layer>
		<layer id="40" name="Clip_46" type="Clamp" version="opset1">
			<data max="6" min="0"/>
			<input>
				<port id="0" precision="FP16">
					<dim>1</dim>
					<dim>16</dim>
					<dim>192</dim>
					<dim>320</dim>
				</port>
			</input>
			<output>
				<port id="1" names="696" precision="FP16">
					<dim>1</dim>
					<dim>16</dim>
					<dim>192</dim>
					<dim>320</dim>
				</port>
			</output>
		</layer>
		<layer id="41" name="69550097" type="Const" version="opset1">
			<data element_type="f16" offset="3714" shape="1, 1, 1, 1" size="2"/>
			<output>
				<port id="0" names="695" precision="FP16">
					<dim>1</dim>
					<dim>1</dim>
					<dim>1</dim>
					<dim>1</dim>
				</port>
			</output>
		</layer>
		<layer id="42" name="Div_48" type="Multiply" version="opset1">
			<data auto_broadcast="numpy"/>
			<input>
				<port id="0" precision="FP16">
					<dim>1</dim>
					<dim>16</dim>
					<dim>192</dim>
					<dim>320</dim>
				</port>
				<port id="1" precision="FP16">
					<dim>1</dim>
					<dim>1</dim>
					<dim>1</dim>
					<dim>1</dim>
				</port>
			</input>
			<output>
				<port id="2" names="698" precision="FP16">
					<dim>1</dim>
					<dim>16</dim>
					<dim>192</dim>
					<dim>320</dim>
				</port>
			</output>
		</layer>
		<layer id="43" name="Mul_49" type="Multiply" version="opset1">
			<data auto_broadcast="numpy"/>
			<input>
				<port id="0" precision="FP16">
					<dim>1</dim>
					<dim>16</dim>
					<dim>192</dim>
					<dim>320</dim>
				</port>
				<port id="1" precision="FP16">
					<dim>1</dim>
					<dim>16</dim>
					<dim>192</dim>
					<dim>320</dim>
				</port>
			</input>
			<output>
				<port id="2" names="699" precision="FP16">
					<dim>1</dim>
					<dim>16</dim>
					<dim>192</dim>
					<dim>320</dim>
				</port>
			</output>
		</layer>
		<layer id="44" name="1817" type="Const" version="opset1">
			<data element_type="f16" offset="3716" shape="16, 1, 1, 3, 3" size="288"/>
			<output>
				<port id="0" names="1817" precision="FP16">
					<dim>16</dim>
					<dim>1</dim>
					<dim>1</dim>
					<dim>3</dim>
					<dim>3</dim>
				</port>
			</output>
		</layer>
		<layer id="45" name="Conv_50/WithoutBiases" type="GroupConvolution" version="opset1">
			<data auto_pad="explicit" dilations="1, 1" pads_begin="1, 1" pads_end="1, 1" strides="2, 2"/>
			<input>
				<port id="0" precision="FP16">
					<dim>1</dim>
					<dim>16</dim>
					<dim>192</dim>
					<dim>320</dim>
				</port>
				<port id="1" precision="FP16">
					<dim>16</dim>
					<dim>1</dim>
					<dim>1</dim>
					<dim>3</dim>
					<dim>3</dim>
				</port>
			</input>
			<output>
				<port id="2" precision="FP16">
					<dim>1</dim>
					<dim>16</dim>
					<dim>96</dim>
					<dim>160</dim>
				</port>
			</output>
		</layer>
		<layer id="46" name="Conv_50/Dims11111" type="Const" version="opset1">
			<data element_type="f16" offset="4004" shape="1, 16, 1, 1" size="32"/>
			<output>
				<port id="0" precision="FP16">
					<dim>1</dim>
					<dim>16</dim>
					<dim>1</dim>
					<dim>1</dim>
				</port>
			</output>
		</layer>
		<layer id="47" name="Conv_50" type="Add" version="opset1">
			<data auto_broadcast="numpy"/>
			<input>
				<port id="0" precision="FP16">
					<dim>1</dim>
					<dim>16</dim>
					<dim>96</dim>
					<dim>160</dim>
				</port>
				<port id="1" precision="FP16">
					<dim>1</dim>
					<dim>16</dim>
					<dim>1</dim>
					<dim>1</dim>
				</port>
			</input>
			<output>
				<port id="2" names="1816" precision="FP16">
					<dim>1</dim>
					<dim>16</dim>
					<dim>96</dim>
					<dim>160</dim>
				</port>
			</output>
		</layer>
		<layer id="48" name="69249938" type="Const" version="opset1">
			<data element_type="f16" offset="3712" shape="1, 1, 1, 1" size="2"/>
			<output>
				<port id="0" names="692" precision="FP16">
					<dim>1</dim>
					<dim>1</dim>
					<dim>1</dim>
					<dim>1</dim>
				</port>
			</output>
		</layer>
		<layer id="49" name="Add_52" type="Add" version="opset1">
			<data auto_broadcast="numpy"/>
			<input>
				<port id="0" precision="FP16">
					<dim>1</dim>
					<dim>16</dim>
					<dim>96</dim>
					<dim>160</dim>
				</port>
				<port id="1" precision="FP16">
					<dim>1</dim>
					<dim>1</dim>
					<dim>1</dim>
					<dim>1</dim>
				</port>
			</input>
			<output>
				<port id="2" names="703" precision="FP16">
					<dim>1</dim>
					<dim>16</dim>
					<dim>96</dim>
					<dim>160</dim>
				</port>
			</output>
		</layer>
		<layer id="50" name="Clip_55" type="Clamp" version="opset1">
			<data max="6" min="0"/>
			<input>
				<port id="0" precision="FP16">
					<dim>1</dim>
					<dim>16</dim>
					<dim>96</dim>
					<dim>160</dim>
				</port>
			</input>
			<output>
				<port id="1" names="706" precision="FP16">
					<dim>1</dim>
					<dim>16</dim>
					<dim>96</dim>
					<dim>160</dim>
				</port>
			</output>
		</layer>
		<layer id="51" name="69550370" type="Const" version="opset1">
			<data element_type="f16" offset="3714" shape="1, 1, 1, 1" size="2"/>
			<output>
				<port id="0" names="695" precision="FP16">
					<dim>1</dim>
					<dim>1</dim>
					<dim>1</dim>
					<dim>1</dim>
				</port>
			</output>
		</layer>
		<layer id="52" name="Div_57" type="Multiply" version="opset1">
			<data auto_broadcast="numpy"/>
			<input>
				<port id="0" precision="FP16">
					<dim>1</dim>
					<dim>16</dim>
					<dim>96</dim>
					<dim>160</dim>
				</port>
				<port id="1" precision="FP16">
					<dim>1</dim>
					<dim>1</dim>
					<dim>1</dim>
					<dim>1</dim>
				</port>
			</input>
			<output>
				<port id="2" names="708" precision="FP16">
					<dim>1</dim>
					<dim>16</dim>
					<dim>96</dim>
					<dim>160</dim>
				</port>
			</output>
		</layer>
		<layer id="53" name="Mul_58" type="Multiply" version="opset1">
			<data auto_broadcast="numpy"/>
			<input>
				<port id="0" precision="FP16">
					<dim>1</dim>
					<dim>16</dim>
					<dim>96</dim>
					<dim>160</dim>
				</port>
				<port id="1" precision="FP16">
					<dim>1</dim>
					<dim>16</dim>
					<dim>96</dim>
					<dim>160</dim>
				</port>
			</input>
			<output>
				<port id="2" names="709" precision="FP16">
					<dim>1</dim>
					<dim>16</dim>
					<dim>96</dim>
					<dim>160</dim>
				</port>
			</output>
		</layer>
		<layer id="54" name="1820" type="Const" version="opset1">
			<data element_type="f16" offset="4036" shape="32, 16, 1, 1" size="1024"/>
			<output>
				<port id="0" names="1820" precision="FP16">
					<dim>32</dim>
					<dim>16</dim>
					<dim>1</dim>
					<dim>1</dim>
				</port>
			</output>
		</layer>
		<layer id="55" name="Conv_59/WithoutBiases" type="Convolution" version="opset1">
			<data auto_pad="explicit" dilations="1, 1" pads_begin="0, 0" pads_end="0, 0" strides="1, 1"/>
			<input>
				<port id="0" precision="FP16">
					<dim>1</dim>
					<dim>16</dim>
					<dim>96</dim>
					<dim>160</dim>
				</port>
				<port id="1" precision="FP16">
					<dim>32</dim>
					<dim>16</dim>
					<dim>1</dim>
					<dim>1</dim>
				</port>
			</input>
			<output>
				<port id="2" precision="FP16">
					<dim>1</dim>
					<dim>32</dim>
					<dim>96</dim>
					<dim>160</dim>
				</port>
			</output>
		</layer>
		<layer id="56" name="Conv_59/Dims10967" type="Const" version="opset1">
			<data element_type="f16" offset="5060" shape="1, 32, 1, 1" size="64"/>
			<output>
				<port id="0" precision="FP16">
					<dim>1</dim>
					<dim>32</dim>
					<dim>1</dim>
					<dim>1</dim>
				</port>
			</output>
		</layer>
		<layer id="57" name="Conv_59" type="Add" version="opset1">
			<data auto_broadcast="numpy"/>
			<input>
				<port id="0" precision="FP16">
					<dim>1</dim>
					<dim>32</dim>
					<dim>96</dim>
					<dim>160</dim>
				</port>
				<port id="1" precision="FP16">
					<dim>1</dim>
					<dim>32</dim>
					<dim>1</dim>
					<dim>1</dim>
				</port>
			</input>
			<output>
				<port id="2" names="1819" precision="FP16">
					<dim>1</dim>
					<dim>32</dim>
					<dim>96</dim>
					<dim>160</dim>
				</port>
			</output>
		</layer>
		<layer id="58" name="69250451" type="Const" version="opset1">
			<data element_type="f16" offset="3712" shape="1, 1, 1, 1" size="2"/>
			<output>
				<port id="0" names="692" precision="FP16">
					<dim>1</dim>
					<dim>1</dim>
					<dim>1</dim>
					<dim>1</dim>
				</port>
			</output>
		</layer>
		<layer id="59" name="Add_61" type="Add" version="opset1">
			<data auto_broadcast="numpy"/>
			<input>
				<port id="0" precision="FP16">
					<dim>1</dim>
					<dim>32</dim>
					<dim>96</dim>
					<dim>160</dim>
				</port>
				<port id="1" precision="FP16">
					<dim>1</dim>
					<dim>1</dim>
					<dim>1</dim>
					<dim>1</dim>
				</port>
			</input>
			<output>
				<port id="2" names="713" precision="FP16">
					<dim>1</dim>
					<dim>32</dim>
					<dim>96</dim>
					<dim>160</dim>
				</port>
			</output>
		</layer>
		<layer id="60" name="Clip_64" type="Clamp" version="opset1">
			<data max="6" min="0"/>
			<input>
				<port id="0" precision="FP16">
					<dim>1</dim>
					<dim>32</dim>
					<dim>96</dim>
					<dim>160</dim>
				</port>
			</input>
			<output>
				<port id="1" names="716" precision="FP16">
					<dim>1</dim>
					<dim>32</dim>
					<dim>96</dim>
					<dim>160</dim>
				</port>
			</output>
		</layer>
		<layer id="61" name="69549746" type="Const" version="opset1">
			<data element_type="f16" offset="3714" shape="1, 1, 1, 1" size="2"/>
			<output>
				<port id="0" names="695" precision="FP16">
					<dim>1</dim>
					<dim>1</dim>
					<dim>1</dim>
					<dim>1</dim>
				</port>
			</output>
		</layer>
		<layer id="62" name="Div_66" type="Multiply" version="opset1">
			<data auto_broadcast="numpy"/>
			<input>
				<port id="0" precision="FP16">
					<dim>1</dim>
					<dim>32</dim>
					<dim>96</dim>
					<dim>160</dim>
				</port>
				<port id="1" precision="FP16">
					<dim>1</dim>
					<dim>1</dim>
					<dim>1</dim>
					<dim>1</dim>
				</port>
			</input>
			<output>
				<port id="2" names="718" precision="FP16">
					<dim>1</dim>
					<dim>32</dim>
					<dim>96</dim>
					<dim>160</dim>
				</port>
			</output>
		</layer>
		<layer id="63" name="Mul_67" type="Multiply" version="opset1">
			<data auto_broadcast="numpy"/>
			<input>
				<port id="0" precision="FP16">
					<dim>1</dim>
					<dim>32</dim>
					<dim>96</dim>
					<dim>160</dim>
				</port>
				<port id="1" precision="FP16">
					<dim>1</dim>
					<dim>32</dim>
					<dim>96</dim>
					<dim>160</dim>
				</port>
			</input>
			<output>
				<port id="2" names="719" precision="FP16">
					<dim>1</dim>
					<dim>32</dim>
					<dim>96</dim>
					<dim>160</dim>
				</port>
			</output>
		</layer>
		<layer id="64" name="1823" type="Const" version="opset1">
			<data element_type="f16" offset="5124" shape="16, 32, 1, 1" size="1024"/>
			<output>
				<port id="0" names="1823" precision="FP16">
					<dim>16</dim>
					<dim>32</dim>
					<dim>1</dim>
					<dim>1</dim>
				</port>
			</output>
		</layer>
		<layer id="65" name="Conv_68/WithoutBiases" type="Convolution" version="opset1">
			<data auto_pad="explicit" dilations="1, 1" pads_begin="0, 0" pads_end="0, 0" strides="1, 1"/>
			<input>
				<port id="0" precision="FP16">
					<dim>1</dim>
					<dim>32</dim>
					<dim>96</dim>
					<dim>160</dim>
				</port>
				<port id="1" precision="FP16">
					<dim>16</dim>
					<dim>32</dim>
					<dim>1</dim>
					<dim>1</dim>
				</port>
			</input>
			<output>
				<port id="2" precision="FP16">
					<dim>1</dim>
					<dim>16</dim>
					<dim>96</dim>
					<dim>160</dim>
				</port>
			</output>
		</layer>
		<layer id="66" name="Conv_68/Dims11639" type="Const" version="opset1">
			<data element_type="f16" offset="6148" shape="1, 16, 1, 1" size="32"/>
			<output>
				<port id="0" precision="FP16">
					<dim>1</dim>
					<dim>16</dim>
					<dim>1</dim>
					<dim>1</dim>
				</port>
			</output>
		</layer>
		<layer id="67" name="Conv_68" type="Add" version="opset1">
			<data auto_broadcast="numpy"/>
			<input>
				<port id="0" precision="FP16">
					<dim>1</dim>
					<dim>16</dim>
					<dim>96</dim>
					<dim>160</dim>
				</port>
				<port id="1" precision="FP16">
					<dim>1</dim>
					<dim>16</dim>
					<dim>1</dim>
					<dim>1</dim>
				</port>
			</input>
			<output>
				<port id="2" names="1822" precision="FP16">
					<dim>1</dim>
					<dim>16</dim>
					<dim>96</dim>
					<dim>160</dim>
				</port>
			</output>
		</layer>
		<layer id="68" name="69250133" type="Const" version="opset1">
			<data element_type="f16" offset="3712" shape="1, 1, 1, 1" size="2"/>
			<output>
				<port id="0" names="692" precision="FP16">
					<dim>1</dim>
					<dim>1</dim>
					<dim>1</dim>
					<dim>1</dim>
				</port>
			</output>
		</layer>
		<layer id="69" name="Add_70" type="Add" version="opset1">
			<data auto_broadcast="numpy"/>
			<input>
				<port id="0" precision="FP16">
					<dim>1</dim>
					<dim>16</dim>
					<dim>96</dim>
					<dim>160</dim>
				</port>
				<port id="1" precision="FP16">
					<dim>1</dim>
					<dim>1</dim>
					<dim>1</dim>
					<dim>1</dim>
				</port>
			</input>
			<output>
				<port id="2" names="723" precision="FP16">
					<dim>1</dim>
					<dim>16</dim>
					<dim>96</dim>
					<dim>160</dim>
				</port>
			</output>
		</layer>
		<layer id="70" name="Clip_73" type="Clamp" version="opset1">
			<data max="6" min="0"/>
			<input>
				<port id="0" precision="FP16">
					<dim>1</dim>
					<dim>16</dim>
					<dim>96</dim>
					<dim>160</dim>
				</port>
			</input>
			<output>
				<port id="1" names="726" precision="FP16">
					<dim>1</dim>
					<dim>16</dim>
					<dim>96</dim>
					<dim>160</dim>
				</port>
			</output>
		</layer>
		<layer id="71" name="69550349" type="Const" version="opset1">
			<data element_type="f16" offset="3714" shape="1, 1, 1, 1" size="2"/>
			<output>
				<port id="0" names="695" precision="FP16">
					<dim>1</dim>
					<dim>1</dim>
					<dim>1</dim>
					<dim>1</dim>
				</port>
			</output>
		</layer>
		<layer id="72" name="Div_75" type="Multiply" version="opset1">
			<data auto_broadcast="numpy"/>
			<input>
				<port id="0" precision="FP16">
					<dim>1</dim>
					<dim>16</dim>
					<dim>96</dim>
					<dim>160</dim>
				</port>
				<port id="1" precision="FP16">
					<dim>1</dim>
					<dim>1</dim>
					<dim>1</dim>
					<dim>1</dim>
				</port>
			</input>
			<output>
				<port id="2" names="728" precision="FP16">
					<dim>1</dim>
					<dim>16</dim>
					<dim>96</dim>
					<dim>160</dim>
				</port>
			</output>
		</layer>
		<layer id="73" name="Mul_76" type="Multiply" version="opset1">
			<data auto_broadcast="numpy"/>
			<input>
				<port id="0" precision="FP16">
					<dim>1</dim>
					<dim>16</dim>
					<dim>96</dim>
					<dim>160</dim>
				</port>
				<port id="1" precision="FP16">
					<dim>1</dim>
					<dim>16</dim>
					<dim>96</dim>
					<dim>160</dim>
				</port>
			</input>
			<output>
				<port id="2" names="729" precision="FP16">
					<dim>1</dim>
					<dim>16</dim>
					<dim>96</dim>
					<dim>160</dim>
				</port>
			</output>
		</layer>
		<layer id="74" name="1829" type="Const" version="opset1">
			<data element_type="f16" offset="6180" shape="16, 16, 1, 1" size="512"/>
			<output>
				<port id="0" names="1829" precision="FP16">
					<dim>16</dim>
					<dim>16</dim>
					<dim>1</dim>
					<dim>1</dim>
				</port>
			</output>
		</layer>
		<layer id="75" name="Conv_86/WithoutBiases" type="Convolution" version="opset1">
			<data auto_pad="explicit" dilations="1, 1" pads_begin="0, 0" pads_end="0, 0" strides="1, 1"/>
			<input>
				<port id="0" precision="FP16">
					<dim>1</dim>
					<dim>16</dim>
					<dim>96</dim>
					<dim>160</dim>
				</port>
				<port id="1" precision="FP16">
					<dim>16</dim>
					<dim>16</dim>
					<dim>1</dim>
					<dim>1</dim>
				</port>
			</input>
			<output>
				<port id="2" precision="FP16">
					<dim>1</dim>
					<dim>16</dim>
					<dim>96</dim>
					<dim>160</dim>
				</port>
			</output>
		</layer>
		<layer id="76" name="Conv_86/Dims11651" type="Const" version="opset1">
			<data element_type="f16" offset="6692" shape="1, 16, 1, 1" size="32"/>
			<output>
				<port id="0" precision="FP16">
					<dim>1</dim>
					<dim>16</dim>
					<dim>1</dim>
					<dim>1</dim>
				</port>
			</output>
		</layer>
		<layer id="77" name="Conv_86" type="Add" version="opset1">
			<data auto_broadcast="numpy"/>
			<input>
				<port id="0" precision="FP16">
					<dim>1</dim>
					<dim>16</dim>
					<dim>96</dim>
					<dim>160</dim>
				</port>
				<port id="1" precision="FP16">
					<dim>1</dim>
					<dim>16</dim>
					<dim>1</dim>
					<dim>1</dim>
				</port>
			</input>
			<output>
				<port id="2" names="1828" precision="FP16">
					<dim>1</dim>
					<dim>16</dim>
					<dim>96</dim>
					<dim>160</dim>
				</port>
			</output>
		</layer>
		<layer id="78" name="69250511" type="Const" version="opset1">
			<data element_type="f16" offset="3712" shape="1, 1, 1, 1" size="2"/>
			<output>
				<port id="0" names="692" precision="FP16">
					<dim>1</dim>
					<dim>1</dim>
					<dim>1</dim>
					<dim>1</dim>
				</port>
			</output>
		</layer>
		<layer id="79" name="Add_88" type="Add" version="opset1">
			<data auto_broadcast="numpy"/>
			<input>
				<port id="0" precision="FP16">
					<dim>1</dim>
					<dim>16</dim>
					<dim>96</dim>
					<dim>160</dim>
				</port>
				<port id="1" precision="FP16">
					<dim>1</dim>
					<dim>1</dim>
					<dim>1</dim>
					<dim>1</dim>
				</port>
			</input>
			<output>
				<port id="2" names="743" precision="FP16">
					<dim>1</dim>
					<dim>16</dim>
					<dim>96</dim>
					<dim>160</dim>
				</port>
			</output>
		</layer>
		<layer id="80" name="Clip_91" type="Clamp" version="opset1">
			<data max="6" min="0"/>
			<input>
				<port id="0" precision="FP16">
					<dim>1</dim>
					<dim>16</dim>
					<dim>96</dim>
					<dim>160</dim>
				</port>
			</input>
			<output>
				<port id="1" names="746" precision="FP16">
					<dim>1</dim>
					<dim>16</dim>
					<dim>96</dim>
					<dim>160</dim>
				</port>
			</output>
		</layer>
		<layer id="81" name="69550268" type="Const" version="opset1">
			<data element_type="f16" offset="3714" shape="1, 1, 1, 1" size="2"/>
			<output>
				<port id="0" names="695" precision="FP16">
					<dim>1</dim>
					<dim>1</dim>
					<dim>1</dim>
					<dim>1</dim>
				</port>
			</output>
		</layer>
		<layer id="82" name="Div_93" type="Multiply" version="opset1">
			<data auto_broadcast="numpy"/>
			<input>
				<port id="0" precision="FP16">
					<dim>1</dim>
					<dim>16</dim>
					<dim>96</dim>
					<dim>160</dim>
				</port>
				<port id="1" precision="FP16">
					<dim>1</dim>
					<dim>1</dim>
					<dim>1</dim>
					<dim>1</dim>
				</port>
			</input>
			<output>
				<port id="2" names="748" precision="FP16">
					<dim>1</dim>
					<dim>16</dim>
					<dim>96</dim>
					<dim>160</dim>
				</port>
			</output>
		</layer>
		<layer id="83" name="Mul_94" type="Multiply" version="opset1">
			<data auto_broadcast="numpy"/>
			<input>
				<port id="0" precision="FP16">
					<dim>1</dim>
					<dim>16</dim>
					<dim>96</dim>
					<dim>160</dim>
				</port>
				<port id="1" precision="FP16">
					<dim>1</dim>
					<dim>16</dim>
					<dim>96</dim>
					<dim>160</dim>
				</port>
			</input>
			<output>
				<port id="2" names="749" precision="FP16">
					<dim>1</dim>
					<dim>16</dim>
					<dim>96</dim>
					<dim>160</dim>
				</port>
			</output>
		</layer>
		<layer id="84" name="1832" type="Const" version="opset1">
			<data element_type="f16" offset="6724" shape="16, 1, 1, 3, 3" size="288"/>
			<output>
				<port id="0" names="1832" precision="FP16">
					<dim>16</dim>
					<dim>1</dim>
					<dim>1</dim>
					<dim>3</dim>
					<dim>3</dim>
				</port>
			</output>
		</layer>
		<layer id="85" name="Conv_95/WithoutBiases" type="GroupConvolution" version="opset1">
			<data auto_pad="explicit" dilations="1, 1" pads_begin="1, 1" pads_end="1, 1" strides="1, 1"/>
			<input>
				<port id="0" precision="FP16">
					<dim>1</dim>
					<dim>16</dim>
					<dim>96</dim>
					<dim>160</dim>
				</port>
				<port id="1" precision="FP16">
					<dim>16</dim>
					<dim>1</dim>
					<dim>1</dim>
					<dim>3</dim>
					<dim>3</dim>
				</port>
			</input>
			<output>
				<port id="2" precision="FP16">
					<dim>1</dim>
					<dim>16</dim>
					<dim>96</dim>
					<dim>160</dim>
				</port>
			</output>
		</layer>
		<layer id="86" name="Conv_95/Dims11375" type="Const" version="opset1">
			<data element_type="f16" offset="7012" shape="1, 16, 1, 1" size="32"/>
			<output>
				<port id="0" precision="FP16">
					<dim>1</dim>
					<dim>16</dim>
					<dim>1</dim>
					<dim>1</dim>
				</port>
			</output>
		</layer>
		<layer id="87" name="Conv_95" type="Add" version="opset1">
			<data auto_broadcast="numpy"/>
			<input>
				<port id="0" precision="FP16">
					<dim>1</dim>
					<dim>16</dim>
					<dim>96</dim>
					<dim>160</dim>
				</port>
				<port id="1" precision="FP16">
					<dim>1</dim>
					<dim>16</dim>
					<dim>1</dim>
					<dim>1</dim>
				</port>
			</input>
			<output>
				<port id="2" names="1831" precision="FP16">
					<dim>1</dim>
					<dim>16</dim>
					<dim>96</dim>
					<dim>160</dim>
				</port>
			</output>
		</layer>
		<layer id="88" name="69249773" type="Const" version="opset1">
			<data element_type="f16" offset="3712" shape="1, 1, 1, 1" size="2"/>
			<output>
				<port id="0" names="692" precision="FP16">
					<dim>1</dim>
					<dim>1</dim>
					<dim>1</dim>
					<dim>1</dim>
				</port>
			</output>
		</layer>
		<layer id="89" name="Add_97" type="Add" version="opset1">
			<data auto_broadcast="numpy"/>
			<input>
				<port id="0" precision="FP16">
					<dim>1</dim>
					<dim>16</dim>
					<dim>96</dim>
					<dim>160</dim>
				</port>
				<port id="1" precision="FP16">
					<dim>1</dim>
					<dim>1</dim>
					<dim>1</dim>
					<dim>1</dim>
				</port>
			</input>
			<output>
				<port id="2" names="753" precision="FP16">
					<dim>1</dim>
					<dim>16</dim>
					<dim>96</dim>
					<dim>160</dim>
				</port>
			</output>
		</layer>
		<layer id="90" name="Clip_100" type="Clamp" version="opset1">
			<data max="6" min="0"/>
			<input>
				<port id="0" precision="FP16">
					<dim>1</dim>
					<dim>16</dim>
					<dim>96</dim>
					<dim>160</dim>
				</port>
			</input>
			<output>
				<port id="1" names="756" precision="FP16">
					<dim>1</dim>
					<dim>16</dim>
					<dim>96</dim>
					<dim>160</dim>
				</port>
			</output>
		</layer>
		<layer id="91" name="69550271" type="Const" version="opset1">
			<data element_type="f16" offset="3714" shape="1, 1, 1, 1" size="2"/>
			<output>
				<port id="0" names="695" precision="FP16">
					<dim>1</dim>
					<dim>1</dim>
					<dim>1</dim>
					<dim>1</dim>
				</port>
			</output>
		</layer>
		<layer id="92" name="Div_102" type="Multiply" version="opset1">
			<data auto_broadcast="numpy"/>
			<input>
				<port id="0" precision="FP16">
					<dim>1</dim>
					<dim>16</dim>
					<dim>96</dim>
					<dim>160</dim>
				</port>
				<port id="1" precision="FP16">
					<dim>1</dim>
					<dim>1</dim>
					<dim>1</dim>
					<dim>1</dim>
				</port>
			</input>
			<output>
				<port id="2" names="758" precision="FP16">
					<dim>1</dim>
					<dim>16</dim>
					<dim>96</dim>
					<dim>160</dim>
				</port>
			</output>
		</layer>
		<layer id="93" name="Mul_103" type="Multiply" version="opset1">
			<data auto_broadcast="numpy"/>
			<input>
				<port id="0" precision="FP16">
					<dim>1</dim>
					<dim>16</dim>
					<dim>96</dim>
					<dim>160</dim>
				</port>
				<port id="1" precision="FP16">
					<dim>1</dim>
					<dim>16</dim>
					<dim>96</dim>
					<dim>160</dim>
				</port>
			</input>
			<output>
				<port id="2" names="759" precision="FP16">
					<dim>1</dim>
					<dim>16</dim>
					<dim>96</dim>
					<dim>160</dim>
				</port>
			</output>
		</layer>
		<layer id="94" name="1835" type="Const" version="opset1">
			<data element_type="f16" offset="7044" shape="16, 16, 1, 1" size="512"/>
			<output>
				<port id="0" names="1835" precision="FP16">
					<dim>16</dim>
					<dim>16</dim>
					<dim>1</dim>
					<dim>1</dim>
				</port>
			</output>
		</layer>
		<layer id="95" name="Conv_104/WithoutBiases" type="Convolution" version="opset1">
			<data auto_pad="explicit" dilations="1, 1" pads_begin="0, 0" pads_end="0, 0" strides="1, 1"/>
			<input>
				<port id="0" precision="FP16">
					<dim>1</dim>
					<dim>16</dim>
					<dim>96</dim>
					<dim>160</dim>
				</port>
				<port id="1" precision="FP16">
					<dim>16</dim>
					<dim>16</dim>
					<dim>1</dim>
					<dim>1</dim>
				</port>
			</input>
			<output>
				<port id="2" precision="FP16">
					<dim>1</dim>
					<dim>16</dim>
					<dim>96</dim>
					<dim>160</dim>
				</port>
			</output>
		</layer>
		<layer id="96" name="Conv_104/Dims11621" type="Const" version="opset1">
			<data element_type="f16" offset="7556" shape="1, 16, 1, 1" size="32"/>
			<output>
				<port id="0" precision="FP16">
					<dim>1</dim>
					<dim>16</dim>
					<dim>1</dim>
					<dim>1</dim>
				</port>
			</output>
		</layer>
		<layer id="97" name="Conv_104" type="Add" version="opset1">
			<data auto_broadcast="numpy"/>
			<input>
				<port id="0" precision="FP16">
					<dim>1</dim>
					<dim>16</dim>
					<dim>96</dim>
					<dim>160</dim>
				</port>
				<port id="1" precision="FP16">
					<dim>1</dim>
					<dim>16</dim>
					<dim>1</dim>
					<dim>1</dim>
				</port>
			</input>
			<output>
				<port id="2" names="1834" precision="FP16">
					<dim>1</dim>
					<dim>16</dim>
					<dim>96</dim>
					<dim>160</dim>
				</port>
			</output>
		</layer>
		<layer id="98" name="69250052" type="Const" version="opset1">
			<data element_type="f16" offset="3712" shape="1, 1, 1, 1" size="2"/>
			<output>
				<port id="0" names="692" precision="FP16">
					<dim>1</dim>
					<dim>1</dim>
					<dim>1</dim>
					<dim>1</dim>
				</port>
			</output>
		</layer>
		<layer id="99" name="Add_106" type="Add" version="opset1">
			<data auto_broadcast="numpy"/>
			<input>
				<port id="0" precision="FP16">
					<dim>1</dim>
					<dim>16</dim>
					<dim>96</dim>
					<dim>160</dim>
				</port>
				<port id="1" precision="FP16">
					<dim>1</dim>
					<dim>1</dim>
					<dim>1</dim>
					<dim>1</dim>
				</port>
			</input>
			<output>
				<port id="2" names="763" precision="FP16">
					<dim>1</dim>
					<dim>16</dim>
					<dim>96</dim>
					<dim>160</dim>
				</port>
			</output>
		</layer>
		<layer id="100" name="Clip_109" type="Clamp" version="opset1">
			<data max="6" min="0"/>
			<input>
				<port id="0" precision="FP16">
					<dim>1</dim>
					<dim>16</dim>
					<dim>96</dim>
					<dim>160</dim>
				</port>
			</input>
			<output>
				<port id="1" names="766" precision="FP16">
					<dim>1</dim>
					<dim>16</dim>
					<dim>96</dim>
					<dim>160</dim>
				</port>
			</output>
		</layer>
		<layer id="101" name="695" type="Const" version="opset1">
			<data element_type="f16" offset="3714" shape="1, 1, 1, 1" size="2"/>
			<output>
				<port id="0" names="695" precision="FP16">
					<dim>1</dim>
					<dim>1</dim>
					<dim>1</dim>
					<dim>1</dim>
				</port>
			</output>
		</layer>
		<layer id="102" name="Div_111" type="Multiply" version="opset1">
			<data auto_broadcast="numpy"/>
			<input>
				<port id="0" precision="FP16">
					<dim>1</dim>
					<dim>16</dim>
					<dim>96</dim>
					<dim>160</dim>
				</port>
				<port id="1" precision="FP16">
					<dim>1</dim>
					<dim>1</dim>
					<dim>1</dim>
					<dim>1</dim>
				</port>
			</input>
			<output>
				<port id="2" names="768" precision="FP16">
					<dim>1</dim>
					<dim>16</dim>
					<dim>96</dim>
					<dim>160</dim>
				</port>
			</output>
		</layer>
		<layer id="103" name="Mul_112" type="Multiply" version="opset1">
			<data auto_broadcast="numpy"/>
			<input>
				<port id="0" precision="FP16">
					<dim>1</dim>
					<dim>16</dim>
					<dim>96</dim>
					<dim>160</dim>
				</port>
				<port id="1" precision="FP16">
					<dim>1</dim>
					<dim>16</dim>
					<dim>96</dim>
					<dim>160</dim>
				</port>
			</input>
			<output>
				<port id="2" names="769" precision="FP16">
					<dim>1</dim>
					<dim>16</dim>
					<dim>96</dim>
					<dim>160</dim>
				</port>
			</output>
		</layer>
		<layer id="104" name="Add_113" type="Add" version="opset1">
			<data auto_broadcast="numpy"/>
			<input>
				<port id="0" precision="FP16">
					<dim>1</dim>
					<dim>16</dim>
					<dim>96</dim>
					<dim>160</dim>
				</port>
				<port id="1" precision="FP16">
					<dim>1</dim>
					<dim>16</dim>
					<dim>96</dim>
					<dim>160</dim>
				</port>
			</input>
			<output>
				<port id="2" names="770" precision="FP16">
					<dim>1</dim>
					<dim>16</dim>
					<dim>96</dim>
					<dim>160</dim>
				</port>
			</output>
		</layer>
		<layer id="105" name="1826" type="Const" version="opset1">
			<data element_type="f16" offset="7588" shape="16, 32, 1, 1" size="1024"/>
			<output>
				<port id="0" names="1826" precision="FP16">
					<dim>16</dim>
					<dim>32</dim>
					<dim>1</dim>
					<dim>1</dim>
				</port>
			</output>
		</layer>
		<layer id="106" name="Conv_77/WithoutBiases" type="Convolution" version="opset1">
			<data auto_pad="explicit" dilations="1, 1" pads_begin="0, 0" pads_end="0, 0" strides="1, 1"/>
			<input>
				<port id="0" precision="FP16">
					<dim>1</dim>
					<dim>32</dim>
					<dim>96</dim>
					<dim>160</dim>
				</port>
				<port id="1" precision="FP16">
					<dim>16</dim>
					<dim>32</dim>
					<dim>1</dim>
					<dim>1</dim>
				</port>
			</input>
			<output>
				<port id="2" precision="FP16">
					<dim>1</dim>
					<dim>16</dim>
					<dim>96</dim>
					<dim>160</dim>
				</port>
			</output>
		</layer>
		<layer id="107" name="Conv_77/Dims11549" type="Const" version="opset1">
			<data element_type="f16" offset="8612" shape="1, 16, 1, 1" size="32"/>
			<output>
				<port id="0" precision="FP16">
					<dim>1</dim>
					<dim>16</dim>
					<dim>1</dim>
					<dim>1</dim>
				</port>
			</output>
		</layer>
		<layer id="108" name="Conv_77" type="Add" version="opset1">
			<data auto_broadcast="numpy"/>
			<input>
				<port id="0" precision="FP16">
					<dim>1</dim>
					<dim>16</dim>
					<dim>96</dim>
					<dim>160</dim>
				</port>
				<port id="1" precision="FP16">
					<dim>1</dim>
					<dim>16</dim>
					<dim>1</dim>
					<dim>1</dim>
				</port>
			</input>
			<output>
				<port id="2" names="1825" precision="FP16">
					<dim>1</dim>
					<dim>16</dim>
					<dim>96</dim>
					<dim>160</dim>
				</port>
			</output>
		</layer>
		<layer id="109" name="69249563" type="Const" version="opset1">
			<data element_type="f16" offset="3712" shape="1, 1, 1, 1" size="2"/>
			<output>
				<port id="0" names="692" precision="FP16">
					<dim>1</dim>
					<dim>1</dim>
					<dim>1</dim>
					<dim>1</dim>
				</port>
			</output>
		</layer>
		<layer id="110" name="Add_79" type="Add" version="opset1">
			<data auto_broadcast="numpy"/>
			<input>
				<port id="0" precision="FP16">
					<dim>1</dim>
					<dim>16</dim>
					<dim>96</dim>
					<dim>160</dim>
				</port>
				<port id="1" precision="FP16">
					<dim>1</dim>
					<dim>1</dim>
					<dim>1</dim>
					<dim>1</dim>
				</port>
			</input>
			<output>
				<port id="2" names="733" precision="FP16">
					<dim>1</dim>
					<dim>16</dim>
					<dim>96</dim>
					<dim>160</dim>
				</port>
			</output>
		</layer>
		<layer id="111" name="Clip_82" type="Clamp" version="opset1">
			<data max="6" min="0"/>
			<input>
				<port id="0" precision="FP16">
					<dim>1</dim>
					<dim>16</dim>
					<dim>96</dim>
					<dim>160</dim>
				</port>
			</input>
			<output>
				<port id="1" names="736" precision="FP16">
					<dim>1</dim>
					<dim>16</dim>
					<dim>96</dim>
					<dim>160</dim>
				</port>
			</output>
		</layer>
		<layer id="112" name="69550235" type="Const" version="opset1">
			<data element_type="f16" offset="3714" shape="1, 1, 1, 1" size="2"/>
			<output>
				<port id="0" names="695" precision="FP16">
					<dim>1</dim>
					<dim>1</dim>
					<dim>1</dim>
					<dim>1</dim>
				</port>
			</output>
		</layer>
		<layer id="113" name="Div_84" type="Multiply" version="opset1">
			<data auto_broadcast="numpy"/>
			<input>
				<port id="0" precision="FP16">
					<dim>1</dim>
					<dim>16</dim>
					<dim>96</dim>
					<dim>160</dim>
				</port>
				<port id="1" precision="FP16">
					<dim>1</dim>
					<dim>1</dim>
					<dim>1</dim>
					<dim>1</dim>
				</port>
			</input>
			<output>
				<port id="2" names="738" precision="FP16">
					<dim>1</dim>
					<dim>16</dim>
					<dim>96</dim>
					<dim>160</dim>
				</port>
			</output>
		</layer>
		<layer id="114" name="Mul_85" type="Multiply" version="opset1">
			<data auto_broadcast="numpy"/>
			<input>
				<port id="0" precision="FP16">
					<dim>1</dim>
					<dim>16</dim>
					<dim>96</dim>
					<dim>160</dim>
				</port>
				<port id="1" precision="FP16">
					<dim>1</dim>
					<dim>16</dim>
					<dim>96</dim>
					<dim>160</dim>
				</port>
			</input>
			<output>
				<port id="2" names="739" precision="FP16">
					<dim>1</dim>
					<dim>16</dim>
					<dim>96</dim>
					<dim>160</dim>
				</port>
			</output>
		</layer>
		<layer id="115" name="Concat_114" type="Concat" version="opset1">
			<data axis="1"/>
			<input>
				<port id="0" precision="FP16">
					<dim>1</dim>
					<dim>16</dim>
					<dim>96</dim>
					<dim>160</dim>
				</port>
				<port id="1" precision="FP16">
					<dim>1</dim>
					<dim>16</dim>
					<dim>96</dim>
					<dim>160</dim>
				</port>
			</input>
			<output>
				<port id="2" names="771" precision="FP16">
					<dim>1</dim>
					<dim>32</dim>
					<dim>96</dim>
					<dim>160</dim>
				</port>
			</output>
		</layer>
		<layer id="116" name="1838" type="Const" version="opset1">
			<data element_type="f16" offset="8644" shape="32, 32, 1, 1" size="2048"/>
			<output>
				<port id="0" names="1838" precision="FP16">
					<dim>32</dim>
					<dim>32</dim>
					<dim>1</dim>
					<dim>1</dim>
				</port>
			</output>
		</layer>
		<layer id="117" name="Conv_115/WithoutBiases" type="Convolution" version="opset1">
			<data auto_pad="explicit" dilations="1, 1" pads_begin="0, 0" pads_end="0, 0" strides="1, 1"/>
			<input>
				<port id="0" precision="FP16">
					<dim>1</dim>
					<dim>32</dim>
					<dim>96</dim>
					<dim>160</dim>
				</port>
				<port id="1" precision="FP16">
					<dim>32</dim>
					<dim>32</dim>
					<dim>1</dim>
					<dim>1</dim>
				</port>
			</input>
			<output>
				<port id="2" precision="FP16">
					<dim>1</dim>
					<dim>32</dim>
					<dim>96</dim>
					<dim>160</dim>
				</port>
			</output>
		</layer>
		<layer id="118" name="Conv_115/Dims11213" type="Const" version="opset1">
			<data element_type="f16" offset="10692" shape="1, 32, 1, 1" size="64"/>
			<output>
				<port id="0" precision="FP16">
					<dim>1</dim>
					<dim>32</dim>
					<dim>1</dim>
					<dim>1</dim>
				</port>
			</output>
		</layer>
		<layer id="119" name="Conv_115" type="Add" version="opset1">
			<data auto_broadcast="numpy"/>
			<input>
				<port id="0" precision="FP16">
					<dim>1</dim>
					<dim>32</dim>
					<dim>96</dim>
					<dim>160</dim>
				</port>
				<port id="1" precision="FP16">
					<dim>1</dim>
					<dim>32</dim>
					<dim>1</dim>
					<dim>1</dim>
				</port>
			</input>
			<output>
				<port id="2" names="1837" precision="FP16">
					<dim>1</dim>
					<dim>32</dim>
					<dim>96</dim>
					<dim>160</dim>
				</port>
			</output>
		</layer>
		<layer id="120" name="69250175" type="Const" version="opset1">
			<data element_type="f16" offset="3712" shape="1, 1, 1, 1" size="2"/>
			<output>
				<port id="0" names="692" precision="FP16">
					<dim>1</dim>
					<dim>1</dim>
					<dim>1</dim>
					<dim>1</dim>
				</port>
			</output>
		</layer>
		<layer id="121" name="Add_117" type="Add" version="opset1">
			<data auto_broadcast="numpy"/>
			<input>
				<port id="0" precision="FP16">
					<dim>1</dim>
					<dim>32</dim>
					<dim>96</dim>
					<dim>160</dim>
				</port>
				<port id="1" precision="FP16">
					<dim>1</dim>
					<dim>1</dim>
					<dim>1</dim>
					<dim>1</dim>
				</port>
			</input>
			<output>
				<port id="2" names="775" precision="FP16">
					<dim>1</dim>
					<dim>32</dim>
					<dim>96</dim>
					<dim>160</dim>
				</port>
			</output>
		</layer>
		<layer id="122" name="Clip_120" type="Clamp" version="opset1">
			<data max="6" min="0"/>
			<input>
				<port id="0" precision="FP16">
					<dim>1</dim>
					<dim>32</dim>
					<dim>96</dim>
					<dim>160</dim>
				</port>
			</input>
			<output>
				<port id="1" names="778" precision="FP16">
					<dim>1</dim>
					<dim>32</dim>
					<dim>96</dim>
					<dim>160</dim>
				</port>
			</output>
		</layer>
		<layer id="123" name="69549416" type="Const" version="opset1">
			<data element_type="f16" offset="3714" shape="1, 1, 1, 1" size="2"/>
			<output>
				<port id="0" names="695" precision="FP16">
					<dim>1</dim>
					<dim>1</dim>
					<dim>1</dim>
					<dim>1</dim>
				</port>
			</output>
		</layer>
		<layer id="124" name="Div_122" type="Multiply" version="opset1">
			<data auto_broadcast="numpy"/>
			<input>
				<port id="0" precision="FP16">
					<dim>1</dim>
					<dim>32</dim>
					<dim>96</dim>
					<dim>160</dim>
				</port>
				<port id="1" precision="FP16">
					<dim>1</dim>
					<dim>1</dim>
					<dim>1</dim>
					<dim>1</dim>
				</port>
			</input>
			<output>
				<port id="2" names="780" precision="FP16">
					<dim>1</dim>
					<dim>32</dim>
					<dim>96</dim>
					<dim>160</dim>
				</port>
			</output>
		</layer>
		<layer id="125" name="Mul_123" type="Multiply" version="opset1">
			<data auto_broadcast="numpy"/>
			<input>
				<port id="0" precision="FP16">
					<dim>1</dim>
					<dim>32</dim>
					<dim>96</dim>
					<dim>160</dim>
				</port>
				<port id="1" precision="FP16">
					<dim>1</dim>
					<dim>32</dim>
					<dim>96</dim>
					<dim>160</dim>
				</port>
			</input>
			<output>
				<port id="2" names="781" precision="FP16">
					<dim>1</dim>
					<dim>32</dim>
					<dim>96</dim>
					<dim>160</dim>
				</port>
			</output>
		</layer>
		<layer id="126" name="1841" type="Const" version="opset1">
			<data element_type="f16" offset="10756" shape="32, 1, 1, 3, 3" size="576"/>
			<output>
				<port id="0" names="1841" precision="FP16">
					<dim>32</dim>
					<dim>1</dim>
					<dim>1</dim>
					<dim>3</dim>
					<dim>3</dim>
				</port>
			</output>
		</layer>
		<layer id="127" name="Conv_124/WithoutBiases" type="GroupConvolution" version="opset1">
			<data auto_pad="explicit" dilations="1, 1" pads_begin="1, 1" pads_end="1, 1" strides="2, 2"/>
			<input>
				<port id="0" precision="FP16">
					<dim>1</dim>
					<dim>32</dim>
					<dim>96</dim>
					<dim>160</dim>
				</port>
				<port id="1" precision="FP16">
					<dim>32</dim>
					<dim>1</dim>
					<dim>1</dim>
					<dim>3</dim>
					<dim>3</dim>
				</port>
			</input>
			<output>
				<port id="2" precision="FP16">
					<dim>1</dim>
					<dim>32</dim>
					<dim>48</dim>
					<dim>80</dim>
				</port>
			</output>
		</layer>
		<layer id="128" name="Conv_124/Dims11399" type="Const" version="opset1">
			<data element_type="f16" offset="11332" shape="1, 32, 1, 1" size="64"/>
			<output>
				<port id="0" precision="FP16">
					<dim>1</dim>
					<dim>32</dim>
					<dim>1</dim>
					<dim>1</dim>
				</port>
			</output>
		</layer>
		<layer id="129" name="Conv_124" type="Add" version="opset1">
			<data auto_broadcast="numpy"/>
			<input>
				<port id="0" precision="FP16">
					<dim>1</dim>
					<dim>32</dim>
					<dim>48</dim>
					<dim>80</dim>
				</port>
				<port id="1" precision="FP16">
					<dim>1</dim>
					<dim>32</dim>
					<dim>1</dim>
					<dim>1</dim>
				</port>
			</input>
			<output>
				<port id="2" names="1840" precision="FP16">
					<dim>1</dim>
					<dim>32</dim>
					<dim>48</dim>
					<dim>80</dim>
				</port>
			</output>
		</layer>
		<layer id="130" name="69249845" type="Const" version="opset1">
			<data element_type="f16" offset="3712" shape="1, 1, 1, 1" size="2"/>
			<output>
				<port id="0" names="692" precision="FP16">
					<dim>1</dim>
					<dim>1</dim>
					<dim>1</dim>
					<dim>1</dim>
				</port>
			</output>
		</layer>
		<layer id="131" name="Add_126" type="Add" version="opset1">
			<data auto_broadcast="numpy"/>
			<input>
				<port id="0" precision="FP16">
					<dim>1</dim>
					<dim>32</dim>
					<dim>48</dim>
					<dim>80</dim>
				</port>
				<port id="1" precision="FP16">
					<dim>1</dim>
					<dim>1</dim>
					<dim>1</dim>
					<dim>1</dim>
				</port>
			</input>
			<output>
				<port id="2" names="785" precision="FP16">
					<dim>1</dim>
					<dim>32</dim>
					<dim>48</dim>
					<dim>80</dim>
				</port>
			</output>
		</layer>
		<layer id="132" name="Clip_129" type="Clamp" version="opset1">
			<data max="6" min="0"/>
			<input>
				<port id="0" precision="FP16">
					<dim>1</dim>
					<dim>32</dim>
					<dim>48</dim>
					<dim>80</dim>
				</port>
			</input>
			<output>
				<port id="1" names="788" precision="FP16">
					<dim>1</dim>
					<dim>32</dim>
					<dim>48</dim>
					<dim>80</dim>
				</port>
			</output>
		</layer>
		<layer id="133" name="69549788" type="Const" version="opset1">
			<data element_type="f16" offset="3714" shape="1, 1, 1, 1" size="2"/>
			<output>
				<port id="0" names="695" precision="FP16">
					<dim>1</dim>
					<dim>1</dim>
					<dim>1</dim>
					<dim>1</dim>
				</port>
			</output>
		</layer>
		<layer id="134" name="Div_131" type="Multiply" version="opset1">
			<data auto_broadcast="numpy"/>
			<input>
				<port id="0" precision="FP16">
					<dim>1</dim>
					<dim>32</dim>
					<dim>48</dim>
					<dim>80</dim>
				</port>
				<port id="1" precision="FP16">
					<dim>1</dim>
					<dim>1</dim>
					<dim>1</dim>
					<dim>1</dim>
				</port>
			</input>
			<output>
				<port id="2" names="790" precision="FP16">
					<dim>1</dim>
					<dim>32</dim>
					<dim>48</dim>
					<dim>80</dim>
				</port>
			</output>
		</layer>
		<layer id="135" name="Mul_132" type="Multiply" version="opset1">
			<data auto_broadcast="numpy"/>
			<input>
				<port id="0" precision="FP16">
					<dim>1</dim>
					<dim>32</dim>
					<dim>48</dim>
					<dim>80</dim>
				</port>
				<port id="1" precision="FP16">
					<dim>1</dim>
					<dim>32</dim>
					<dim>48</dim>
					<dim>80</dim>
				</port>
			</input>
			<output>
				<port id="2" names="791" precision="FP16">
					<dim>1</dim>
					<dim>32</dim>
					<dim>48</dim>
					<dim>80</dim>
				</port>
			</output>
		</layer>
		<layer id="136" name="1844" type="Const" version="opset1">
			<data element_type="f16" offset="11396" shape="64, 32, 1, 1" size="4096"/>
			<output>
				<port id="0" names="1844" precision="FP16">
					<dim>64</dim>
					<dim>32</dim>
					<dim>1</dim>
					<dim>1</dim>
				</port>
			</output>
		</layer>
		<layer id="137" name="Conv_133/WithoutBiases" type="Convolution" version="opset1">
			<data auto_pad="explicit" dilations="1, 1" pads_begin="0, 0" pads_end="0, 0" strides="1, 1"/>
			<input>
				<port id="0" precision="FP16">
					<dim>1</dim>
					<dim>32</dim>
					<dim>48</dim>
					<dim>80</dim>
				</port>
				<port id="1" precision="FP16">
					<dim>64</dim>
					<dim>32</dim>
					<dim>1</dim>
					<dim>1</dim>
				</port>
			</input>
			<output>
				<port id="2" precision="FP16">
					<dim>1</dim>
					<dim>64</dim>
					<dim>48</dim>
					<dim>80</dim>
				</port>
			</output>
		</layer>
		<layer id="138" name="Conv_133/Dims11057" type="Const" version="opset1">
			<data element_type="f16" offset="15492" shape="1, 64, 1, 1" size="128"/>
			<output>
				<port id="0" precision="FP16">
					<dim>1</dim>
					<dim>64</dim>
					<dim>1</dim>
					<dim>1</dim>
				</port>
			</output>
		</layer>
		<layer id="139" name="Conv_133" type="Add" version="opset1">
			<data auto_broadcast="numpy"/>
			<input>
				<port id="0" precision="FP16">
					<dim>1</dim>
					<dim>64</dim>
					<dim>48</dim>
					<dim>80</dim>
				</port>
				<port id="1" precision="FP16">
					<dim>1</dim>
					<dim>64</dim>
					<dim>1</dim>
					<dim>1</dim>
				</port>
			</input>
			<output>
				<port id="2" names="1843" precision="FP16">
					<dim>1</dim>
					<dim>64</dim>
					<dim>48</dim>
					<dim>80</dim>
				</port>
			</output>
		</layer>
		<layer id="140" name="69250025" type="Const" version="opset1">
			<data element_type="f16" offset="3712" shape="1, 1, 1, 1" size="2"/>
			<output>
				<port id="0" names="692" precision="FP16">
					<dim>1</dim>
					<dim>1</dim>
					<dim>1</dim>
					<dim>1</dim>
				</port>
			</output>
		</layer>
		<layer id="141" name="Add_135" type="Add" version="opset1">
			<data auto_broadcast="numpy"/>
			<input>
				<port id="0" precision="FP16">
					<dim>1</dim>
					<dim>64</dim>
					<dim>48</dim>
					<dim>80</dim>
				</port>
				<port id="1" precision="FP16">
					<dim>1</dim>
					<dim>1</dim>
					<dim>1</dim>
					<dim>1</dim>
				</port>
			</input>
			<output>
				<port id="2" names="795" precision="FP16">
					<dim>1</dim>
					<dim>64</dim>
					<dim>48</dim>
					<dim>80</dim>
				</port>
			</output>
		</layer>
		<layer id="142" name="Clip_138" type="Clamp" version="opset1">
			<data max="6" min="0"/>
			<input>
				<port id="0" precision="FP16">
					<dim>1</dim>
					<dim>64</dim>
					<dim>48</dim>
					<dim>80</dim>
				</port>
			</input>
			<output>
				<port id="1" names="798" precision="FP16">
					<dim>1</dim>
					<dim>64</dim>
					<dim>48</dim>
					<dim>80</dim>
				</port>
			</output>
		</layer>
		<layer id="143" name="69550346" type="Const" version="opset1">
			<data element_type="f16" offset="3714" shape="1, 1, 1, 1" size="2"/>
			<output>
				<port id="0" names="695" precision="FP16">
					<dim>1</dim>
					<dim>1</dim>
					<dim>1</dim>
					<dim>1</dim>
				</port>
			</output>
		</layer>
		<layer id="144" name="Div_140" type="Multiply" version="opset1">
			<data auto_broadcast="numpy"/>
			<input>
				<port id="0" precision="FP16">
					<dim>1</dim>
					<dim>64</dim>
					<dim>48</dim>
					<dim>80</dim>
				</port>
				<port id="1" precision="FP16">
					<dim>1</dim>
					<dim>1</dim>
					<dim>1</dim>
					<dim>1</dim>
				</port>
			</input>
			<output>
				<port id="2" names="800" precision="FP16">
					<dim>1</dim>
					<dim>64</dim>
					<dim>48</dim>
					<dim>80</dim>
				</port>
			</output>
		</layer>
		<layer id="145" name="Mul_141" type="Multiply" version="opset1">
			<data auto_broadcast="numpy"/>
			<input>
				<port id="0" precision="FP16">
					<dim>1</dim>
					<dim>64</dim>
					<dim>48</dim>
					<dim>80</dim>
				</port>
				<port id="1" precision="FP16">
					<dim>1</dim>
					<dim>64</dim>
					<dim>48</dim>
					<dim>80</dim>
				</port>
			</input>
			<output>
				<port id="2" names="801" precision="FP16">
					<dim>1</dim>
					<dim>64</dim>
					<dim>48</dim>
					<dim>80</dim>
				</port>
			</output>
		</layer>
		<layer id="146" name="1847" type="Const" version="opset1">
			<data element_type="f16" offset="15620" shape="32, 64, 1, 1" size="4096"/>
			<output>
				<port id="0" names="1847" precision="FP16">
					<dim>32</dim>
					<dim>64</dim>
					<dim>1</dim>
					<dim>1</dim>
				</port>
			</output>
		</layer>
		<layer id="147" name="Conv_142/WithoutBiases" type="Convolution" version="opset1">
			<data auto_pad="explicit" dilations="1, 1" pads_begin="0, 0" pads_end="0, 0" strides="1, 1"/>
			<input>
				<port id="0" precision="FP16">
					<dim>1</dim>
					<dim>64</dim>
					<dim>48</dim>
					<dim>80</dim>
				</port>
				<port id="1" precision="FP16">
					<dim>32</dim>
					<dim>64</dim>
					<dim>1</dim>
					<dim>1</dim>
				</port>
			</input>
			<output>
				<port id="2" precision="FP16">
					<dim>1</dim>
					<dim>32</dim>
					<dim>48</dim>
					<dim>80</dim>
				</port>
			</output>
		</layer>
		<layer id="148" name="Conv_142/Dims11147" type="Const" version="opset1">
			<data element_type="f16" offset="19716" shape="1, 32, 1, 1" size="64"/>
			<output>
				<port id="0" precision="FP16">
					<dim>1</dim>
					<dim>32</dim>
					<dim>1</dim>
					<dim>1</dim>
				</port>
			</output>
		</layer>
		<layer id="149" name="Conv_142" type="Add" version="opset1">
			<data auto_broadcast="numpy"/>
			<input>
				<port id="0" precision="FP16">
					<dim>1</dim>
					<dim>32</dim>
					<dim>48</dim>
					<dim>80</dim>
				</port>
				<port id="1" precision="FP16">
					<dim>1</dim>
					<dim>32</dim>
					<dim>1</dim>
					<dim>1</dim>
				</port>
			</input>
			<output>
				<port id="2" names="1846" precision="FP16">
					<dim>1</dim>
					<dim>32</dim>
					<dim>48</dim>
					<dim>80</dim>
				</port>
			</output>
		</layer>
		<layer id="150" name="69249155" type="Const" version="opset1">
			<data element_type="f16" offset="3712" shape="1, 1, 1, 1" size="2"/>
			<output>
				<port id="0" names="692" precision="FP16">
					<dim>1</dim>
					<dim>1</dim>
					<dim>1</dim>
					<dim>1</dim>
				</port>
			</output>
		</layer>
		<layer id="151" name="Add_144" type="Add" version="opset1">
			<data auto_broadcast="numpy"/>
			<input>
				<port id="0" precision="FP16">
					<dim>1</dim>
					<dim>32</dim>
					<dim>48</dim>
					<dim>80</dim>
				</port>
				<port id="1" precision="FP16">
					<dim>1</dim>
					<dim>1</dim>
					<dim>1</dim>
					<dim>1</dim>
				</port>
			</input>
			<output>
				<port id="2" names="805" precision="FP16">
					<dim>1</dim>
					<dim>32</dim>
					<dim>48</dim>
					<dim>80</dim>
				</port>
			</output>
		</layer>
		<layer id="152" name="Clip_147" type="Clamp" version="opset1">
			<data max="6" min="0"/>
			<input>
				<port id="0" precision="FP16">
					<dim>1</dim>
					<dim>32</dim>
					<dim>48</dim>
					<dim>80</dim>
				</port>
			</input>
			<output>
				<port id="1" names="808" precision="FP16">
					<dim>1</dim>
					<dim>32</dim>
					<dim>48</dim>
					<dim>80</dim>
				</port>
			</output>
		</layer>
		<layer id="153" name="69550418" type="Const" version="opset1">
			<data element_type="f16" offset="3714" shape="1, 1, 1, 1" size="2"/>
			<output>
				<port id="0" names="695" precision="FP16">
					<dim>1</dim>
					<dim>1</dim>
					<dim>1</dim>
					<dim>1</dim>
				</port>
			</output>
		</layer>
		<layer id="154" name="Div_149" type="Multiply" version="opset1">
			<data auto_broadcast="numpy"/>
			<input>
				<port id="0" precision="FP16">
					<dim>1</dim>
					<dim>32</dim>
					<dim>48</dim>
					<dim>80</dim>
				</port>
				<port id="1" precision="FP16">
					<dim>1</dim>
					<dim>1</dim>
					<dim>1</dim>
					<dim>1</dim>
				</port>
			</input>
			<output>
				<port id="2" names="810" precision="FP16">
					<dim>1</dim>
					<dim>32</dim>
					<dim>48</dim>
					<dim>80</dim>
				</port>
			</output>
		</layer>
		<layer id="155" name="Mul_150" type="Multiply" version="opset1">
			<data auto_broadcast="numpy"/>
			<input>
				<port id="0" precision="FP16">
					<dim>1</dim>
					<dim>32</dim>
					<dim>48</dim>
					<dim>80</dim>
				</port>
				<port id="1" precision="FP16">
					<dim>1</dim>
					<dim>32</dim>
					<dim>48</dim>
					<dim>80</dim>
				</port>
			</input>
			<output>
				<port id="2" names="811" precision="FP16">
					<dim>1</dim>
					<dim>32</dim>
					<dim>48</dim>
					<dim>80</dim>
				</port>
			</output>
		</layer>
		<layer id="156" name="1853" type="Const" version="opset1">
			<data element_type="f16" offset="19780" shape="32, 32, 1, 1" size="2048"/>
			<output>
				<port id="0" names="1853" precision="FP16">
					<dim>32</dim>
					<dim>32</dim>
					<dim>1</dim>
					<dim>1</dim>
				</port>
			</output>
		</layer>
		<layer id="157" name="Conv_160/WithoutBiases" type="Convolution" version="opset1">
			<data auto_pad="explicit" dilations="1, 1" pads_begin="0, 0" pads_end="0, 0" strides="1, 1"/>
			<input>
				<port id="0" precision="FP16">
					<dim>1</dim>
					<dim>32</dim>
					<dim>48</dim>
					<dim>80</dim>
				</port>
				<port id="1" precision="FP16">
					<dim>32</dim>
					<dim>32</dim>
					<dim>1</dim>
					<dim>1</dim>
				</port>
			</input>
			<output>
				<port id="2" precision="FP16">
					<dim>1</dim>
					<dim>32</dim>
					<dim>48</dim>
					<dim>80</dim>
				</port>
			</output>
		</layer>
		<layer id="158" name="Conv_160/Dims11207" type="Const" version="opset1">
			<data element_type="f16" offset="21828" shape="1, 32, 1, 1" size="64"/>
			<output>
				<port id="0" precision="FP16">
					<dim>1</dim>
					<dim>32</dim>
					<dim>1</dim>
					<dim>1</dim>
				</port>
			</output>
		</layer>
		<layer id="159" name="Conv_160" type="Add" version="opset1">
			<data auto_broadcast="numpy"/>
			<input>
				<port id="0" precision="FP16">
					<dim>1</dim>
					<dim>32</dim>
					<dim>48</dim>
					<dim>80</dim>
				</port>
				<port id="1" precision="FP16">
					<dim>1</dim>
					<dim>32</dim>
					<dim>1</dim>
					<dim>1</dim>
				</port>
			</input>
			<output>
				<port id="2" names="1852" precision="FP16">
					<dim>1</dim>
					<dim>32</dim>
					<dim>48</dim>
					<dim>80</dim>
				</port>
			</output>
		</layer>
		<layer id="160" name="69249710" type="Const" version="opset1">
			<data element_type="f16" offset="3712" shape="1, 1, 1, 1" size="2"/>
			<output>
				<port id="0" names="692" precision="FP16">
					<dim>1</dim>
					<dim>1</dim>
					<dim>1</dim>
					<dim>1</dim>
				</port>
			</output>
		</layer>
		<layer id="161" name="Add_162" type="Add" version="opset1">
			<data auto_broadcast="numpy"/>
			<input>
				<port id="0" precision="FP16">
					<dim>1</dim>
					<dim>32</dim>
					<dim>48</dim>
					<dim>80</dim>
				</port>
				<port id="1" precision="FP16">
					<dim>1</dim>
					<dim>1</dim>
					<dim>1</dim>
					<dim>1</dim>
				</port>
			</input>
			<output>
				<port id="2" names="825" precision="FP16">
					<dim>1</dim>
					<dim>32</dim>
					<dim>48</dim>
					<dim>80</dim>
				</port>
			</output>
		</layer>
		<layer id="162" name="Clip_165" type="Clamp" version="opset1">
			<data max="6" min="0"/>
			<input>
				<port id="0" precision="FP16">
					<dim>1</dim>
					<dim>32</dim>
					<dim>48</dim>
					<dim>80</dim>
				</port>
			</input>
			<output>
				<port id="1" names="828" precision="FP16">
					<dim>1</dim>
					<dim>32</dim>
					<dim>48</dim>
					<dim>80</dim>
				</port>
			</output>
		</layer>
		<layer id="163" name="69550529" type="Const" version="opset1">
			<data element_type="f16" offset="3714" shape="1, 1, 1, 1" size="2"/>
			<output>
				<port id="0" names="695" precision="FP16">
					<dim>1</dim>
					<dim>1</dim>
					<dim>1</dim>
					<dim>1</dim>
				</port>
			</output>
		</layer>
		<layer id="164" name="Div_167" type="Multiply" version="opset1">
			<data auto_broadcast="numpy"/>
			<input>
				<port id="0" precision="FP16">
					<dim>1</dim>
					<dim>32</dim>
					<dim>48</dim>
					<dim>80</dim>
				</port>
				<port id="1" precision="FP16">
					<dim>1</dim>
					<dim>1</dim>
					<dim>1</dim>
					<dim>1</dim>
				</port>
			</input>
			<output>
				<port id="2" names="830" precision="FP16">
					<dim>1</dim>
					<dim>32</dim>
					<dim>48</dim>
					<dim>80</dim>
				</port>
			</output>
		</layer>
		<layer id="165" name="Mul_168" type="Multiply" version="opset1">
			<data auto_broadcast="numpy"/>
			<input>
				<port id="0" precision="FP16">
					<dim>1</dim>
					<dim>32</dim>
					<dim>48</dim>
					<dim>80</dim>
				</port>
				<port id="1" precision="FP16">
					<dim>1</dim>
					<dim>32</dim>
					<dim>48</dim>
					<dim>80</dim>
				</port>
			</input>
			<output>
				<port id="2" names="831" precision="FP16">
					<dim>1</dim>
					<dim>32</dim>
					<dim>48</dim>
					<dim>80</dim>
				</port>
			</output>
		</layer>
		<layer id="166" name="1856" type="Const" version="opset1">
			<data element_type="f16" offset="21892" shape="32, 1, 1, 3, 3" size="576"/>
			<output>
				<port id="0" names="1856" precision="FP16">
					<dim>32</dim>
					<dim>1</dim>
					<dim>1</dim>
					<dim>3</dim>
					<dim>3</dim>
				</port>
			</output>
		</layer>
		<layer id="167" name="Conv_169/WithoutBiases" type="GroupConvolution" version="opset1">
			<data auto_pad="explicit" dilations="1, 1" pads_begin="1, 1" pads_end="1, 1" strides="1, 1"/>
			<input>
				<port id="0" precision="FP16">
					<dim>1</dim>
					<dim>32</dim>
					<dim>48</dim>
					<dim>80</dim>
				</port>
				<port id="1" precision="FP16">
					<dim>32</dim>
					<dim>1</dim>
					<dim>1</dim>
					<dim>3</dim>
					<dim>3</dim>
				</port>
			</input>
			<output>
				<port id="2" precision="FP16">
					<dim>1</dim>
					<dim>32</dim>
					<dim>48</dim>
					<dim>80</dim>
				</port>
			</output>
		</layer>
		<layer id="168" name="Conv_169/Dims11231" type="Const" version="opset1">
			<data element_type="f16" offset="22468" shape="1, 32, 1, 1" size="64"/>
			<output>
				<port id="0" precision="FP16">
					<dim>1</dim>
					<dim>32</dim>
					<dim>1</dim>
					<dim>1</dim>
				</port>
			</output>
		</layer>
		<layer id="169" name="Conv_169" type="Add" version="opset1">
			<data auto_broadcast="numpy"/>
			<input>
				<port id="0" precision="FP16">
					<dim>1</dim>
					<dim>32</dim>
					<dim>48</dim>
					<dim>80</dim>
				</port>
				<port id="1" precision="FP16">
					<dim>1</dim>
					<dim>32</dim>
					<dim>1</dim>
					<dim>1</dim>
				</port>
			</input>
			<output>
				<port id="2" names="1855" precision="FP16">
					<dim>1</dim>
					<dim>32</dim>
					<dim>48</dim>
					<dim>80</dim>
				</port>
			</output>
		</layer>
		<layer id="170" name="69249428" type="Const" version="opset1">
			<data element_type="f16" offset="3712" shape="1, 1, 1, 1" size="2"/>
			<output>
				<port id="0" names="692" precision="FP16">
					<dim>1</dim>
					<dim>1</dim>
					<dim>1</dim>
					<dim>1</dim>
				</port>
			</output>
		</layer>
		<layer id="171" name="Add_171" type="Add" version="opset1">
			<data auto_broadcast="numpy"/>
			<input>
				<port id="0" precision="FP16">
					<dim>1</dim>
					<dim>32</dim>
					<dim>48</dim>
					<dim>80</dim>
				</port>
				<port id="1" precision="FP16">
					<dim>1</dim>
					<dim>1</dim>
					<dim>1</dim>
					<dim>1</dim>
				</port>
			</input>
			<output>
				<port id="2" names="835" precision="FP16">
					<dim>1</dim>
					<dim>32</dim>
					<dim>48</dim>
					<dim>80</dim>
				</port>
			</output>
		</layer>
		<layer id="172" name="Clip_174" type="Clamp" version="opset1">
			<data max="6" min="0"/>
			<input>
				<port id="0" precision="FP16">
					<dim>1</dim>
					<dim>32</dim>
					<dim>48</dim>
					<dim>80</dim>
				</port>
			</input>
			<output>
				<port id="1" names="838" precision="FP16">
					<dim>1</dim>
					<dim>32</dim>
					<dim>48</dim>
					<dim>80</dim>
				</port>
			</output>
		</layer>
		<layer id="173" name="69549242" type="Const" version="opset1">
			<data element_type="f16" offset="3714" shape="1, 1, 1, 1" size="2"/>
			<output>
				<port id="0" names="695" precision="FP16">
					<dim>1</dim>
					<dim>1</dim>
					<dim>1</dim>
					<dim>1</dim>
				</port>
			</output>
		</layer>
		<layer id="174" name="Div_176" type="Multiply" version="opset1">
			<data auto_broadcast="numpy"/>
			<input>
				<port id="0" precision="FP16">
					<dim>1</dim>
					<dim>32</dim>
					<dim>48</dim>
					<dim>80</dim>
				</port>
				<port id="1" precision="FP16">
					<dim>1</dim>
					<dim>1</dim>
					<dim>1</dim>
					<dim>1</dim>
				</port>
			</input>
			<output>
				<port id="2" names="840" precision="FP16">
					<dim>1</dim>
					<dim>32</dim>
					<dim>48</dim>
					<dim>80</dim>
				</port>
			</output>
		</layer>
		<layer id="175" name="Mul_177" type="Multiply" version="opset1">
			<data auto_broadcast="numpy"/>
			<input>
				<port id="0" precision="FP16">
					<dim>1</dim>
					<dim>32</dim>
					<dim>48</dim>
					<dim>80</dim>
				</port>
				<port id="1" precision="FP16">
					<dim>1</dim>
					<dim>32</dim>
					<dim>48</dim>
					<dim>80</dim>
				</port>
			</input>
			<output>
				<port id="2" names="841" precision="FP16">
					<dim>1</dim>
					<dim>32</dim>
					<dim>48</dim>
					<dim>80</dim>
				</port>
			</output>
		</layer>
		<layer id="176" name="1859" type="Const" version="opset1">
			<data element_type="f16" offset="22532" shape="32, 32, 1, 1" size="2048"/>
			<output>
				<port id="0" names="1859" precision="FP16">
					<dim>32</dim>
					<dim>32</dim>
					<dim>1</dim>
					<dim>1</dim>
				</port>
			</output>
		</layer>
		<layer id="177" name="Conv_178/WithoutBiases" type="Convolution" version="opset1">
			<data auto_pad="explicit" dilations="1, 1" pads_begin="0, 0" pads_end="0, 0" strides="1, 1"/>
			<input>
				<port id="0" precision="FP16">
					<dim>1</dim>
					<dim>32</dim>
					<dim>48</dim>
					<dim>80</dim>
				</port>
				<port id="1" precision="FP16">
					<dim>32</dim>
					<dim>32</dim>
					<dim>1</dim>
					<dim>1</dim>
				</port>
			</input>
			<output>
				<port id="2" precision="FP16">
					<dim>1</dim>
					<dim>32</dim>
					<dim>48</dim>
					<dim>80</dim>
				</port>
			</output>
		</layer>
		<layer id="178" name="Conv_178/Dims11363" type="Const" version="opset1">
			<data element_type="f16" offset="24580" shape="1, 32, 1, 1" size="64"/>
			<output>
				<port id="0" precision="FP16">
					<dim>1</dim>
					<dim>32</dim>
					<dim>1</dim>
					<dim>1</dim>
				</port>
			</output>
		</layer>
		<layer id="179" name="Conv_178" type="Add" version="opset1">
			<data auto_broadcast="numpy"/>
			<input>
				<port id="0" precision="FP16">
					<dim>1</dim>
					<dim>32</dim>
					<dim>48</dim>
					<dim>80</dim>
				</port>
				<port id="1" precision="FP16">
					<dim>1</dim>
					<dim>32</dim>
					<dim>1</dim>
					<dim>1</dim>
				</port>
			</input>
			<output>
				<port id="2" names="1858" precision="FP16">
					<dim>1</dim>
					<dim>32</dim>
					<dim>48</dim>
					<dim>80</dim>
				</port>
			</output>
		</layer>
		<layer id="180" name="69250403" type="Const" version="opset1">
			<data element_type="f16" offset="3712" shape="1, 1, 1, 1" size="2"/>
			<output>
				<port id="0" names="692" precision="FP16">
					<dim>1</dim>
					<dim>1</dim>
					<dim>1</dim>
					<dim>1</dim>
				</port>
			</output>
		</layer>
		<layer id="181" name="Add_180" type="Add" version="opset1">
			<data auto_broadcast="numpy"/>
			<input>
				<port id="0" precision="FP16">
					<dim>1</dim>
					<dim>32</dim>
					<dim>48</dim>
					<dim>80</dim>
				</port>
				<port id="1" precision="FP16">
					<dim>1</dim>
					<dim>1</dim>
					<dim>1</dim>
					<dim>1</dim>
				</port>
			</input>
			<output>
				<port id="2" names="845" precision="FP16">
					<dim>1</dim>
					<dim>32</dim>
					<dim>48</dim>
					<dim>80</dim>
				</port>
			</output>
		</layer>
		<layer id="182" name="Clip_183" type="Clamp" version="opset1">
			<data max="6" min="0"/>
			<input>
				<port id="0" precision="FP16">
					<dim>1</dim>
					<dim>32</dim>
					<dim>48</dim>
					<dim>80</dim>
				</port>
			</input>
			<output>
				<port id="1" names="848" precision="FP16">
					<dim>1</dim>
					<dim>32</dim>
					<dim>48</dim>
					<dim>80</dim>
				</port>
			</output>
		</layer>
		<layer id="183" name="69549959" type="Const" version="opset1">
			<data element_type="f16" offset="3714" shape="1, 1, 1, 1" size="2"/>
			<output>
				<port id="0" names="695" precision="FP16">
					<dim>1</dim>
					<dim>1</dim>
					<dim>1</dim>
					<dim>1</dim>
				</port>
			</output>
		</layer>
		<layer id="184" name="Div_185" type="Multiply" version="opset1">
			<data auto_broadcast="numpy"/>
			<input>
				<port id="0" precision="FP16">
					<dim>1</dim>
					<dim>32</dim>
					<dim>48</dim>
					<dim>80</dim>
				</port>
				<port id="1" precision="FP16">
					<dim>1</dim>
					<dim>1</dim>
					<dim>1</dim>
					<dim>1</dim>
				</port>
			</input>
			<output>
				<port id="2" names="850" precision="FP16">
					<dim>1</dim>
					<dim>32</dim>
					<dim>48</dim>
					<dim>80</dim>
				</port>
			</output>
		</layer>
		<layer id="185" name="Mul_186" type="Multiply" version="opset1">
			<data auto_broadcast="numpy"/>
			<input>
				<port id="0" precision="FP16">
					<dim>1</dim>
					<dim>32</dim>
					<dim>48</dim>
					<dim>80</dim>
				</port>
				<port id="1" precision="FP16">
					<dim>1</dim>
					<dim>32</dim>
					<dim>48</dim>
					<dim>80</dim>
				</port>
			</input>
			<output>
				<port id="2" names="851" precision="FP16">
					<dim>1</dim>
					<dim>32</dim>
					<dim>48</dim>
					<dim>80</dim>
				</port>
			</output>
		</layer>
		<layer id="186" name="Add_187" type="Add" version="opset1">
			<data auto_broadcast="numpy"/>
			<input>
				<port id="0" precision="FP16">
					<dim>1</dim>
					<dim>32</dim>
					<dim>48</dim>
					<dim>80</dim>
				</port>
				<port id="1" precision="FP16">
					<dim>1</dim>
					<dim>32</dim>
					<dim>48</dim>
					<dim>80</dim>
				</port>
			</input>
			<output>
				<port id="2" names="852" precision="FP16">
					<dim>1</dim>
					<dim>32</dim>
					<dim>48</dim>
					<dim>80</dim>
				</port>
			</output>
		</layer>
		<layer id="187" name="1862" type="Const" version="opset1">
			<data element_type="f16" offset="24644" shape="32, 32, 1, 1" size="2048"/>
			<output>
				<port id="0" names="1862" precision="FP16">
					<dim>32</dim>
					<dim>32</dim>
					<dim>1</dim>
					<dim>1</dim>
				</port>
			</output>
		</layer>
		<layer id="188" name="Conv_188/WithoutBiases" type="Convolution" version="opset1">
			<data auto_pad="explicit" dilations="1, 1" pads_begin="0, 0" pads_end="0, 0" strides="1, 1"/>
			<input>
				<port id="0" precision="FP16">
					<dim>1</dim>
					<dim>32</dim>
					<dim>48</dim>
					<dim>80</dim>
				</port>
				<port id="1" precision="FP16">
					<dim>32</dim>
					<dim>32</dim>
					<dim>1</dim>
					<dim>1</dim>
				</port>
			</input>
			<output>
				<port id="2" precision="FP16">
					<dim>1</dim>
					<dim>32</dim>
					<dim>48</dim>
					<dim>80</dim>
				</port>
			</output>
		</layer>
		<layer id="189" name="Conv_188/Dims11033" type="Const" version="opset1">
			<data element_type="f16" offset="26692" shape="1, 32, 1, 1" size="64"/>
			<output>
				<port id="0" precision="FP16">
					<dim>1</dim>
					<dim>32</dim>
					<dim>1</dim>
					<dim>1</dim>
				</port>
			</output>
		</layer>
		<layer id="190" name="Conv_188" type="Add" version="opset1">
			<data auto_broadcast="numpy"/>
			<input>
				<port id="0" precision="FP16">
					<dim>1</dim>
					<dim>32</dim>
					<dim>48</dim>
					<dim>80</dim>
				</port>
				<port id="1" precision="FP16">
					<dim>1</dim>
					<dim>32</dim>
					<dim>1</dim>
					<dim>1</dim>
				</port>
			</input>
			<output>
				<port id="2" names="1861" precision="FP16">
					<dim>1</dim>
					<dim>32</dim>
					<dim>48</dim>
					<dim>80</dim>
				</port>
			</output>
		</layer>
		<layer id="191" name="69249509" type="Const" version="opset1">
			<data element_type="f16" offset="3712" shape="1, 1, 1, 1" size="2"/>
			<output>
				<port id="0" names="692" precision="FP16">
					<dim>1</dim>
					<dim>1</dim>
					<dim>1</dim>
					<dim>1</dim>
				</port>
			</output>
		</layer>
		<layer id="192" name="Add_190" type="Add" version="opset1">
			<data auto_broadcast="numpy"/>
			<input>
				<port id="0" precision="FP16">
					<dim>1</dim>
					<dim>32</dim>
					<dim>48</dim>
					<dim>80</dim>
				</port>
				<port id="1" precision="FP16">
					<dim>1</dim>
					<dim>1</dim>
					<dim>1</dim>
					<dim>1</dim>
				</port>
			</input>
			<output>
				<port id="2" names="856" precision="FP16">
					<dim>1</dim>
					<dim>32</dim>
					<dim>48</dim>
					<dim>80</dim>
				</port>
			</output>
		</layer>
		<layer id="193" name="Clip_193" type="Clamp" version="opset1">
			<data max="6" min="0"/>
			<input>
				<port id="0" precision="FP16">
					<dim>1</dim>
					<dim>32</dim>
					<dim>48</dim>
					<dim>80</dim>
				</port>
			</input>
			<output>
				<port id="1" names="859" precision="FP16">
					<dim>1</dim>
					<dim>32</dim>
					<dim>48</dim>
					<dim>80</dim>
				</port>
			</output>
		</layer>
		<layer id="194" name="69549191" type="Const" version="opset1">
			<data element_type="f16" offset="3714" shape="1, 1, 1, 1" size="2"/>
			<output>
				<port id="0" names="695" precision="FP16">
					<dim>1</dim>
					<dim>1</dim>
					<dim>1</dim>
					<dim>1</dim>
				</port>
			</output>
		</layer>
		<layer id="195" name="Div_195" type="Multiply" version="opset1">
			<data auto_broadcast="numpy"/>
			<input>
				<port id="0" precision="FP16">
					<dim>1</dim>
					<dim>32</dim>
					<dim>48</dim>
					<dim>80</dim>
				</port>
				<port id="1" precision="FP16">
					<dim>1</dim>
					<dim>1</dim>
					<dim>1</dim>
					<dim>1</dim>
				</port>
			</input>
			<output>
				<port id="2" names="861" precision="FP16">
					<dim>1</dim>
					<dim>32</dim>
					<dim>48</dim>
					<dim>80</dim>
				</port>
			</output>
		</layer>
		<layer id="196" name="Mul_196" type="Multiply" version="opset1">
			<data auto_broadcast="numpy"/>
			<input>
				<port id="0" precision="FP16">
					<dim>1</dim>
					<dim>32</dim>
					<dim>48</dim>
					<dim>80</dim>
				</port>
				<port id="1" precision="FP16">
					<dim>1</dim>
					<dim>32</dim>
					<dim>48</dim>
					<dim>80</dim>
				</port>
			</input>
			<output>
				<port id="2" names="862" precision="FP16">
					<dim>1</dim>
					<dim>32</dim>
					<dim>48</dim>
					<dim>80</dim>
				</port>
			</output>
		</layer>
		<layer id="197" name="1865" type="Const" version="opset1">
			<data element_type="f16" offset="26756" shape="32, 1, 1, 3, 3" size="576"/>
			<output>
				<port id="0" names="1865" precision="FP16">
					<dim>32</dim>
					<dim>1</dim>
					<dim>1</dim>
					<dim>3</dim>
					<dim>3</dim>
				</port>
			</output>
		</layer>
		<layer id="198" name="Conv_197/WithoutBiases" type="GroupConvolution" version="opset1">
			<data auto_pad="explicit" dilations="1, 1" pads_begin="1, 1" pads_end="1, 1" strides="1, 1"/>
			<input>
				<port id="0" precision="FP16">
					<dim>1</dim>
					<dim>32</dim>
					<dim>48</dim>
					<dim>80</dim>
				</port>
				<port id="1" precision="FP16">
					<dim>32</dim>
					<dim>1</dim>
					<dim>1</dim>
					<dim>3</dim>
					<dim>3</dim>
				</port>
			</input>
			<output>
				<port id="2" precision="FP16">
					<dim>1</dim>
					<dim>32</dim>
					<dim>48</dim>
					<dim>80</dim>
				</port>
			</output>
		</layer>
		<layer id="199" name="Conv_197/Dims11201" type="Const" version="opset1">
			<data element_type="f16" offset="27332" shape="1, 32, 1, 1" size="64"/>
			<output>
				<port id="0" precision="FP16">
					<dim>1</dim>
					<dim>32</dim>
					<dim>1</dim>
					<dim>1</dim>
				</port>
			</output>
		</layer>
		<layer id="200" name="Conv_197" type="Add" version="opset1">
			<data auto_broadcast="numpy"/>
			<input>
				<port id="0" precision="FP16">
					<dim>1</dim>
					<dim>32</dim>
					<dim>48</dim>
					<dim>80</dim>
				</port>
				<port id="1" precision="FP16">
					<dim>1</dim>
					<dim>32</dim>
					<dim>1</dim>
					<dim>1</dim>
				</port>
			</input>
			<output>
				<port id="2" names="1864" precision="FP16">
					<dim>1</dim>
					<dim>32</dim>
					<dim>48</dim>
					<dim>80</dim>
				</port>
			</output>
		</layer>
		<layer id="201" name="69249863" type="Const" version="opset1">
			<data element_type="f16" offset="3712" shape="1, 1, 1, 1" size="2"/>
			<output>
				<port id="0" names="692" precision="FP16">
					<dim>1</dim>
					<dim>1</dim>
					<dim>1</dim>
					<dim>1</dim>
				</port>
			</output>
		</layer>
		<layer id="202" name="Add_199" type="Add" version="opset1">
			<data auto_broadcast="numpy"/>
			<input>
				<port id="0" precision="FP16">
					<dim>1</dim>
					<dim>32</dim>
					<dim>48</dim>
					<dim>80</dim>
				</port>
				<port id="1" precision="FP16">
					<dim>1</dim>
					<dim>1</dim>
					<dim>1</dim>
					<dim>1</dim>
				</port>
			</input>
			<output>
				<port id="2" names="866" precision="FP16">
					<dim>1</dim>
					<dim>32</dim>
					<dim>48</dim>
					<dim>80</dim>
				</port>
			</output>
		</layer>
		<layer id="203" name="Clip_202" type="Clamp" version="opset1">
			<data max="6" min="0"/>
			<input>
				<port id="0" precision="FP16">
					<dim>1</dim>
					<dim>32</dim>
					<dim>48</dim>
					<dim>80</dim>
				</port>
			</input>
			<output>
				<port id="1" names="869" precision="FP16">
					<dim>1</dim>
					<dim>32</dim>
					<dim>48</dim>
					<dim>80</dim>
				</port>
			</output>
		</layer>
		<layer id="204" name="69549668" type="Const" version="opset1">
			<data element_type="f16" offset="3714" shape="1, 1, 1, 1" size="2"/>
			<output>
				<port id="0" names="695" precision="FP16">
					<dim>1</dim>
					<dim>1</dim>
					<dim>1</dim>
					<dim>1</dim>
				</port>
			</output>
		</layer>
		<layer id="205" name="Div_204" type="Multiply" version="opset1">
			<data auto_broadcast="numpy"/>
			<input>
				<port id="0" precision="FP16">
					<dim>1</dim>
					<dim>32</dim>
					<dim>48</dim>
					<dim>80</dim>
				</port>
				<port id="1" precision="FP16">
					<dim>1</dim>
					<dim>1</dim>
					<dim>1</dim>
					<dim>1</dim>
				</port>
			</input>
			<output>
				<port id="2" names="871" precision="FP16">
					<dim>1</dim>
					<dim>32</dim>
					<dim>48</dim>
					<dim>80</dim>
				</port>
			</output>
		</layer>
		<layer id="206" name="Mul_205" type="Multiply" version="opset1">
			<data auto_broadcast="numpy"/>
			<input>
				<port id="0" precision="FP16">
					<dim>1</dim>
					<dim>32</dim>
					<dim>48</dim>
					<dim>80</dim>
				</port>
				<port id="1" precision="FP16">
					<dim>1</dim>
					<dim>32</dim>
					<dim>48</dim>
					<dim>80</dim>
				</port>
			</input>
			<output>
				<port id="2" names="872" precision="FP16">
					<dim>1</dim>
					<dim>32</dim>
					<dim>48</dim>
					<dim>80</dim>
				</port>
			</output>
		</layer>
		<layer id="207" name="1868" type="Const" version="opset1">
			<data element_type="f16" offset="27396" shape="32, 32, 1, 1" size="2048"/>
			<output>
				<port id="0" names="1868" precision="FP16">
					<dim>32</dim>
					<dim>32</dim>
					<dim>1</dim>
					<dim>1</dim>
				</port>
			</output>
		</layer>
		<layer id="208" name="Conv_206/WithoutBiases" type="Convolution" version="opset1">
			<data auto_pad="explicit" dilations="1, 1" pads_begin="0, 0" pads_end="0, 0" strides="1, 1"/>
			<input>
				<port id="0" precision="FP16">
					<dim>1</dim>
					<dim>32</dim>
					<dim>48</dim>
					<dim>80</dim>
				</port>
				<port id="1" precision="FP16">
					<dim>32</dim>
					<dim>32</dim>
					<dim>1</dim>
					<dim>1</dim>
				</port>
			</input>
			<output>
				<port id="2" precision="FP16">
					<dim>1</dim>
					<dim>32</dim>
					<dim>48</dim>
					<dim>80</dim>
				</port>
			</output>
		</layer>
		<layer id="209" name="Conv_206/Dims11135" type="Const" version="opset1">
			<data element_type="f16" offset="29444" shape="1, 32, 1, 1" size="64"/>
			<output>
				<port id="0" precision="FP16">
					<dim>1</dim>
					<dim>32</dim>
					<dim>1</dim>
					<dim>1</dim>
				</port>
			</output>
		</layer>
		<layer id="210" name="Conv_206" type="Add" version="opset1">
			<data auto_broadcast="numpy"/>
			<input>
				<port id="0" precision="FP16">
					<dim>1</dim>
					<dim>32</dim>
					<dim>48</dim>
					<dim>80</dim>
				</port>
				<port id="1" precision="FP16">
					<dim>1</dim>
					<dim>32</dim>
					<dim>1</dim>
					<dim>1</dim>
				</port>
			</input>
			<output>
				<port id="2" names="1867" precision="FP16">
					<dim>1</dim>
					<dim>32</dim>
					<dim>48</dim>
					<dim>80</dim>
				</port>
			</output>
		</layer>
		<layer id="211" name="69250463" type="Const" version="opset1">
			<data element_type="f16" offset="3712" shape="1, 1, 1, 1" size="2"/>
			<output>
				<port id="0" names="692" precision="FP16">
					<dim>1</dim>
					<dim>1</dim>
					<dim>1</dim>
					<dim>1</dim>
				</port>
			</output>
		</layer>
		<layer id="212" name="Add_208" type="Add" version="opset1">
			<data auto_broadcast="numpy"/>
			<input>
				<port id="0" precision="FP16">
					<dim>1</dim>
					<dim>32</dim>
					<dim>48</dim>
					<dim>80</dim>
				</port>
				<port id="1" precision="FP16">
					<dim>1</dim>
					<dim>1</dim>
					<dim>1</dim>
					<dim>1</dim>
				</port>
			</input>
			<output>
				<port id="2" names="876" precision="FP16">
					<dim>1</dim>
					<dim>32</dim>
					<dim>48</dim>
					<dim>80</dim>
				</port>
			</output>
		</layer>
		<layer id="213" name="Clip_211" type="Clamp" version="opset1">
			<data max="6" min="0"/>
			<input>
				<port id="0" precision="FP16">
					<dim>1</dim>
					<dim>32</dim>
					<dim>48</dim>
					<dim>80</dim>
				</port>
			</input>
			<output>
				<port id="1" names="879" precision="FP16">
					<dim>1</dim>
					<dim>32</dim>
					<dim>48</dim>
					<dim>80</dim>
				</port>
			</output>
		</layer>
		<layer id="214" name="69550262" type="Const" version="opset1">
			<data element_type="f16" offset="3714" shape="1, 1, 1, 1" size="2"/>
			<output>
				<port id="0" names="695" precision="FP16">
					<dim>1</dim>
					<dim>1</dim>
					<dim>1</dim>
					<dim>1</dim>
				</port>
			</output>
		</layer>
		<layer id="215" name="Div_213" type="Multiply" version="opset1">
			<data auto_broadcast="numpy"/>
			<input>
				<port id="0" precision="FP16">
					<dim>1</dim>
					<dim>32</dim>
					<dim>48</dim>
					<dim>80</dim>
				</port>
				<port id="1" precision="FP16">
					<dim>1</dim>
					<dim>1</dim>
					<dim>1</dim>
					<dim>1</dim>
				</port>
			</input>
			<output>
				<port id="2" names="881" precision="FP16">
					<dim>1</dim>
					<dim>32</dim>
					<dim>48</dim>
					<dim>80</dim>
				</port>
			</output>
		</layer>
		<layer id="216" name="Mul_214" type="Multiply" version="opset1">
			<data auto_broadcast="numpy"/>
			<input>
				<port id="0" precision="FP16">
					<dim>1</dim>
					<dim>32</dim>
					<dim>48</dim>
					<dim>80</dim>
				</port>
				<port id="1" precision="FP16">
					<dim>1</dim>
					<dim>32</dim>
					<dim>48</dim>
					<dim>80</dim>
				</port>
			</input>
			<output>
				<port id="2" names="882" precision="FP16">
					<dim>1</dim>
					<dim>32</dim>
					<dim>48</dim>
					<dim>80</dim>
				</port>
			</output>
		</layer>
		<layer id="217" name="Add_215" type="Add" version="opset1">
			<data auto_broadcast="numpy"/>
			<input>
				<port id="0" precision="FP16">
					<dim>1</dim>
					<dim>32</dim>
					<dim>48</dim>
					<dim>80</dim>
				</port>
				<port id="1" precision="FP16">
					<dim>1</dim>
					<dim>32</dim>
					<dim>48</dim>
					<dim>80</dim>
				</port>
			</input>
			<output>
				<port id="2" names="883" precision="FP16">
					<dim>1</dim>
					<dim>32</dim>
					<dim>48</dim>
					<dim>80</dim>
				</port>
			</output>
		</layer>
		<layer id="218" name="1871" type="Const" version="opset1">
			<data element_type="f16" offset="29508" shape="32, 32, 1, 1" size="2048"/>
			<output>
				<port id="0" names="1871" precision="FP16">
					<dim>32</dim>
					<dim>32</dim>
					<dim>1</dim>
					<dim>1</dim>
				</port>
			</output>
		</layer>
		<layer id="219" name="Conv_216/WithoutBiases" type="Convolution" version="opset1">
			<data auto_pad="explicit" dilations="1, 1" pads_begin="0, 0" pads_end="0, 0" strides="1, 1"/>
			<input>
				<port id="0" precision="FP16">
					<dim>1</dim>
					<dim>32</dim>
					<dim>48</dim>
					<dim>80</dim>
				</port>
				<port id="1" precision="FP16">
					<dim>32</dim>
					<dim>32</dim>
					<dim>1</dim>
					<dim>1</dim>
				</port>
			</input>
			<output>
				<port id="2" precision="FP16">
					<dim>1</dim>
					<dim>32</dim>
					<dim>48</dim>
					<dim>80</dim>
				</port>
			</output>
		</layer>
		<layer id="220" name="Conv_216/Dims11195" type="Const" version="opset1">
			<data element_type="f16" offset="31556" shape="1, 32, 1, 1" size="64"/>
			<output>
				<port id="0" precision="FP16">
					<dim>1</dim>
					<dim>32</dim>
					<dim>1</dim>
					<dim>1</dim>
				</port>
			</output>
		</layer>
		<layer id="221" name="Conv_216" type="Add" version="opset1">
			<data auto_broadcast="numpy"/>
			<input>
				<port id="0" precision="FP16">
					<dim>1</dim>
					<dim>32</dim>
					<dim>48</dim>
					<dim>80</dim>
				</port>
				<port id="1" precision="FP16">
					<dim>1</dim>
					<dim>32</dim>
					<dim>1</dim>
					<dim>1</dim>
				</port>
			</input>
			<output>
				<port id="2" names="1870" precision="FP16">
					<dim>1</dim>
					<dim>32</dim>
					<dim>48</dim>
					<dim>80</dim>
				</port>
			</output>
		</layer>
		<layer id="222" name="69249689" type="Const" version="opset1">
			<data element_type="f16" offset="3712" shape="1, 1, 1, 1" size="2"/>
			<output>
				<port id="0" names="692" precision="FP16">
					<dim>1</dim>
					<dim>1</dim>
					<dim>1</dim>
					<dim>1</dim>
				</port>
			</output>
		</layer>
		<layer id="223" name="Add_218" type="Add" version="opset1">
			<data auto_broadcast="numpy"/>
			<input>
				<port id="0" precision="FP16">
					<dim>1</dim>
					<dim>32</dim>
					<dim>48</dim>
					<dim>80</dim>
				</port>
				<port id="1" precision="FP16">
					<dim>1</dim>
					<dim>1</dim>
					<dim>1</dim>
					<dim>1</dim>
				</port>
			</input>
			<output>
				<port id="2" names="887" precision="FP16">
					<dim>1</dim>
					<dim>32</dim>
					<dim>48</dim>
					<dim>80</dim>
				</port>
			</output>
		</layer>
		<layer id="224" name="Clip_221" type="Clamp" version="opset1">
			<data max="6" min="0"/>
			<input>
				<port id="0" precision="FP16">
					<dim>1</dim>
					<dim>32</dim>
					<dim>48</dim>
					<dim>80</dim>
				</port>
			</input>
			<output>
				<port id="1" names="890" precision="FP16">
					<dim>1</dim>
					<dim>32</dim>
					<dim>48</dim>
					<dim>80</dim>
				</port>
			</output>
		</layer>
		<layer id="225" name="69550502" type="Const" version="opset1">
			<data element_type="f16" offset="3714" shape="1, 1, 1, 1" size="2"/>
			<output>
				<port id="0" names="695" precision="FP16">
					<dim>1</dim>
					<dim>1</dim>
					<dim>1</dim>
					<dim>1</dim>
				</port>
			</output>
		</layer>
		<layer id="226" name="Div_223" type="Multiply" version="opset1">
			<data auto_broadcast="numpy"/>
			<input>
				<port id="0" precision="FP16">
					<dim>1</dim>
					<dim>32</dim>
					<dim>48</dim>
					<dim>80</dim>
				</port>
				<port id="1" precision="FP16">
					<dim>1</dim>
					<dim>1</dim>
					<dim>1</dim>
					<dim>1</dim>
				</port>
			</input>
			<output>
				<port id="2" names="892" precision="FP16">
					<dim>1</dim>
					<dim>32</dim>
					<dim>48</dim>
					<dim>80</dim>
				</port>
			</output>
		</layer>
		<layer id="227" name="Mul_224" type="Multiply" version="opset1">
			<data auto_broadcast="numpy"/>
			<input>
				<port id="0" precision="FP16">
					<dim>1</dim>
					<dim>32</dim>
					<dim>48</dim>
					<dim>80</dim>
				</port>
				<port id="1" precision="FP16">
					<dim>1</dim>
					<dim>32</dim>
					<dim>48</dim>
					<dim>80</dim>
				</port>
			</input>
			<output>
				<port id="2" names="893" precision="FP16">
					<dim>1</dim>
					<dim>32</dim>
					<dim>48</dim>
					<dim>80</dim>
				</port>
			</output>
		</layer>
		<layer id="228" name="1874" type="Const" version="opset1">
			<data element_type="f16" offset="31620" shape="32, 1, 1, 3, 3" size="576"/>
			<output>
				<port id="0" names="1874" precision="FP16">
					<dim>32</dim>
					<dim>1</dim>
					<dim>1</dim>
					<dim>3</dim>
					<dim>3</dim>
				</port>
			</output>
		</layer>
		<layer id="229" name="Conv_225/WithoutBiases" type="GroupConvolution" version="opset1">
			<data auto_pad="explicit" dilations="1, 1" pads_begin="1, 1" pads_end="1, 1" strides="1, 1"/>
			<input>
				<port id="0" precision="FP16">
					<dim>1</dim>
					<dim>32</dim>
					<dim>48</dim>
					<dim>80</dim>
				</port>
				<port id="1" precision="FP16">
					<dim>32</dim>
					<dim>1</dim>
					<dim>1</dim>
					<dim>3</dim>
					<dim>3</dim>
				</port>
			</input>
			<output>
				<port id="2" precision="FP16">
					<dim>1</dim>
					<dim>32</dim>
					<dim>48</dim>
					<dim>80</dim>
				</port>
			</output>
		</layer>
		<layer id="230" name="Conv_225/Dims11261" type="Const" version="opset1">
			<data element_type="f16" offset="32196" shape="1, 32, 1, 1" size="64"/>
			<output>
				<port id="0" precision="FP16">
					<dim>1</dim>
					<dim>32</dim>
					<dim>1</dim>
					<dim>1</dim>
				</port>
			</output>
		</layer>
		<layer id="231" name="Conv_225" type="Add" version="opset1">
			<data auto_broadcast="numpy"/>
			<input>
				<port id="0" precision="FP16">
					<dim>1</dim>
					<dim>32</dim>
					<dim>48</dim>
					<dim>80</dim>
				</port>
				<port id="1" precision="FP16">
					<dim>1</dim>
					<dim>32</dim>
					<dim>1</dim>
					<dim>1</dim>
				</port>
			</input>
			<output>
				<port id="2" names="1873" precision="FP16">
					<dim>1</dim>
					<dim>32</dim>
					<dim>48</dim>
					<dim>80</dim>
				</port>
			</output>
		</layer>
		<layer id="232" name="69250337" type="Const" version="opset1">
			<data element_type="f16" offset="3712" shape="1, 1, 1, 1" size="2"/>
			<output>
				<port id="0" names="692" precision="FP16">
					<dim>1</dim>
					<dim>1</dim>
					<dim>1</dim>
					<dim>1</dim>
				</port>
			</output>
		</layer>
		<layer id="233" name="Add_227" type="Add" version="opset1">
			<data auto_broadcast="numpy"/>
			<input>
				<port id="0" precision="FP16">
					<dim>1</dim>
					<dim>32</dim>
					<dim>48</dim>
					<dim>80</dim>
				</port>
				<port id="1" precision="FP16">
					<dim>1</dim>
					<dim>1</dim>
					<dim>1</dim>
					<dim>1</dim>
				</port>
			</input>
			<output>
				<port id="2" names="897" precision="FP16">
					<dim>1</dim>
					<dim>32</dim>
					<dim>48</dim>
					<dim>80</dim>
				</port>
			</output>
		</layer>
		<layer id="234" name="Clip_230" type="Clamp" version="opset1">
			<data max="6" min="0"/>
			<input>
				<port id="0" precision="FP16">
					<dim>1</dim>
					<dim>32</dim>
					<dim>48</dim>
					<dim>80</dim>
				</port>
			</input>
			<output>
				<port id="1" names="900" precision="FP16">
					<dim>1</dim>
					<dim>32</dim>
					<dim>48</dim>
					<dim>80</dim>
				</port>
			</output>
		</layer>
		<layer id="235" name="69549851" type="Const" version="opset1">
			<data element_type="f16" offset="3714" shape="1, 1, 1, 1" size="2"/>
			<output>
				<port id="0" names="695" precision="FP16">
					<dim>1</dim>
					<dim>1</dim>
					<dim>1</dim>
					<dim>1</dim>
				</port>
			</output>
		</layer>
		<layer id="236" name="Div_232" type="Multiply" version="opset1">
			<data auto_broadcast="numpy"/>
			<input>
				<port id="0" precision="FP16">
					<dim>1</dim>
					<dim>32</dim>
					<dim>48</dim>
					<dim>80</dim>
				</port>
				<port id="1" precision="FP16">
					<dim>1</dim>
					<dim>1</dim>
					<dim>1</dim>
					<dim>1</dim>
				</port>
			</input>
			<output>
				<port id="2" names="902" precision="FP16">
					<dim>1</dim>
					<dim>32</dim>
					<dim>48</dim>
					<dim>80</dim>
				</port>
			</output>
		</layer>
		<layer id="237" name="Mul_233" type="Multiply" version="opset1">
			<data auto_broadcast="numpy"/>
			<input>
				<port id="0" precision="FP16">
					<dim>1</dim>
					<dim>32</dim>
					<dim>48</dim>
					<dim>80</dim>
				</port>
				<port id="1" precision="FP16">
					<dim>1</dim>
					<dim>32</dim>
					<dim>48</dim>
					<dim>80</dim>
				</port>
			</input>
			<output>
				<port id="2" names="903" precision="FP16">
					<dim>1</dim>
					<dim>32</dim>
					<dim>48</dim>
					<dim>80</dim>
				</port>
			</output>
		</layer>
		<layer id="238" name="1877" type="Const" version="opset1">
			<data element_type="f16" offset="32260" shape="32, 32, 1, 1" size="2048"/>
			<output>
				<port id="0" names="1877" precision="FP16">
					<dim>32</dim>
					<dim>32</dim>
					<dim>1</dim>
					<dim>1</dim>
				</port>
			</output>
		</layer>
		<layer id="239" name="Conv_234/WithoutBiases" type="Convolution" version="opset1">
			<data auto_pad="explicit" dilations="1, 1" pads_begin="0, 0" pads_end="0, 0" strides="1, 1"/>
			<input>
				<port id="0" precision="FP16">
					<dim>1</dim>
					<dim>32</dim>
					<dim>48</dim>
					<dim>80</dim>
				</port>
				<port id="1" precision="FP16">
					<dim>32</dim>
					<dim>32</dim>
					<dim>1</dim>
					<dim>1</dim>
				</port>
			</input>
			<output>
				<port id="2" precision="FP16">
					<dim>1</dim>
					<dim>32</dim>
					<dim>48</dim>
					<dim>80</dim>
				</port>
			</output>
		</layer>
		<layer id="240" name="Conv_234/Dims11297" type="Const" version="opset1">
			<data element_type="f16" offset="34308" shape="1, 32, 1, 1" size="64"/>
			<output>
				<port id="0" precision="FP16">
					<dim>1</dim>
					<dim>32</dim>
					<dim>1</dim>
					<dim>1</dim>
				</port>
			</output>
		</layer>
		<layer id="241" name="Conv_234" type="Add" version="opset1">
			<data auto_broadcast="numpy"/>
			<input>
				<port id="0" precision="FP16">
					<dim>1</dim>
					<dim>32</dim>
					<dim>48</dim>
					<dim>80</dim>
				</port>
				<port id="1" precision="FP16">
					<dim>1</dim>
					<dim>32</dim>
					<dim>1</dim>
					<dim>1</dim>
				</port>
			</input>
			<output>
				<port id="2" names="1876" precision="FP16">
					<dim>1</dim>
					<dim>32</dim>
					<dim>48</dim>
					<dim>80</dim>
				</port>
			</output>
		</layer>
		<layer id="242" name="69249281" type="Const" version="opset1">
			<data element_type="f16" offset="3712" shape="1, 1, 1, 1" size="2"/>
			<output>
				<port id="0" names="692" precision="FP16">
					<dim>1</dim>
					<dim>1</dim>
					<dim>1</dim>
					<dim>1</dim>
				</port>
			</output>
		</layer>
		<layer id="243" name="Add_236" type="Add" version="opset1">
			<data auto_broadcast="numpy"/>
			<input>
				<port id="0" precision="FP16">
					<dim>1</dim>
					<dim>32</dim>
					<dim>48</dim>
					<dim>80</dim>
				</port>
				<port id="1" precision="FP16">
					<dim>1</dim>
					<dim>1</dim>
					<dim>1</dim>
					<dim>1</dim>
				</port>
			</input>
			<output>
				<port id="2" names="907" precision="FP16">
					<dim>1</dim>
					<dim>32</dim>
					<dim>48</dim>
					<dim>80</dim>
				</port>
			</output>
		</layer>
		<layer id="244" name="Clip_239" type="Clamp" version="opset1">
			<data max="6" min="0"/>
			<input>
				<port id="0" precision="FP16">
					<dim>1</dim>
					<dim>32</dim>
					<dim>48</dim>
					<dim>80</dim>
				</port>
			</input>
			<output>
				<port id="1" names="910" precision="FP16">
					<dim>1</dim>
					<dim>32</dim>
					<dim>48</dim>
					<dim>80</dim>
				</port>
			</output>
		</layer>
		<layer id="245" name="69549800" type="Const" version="opset1">
			<data element_type="f16" offset="3714" shape="1, 1, 1, 1" size="2"/>
			<output>
				<port id="0" names="695" precision="FP16">
					<dim>1</dim>
					<dim>1</dim>
					<dim>1</dim>
					<dim>1</dim>
				</port>
			</output>
		</layer>
		<layer id="246" name="Div_241" type="Multiply" version="opset1">
			<data auto_broadcast="numpy"/>
			<input>
				<port id="0" precision="FP16">
					<dim>1</dim>
					<dim>32</dim>
					<dim>48</dim>
					<dim>80</dim>
				</port>
				<port id="1" precision="FP16">
					<dim>1</dim>
					<dim>1</dim>
					<dim>1</dim>
					<dim>1</dim>
				</port>
			</input>
			<output>
				<port id="2" names="912" precision="FP16">
					<dim>1</dim>
					<dim>32</dim>
					<dim>48</dim>
					<dim>80</dim>
				</port>
			</output>
		</layer>
		<layer id="247" name="Mul_242" type="Multiply" version="opset1">
			<data auto_broadcast="numpy"/>
			<input>
				<port id="0" precision="FP16">
					<dim>1</dim>
					<dim>32</dim>
					<dim>48</dim>
					<dim>80</dim>
				</port>
				<port id="1" precision="FP16">
					<dim>1</dim>
					<dim>32</dim>
					<dim>48</dim>
					<dim>80</dim>
				</port>
			</input>
			<output>
				<port id="2" names="913" precision="FP16">
					<dim>1</dim>
					<dim>32</dim>
					<dim>48</dim>
					<dim>80</dim>
				</port>
			</output>
		</layer>
		<layer id="248" name="Add_243" type="Add" version="opset1">
			<data auto_broadcast="numpy"/>
			<input>
				<port id="0" precision="FP16">
					<dim>1</dim>
					<dim>32</dim>
					<dim>48</dim>
					<dim>80</dim>
				</port>
				<port id="1" precision="FP16">
					<dim>1</dim>
					<dim>32</dim>
					<dim>48</dim>
					<dim>80</dim>
				</port>
			</input>
			<output>
				<port id="2" names="914" precision="FP16">
					<dim>1</dim>
					<dim>32</dim>
					<dim>48</dim>
					<dim>80</dim>
				</port>
			</output>
		</layer>
		<layer id="249" name="1850" type="Const" version="opset1">
			<data element_type="f16" offset="34372" shape="32, 64, 1, 1" size="4096"/>
			<output>
				<port id="0" names="1850" precision="FP16">
					<dim>32</dim>
					<dim>64</dim>
					<dim>1</dim>
					<dim>1</dim>
				</port>
			</output>
		</layer>
		<layer id="250" name="Conv_151/WithoutBiases" type="Convolution" version="opset1">
			<data auto_pad="explicit" dilations="1, 1" pads_begin="0, 0" pads_end="0, 0" strides="1, 1"/>
			<input>
				<port id="0" precision="FP16">
					<dim>1</dim>
					<dim>64</dim>
					<dim>48</dim>
					<dim>80</dim>
				</port>
				<port id="1" precision="FP16">
					<dim>32</dim>
					<dim>64</dim>
					<dim>1</dim>
					<dim>1</dim>
				</port>
			</input>
			<output>
				<port id="2" precision="FP16">
					<dim>1</dim>
					<dim>32</dim>
					<dim>48</dim>
					<dim>80</dim>
				</port>
			</output>
		</layer>
		<layer id="251" name="Conv_151/Dims11603" type="Const" version="opset1">
			<data element_type="f16" offset="38468" shape="1, 32, 1, 1" size="64"/>
			<output>
				<port id="0" precision="FP16">
					<dim>1</dim>
					<dim>32</dim>
					<dim>1</dim>
					<dim>1</dim>
				</port>
			</output>
		</layer>
		<layer id="252" name="Conv_151" type="Add" version="opset1">
			<data auto_broadcast="numpy"/>
			<input>
				<port id="0" precision="FP16">
					<dim>1</dim>
					<dim>32</dim>
					<dim>48</dim>
					<dim>80</dim>
				</port>
				<port id="1" precision="FP16">
					<dim>1</dim>
					<dim>32</dim>
					<dim>1</dim>
					<dim>1</dim>
				</port>
			</input>
			<output>
				<port id="2" names="1849" precision="FP16">
					<dim>1</dim>
					<dim>32</dim>
					<dim>48</dim>
					<dim>80</dim>
				</port>
			</output>
		</layer>
		<layer id="253" name="69250331" type="Const" version="opset1">
			<data element_type="f16" offset="3712" shape="1, 1, 1, 1" size="2"/>
			<output>
				<port id="0" names="692" precision="FP16">
					<dim>1</dim>
					<dim>1</dim>
					<dim>1</dim>
					<dim>1</dim>
				</port>
			</output>
		</layer>
		<layer id="254" name="Add_153" type="Add" version="opset1">
			<data auto_broadcast="numpy"/>
			<input>
				<port id="0" precision="FP16">
					<dim>1</dim>
					<dim>32</dim>
					<dim>48</dim>
					<dim>80</dim>
				</port>
				<port id="1" precision="FP16">
					<dim>1</dim>
					<dim>1</dim>
					<dim>1</dim>
					<dim>1</dim>
				</port>
			</input>
			<output>
				<port id="2" names="815" precision="FP16">
					<dim>1</dim>
					<dim>32</dim>
					<dim>48</dim>
					<dim>80</dim>
				</port>
			</output>
		</layer>
		<layer id="255" name="Clip_156" type="Clamp" version="opset1">
			<data max="6" min="0"/>
			<input>
				<port id="0" precision="FP16">
					<dim>1</dim>
					<dim>32</dim>
					<dim>48</dim>
					<dim>80</dim>
				</port>
			</input>
			<output>
				<port id="1" names="818" precision="FP16">
					<dim>1</dim>
					<dim>32</dim>
					<dim>48</dim>
					<dim>80</dim>
				</port>
			</output>
		</layer>
		<layer id="256" name="69550487" type="Const" version="opset1">
			<data element_type="f16" offset="3714" shape="1, 1, 1, 1" size="2"/>
			<output>
				<port id="0" names="695" precision="FP16">
					<dim>1</dim>
					<dim>1</dim>
					<dim>1</dim>
					<dim>1</dim>
				</port>
			</output>
		</layer>
		<layer id="257" name="Div_158" type="Multiply" version="opset1">
			<data auto_broadcast="numpy"/>
			<input>
				<port id="0" precision="FP16">
					<dim>1</dim>
					<dim>32</dim>
					<dim>48</dim>
					<dim>80</dim>
				</port>
				<port id="1" precision="FP16">
					<dim>1</dim>
					<dim>1</dim>
					<dim>1</dim>
					<dim>1</dim>
				</port>
			</input>
			<output>
				<port id="2" names="820" precision="FP16">
					<dim>1</dim>
					<dim>32</dim>
					<dim>48</dim>
					<dim>80</dim>
				</port>
			</output>
		</layer>
		<layer id="258" name="Mul_159" type="Multiply" version="opset1">
			<data auto_broadcast="numpy"/>
			<input>
				<port id="0" precision="FP16">
					<dim>1</dim>
					<dim>32</dim>
					<dim>48</dim>
					<dim>80</dim>
				</port>
				<port id="1" precision="FP16">
					<dim>1</dim>
					<dim>32</dim>
					<dim>48</dim>
					<dim>80</dim>
				</port>
			</input>
			<output>
				<port id="2" names="821" precision="FP16">
					<dim>1</dim>
					<dim>32</dim>
					<dim>48</dim>
					<dim>80</dim>
				</port>
			</output>
		</layer>
		<layer id="259" name="Concat_244" type="Concat" version="opset1">
			<data axis="1"/>
			<input>
				<port id="0" precision="FP16">
					<dim>1</dim>
					<dim>32</dim>
					<dim>48</dim>
					<dim>80</dim>
				</port>
				<port id="1" precision="FP16">
					<dim>1</dim>
					<dim>32</dim>
					<dim>48</dim>
					<dim>80</dim>
				</port>
			</input>
			<output>
				<port id="2" names="915" precision="FP16">
					<dim>1</dim>
					<dim>64</dim>
					<dim>48</dim>
					<dim>80</dim>
				</port>
			</output>
		</layer>
		<layer id="260" name="1880" type="Const" version="opset1">
			<data element_type="f16" offset="38532" shape="64, 64, 1, 1" size="8192"/>
			<output>
				<port id="0" names="1880" precision="FP16">
					<dim>64</dim>
					<dim>64</dim>
					<dim>1</dim>
					<dim>1</dim>
				</port>
			</output>
		</layer>
		<layer id="261" name="Conv_245/WithoutBiases" type="Convolution" version="opset1">
			<data auto_pad="explicit" dilations="1, 1" pads_begin="0, 0" pads_end="0, 0" strides="1, 1"/>
			<input>
				<port id="0" precision="FP16">
					<dim>1</dim>
					<dim>64</dim>
					<dim>48</dim>
					<dim>80</dim>
				</port>
				<port id="1" precision="FP16">
					<dim>64</dim>
					<dim>64</dim>
					<dim>1</dim>
					<dim>1</dim>
				</port>
			</input>
			<output>
				<port id="2" precision="FP16">
					<dim>1</dim>
					<dim>64</dim>
					<dim>48</dim>
					<dim>80</dim>
				</port>
			</output>
		</layer>
		<layer id="262" name="Conv_245/Dims11543" type="Const" version="opset1">
			<data element_type="f16" offset="46724" shape="1, 64, 1, 1" size="128"/>
			<output>
				<port id="0" precision="FP16">
					<dim>1</dim>
					<dim>64</dim>
					<dim>1</dim>
					<dim>1</dim>
				</port>
			</output>
		</layer>
		<layer id="263" name="Conv_245" type="Add" version="opset1">
			<data auto_broadcast="numpy"/>
			<input>
				<port id="0" precision="FP16">
					<dim>1</dim>
					<dim>64</dim>
					<dim>48</dim>
					<dim>80</dim>
				</port>
				<port id="1" precision="FP16">
					<dim>1</dim>
					<dim>64</dim>
					<dim>1</dim>
					<dim>1</dim>
				</port>
			</input>
			<output>
				<port id="2" names="1879" precision="FP16">
					<dim>1</dim>
					<dim>64</dim>
					<dim>48</dim>
					<dim>80</dim>
				</port>
			</output>
		</layer>
		<layer id="264" name="69249911" type="Const" version="opset1">
			<data element_type="f16" offset="3712" shape="1, 1, 1, 1" size="2"/>
			<output>
				<port id="0" names="692" precision="FP16">
					<dim>1</dim>
					<dim>1</dim>
					<dim>1</dim>
					<dim>1</dim>
				</port>
			</output>
		</layer>
		<layer id="265" name="Add_247" type="Add" version="opset1">
			<data auto_broadcast="numpy"/>
			<input>
				<port id="0" precision="FP16">
					<dim>1</dim>
					<dim>64</dim>
					<dim>48</dim>
					<dim>80</dim>
				</port>
				<port id="1" precision="FP16">
					<dim>1</dim>
					<dim>1</dim>
					<dim>1</dim>
					<dim>1</dim>
				</port>
			</input>
			<output>
				<port id="2" names="919" precision="FP16">
					<dim>1</dim>
					<dim>64</dim>
					<dim>48</dim>
					<dim>80</dim>
				</port>
			</output>
		</layer>
		<layer id="266" name="Clip_250" type="Clamp" version="opset1">
			<data max="6" min="0"/>
			<input>
				<port id="0" precision="FP16">
					<dim>1</dim>
					<dim>64</dim>
					<dim>48</dim>
					<dim>80</dim>
				</port>
			</input>
			<output>
				<port id="1" names="922" precision="FP16">
					<dim>1</dim>
					<dim>64</dim>
					<dim>48</dim>
					<dim>80</dim>
				</port>
			</output>
		</layer>
		<layer id="267" name="69550310" type="Const" version="opset1">
			<data element_type="f16" offset="3714" shape="1, 1, 1, 1" size="2"/>
			<output>
				<port id="0" names="695" precision="FP16">
					<dim>1</dim>
					<dim>1</dim>
					<dim>1</dim>
					<dim>1</dim>
				</port>
			</output>
		</layer>
		<layer id="268" name="Div_252" type="Multiply" version="opset1">
			<data auto_broadcast="numpy"/>
			<input>
				<port id="0" precision="FP16">
					<dim>1</dim>
					<dim>64</dim>
					<dim>48</dim>
					<dim>80</dim>
				</port>
				<port id="1" precision="FP16">
					<dim>1</dim>
					<dim>1</dim>
					<dim>1</dim>
					<dim>1</dim>
				</port>
			</input>
			<output>
				<port id="2" names="924" precision="FP16">
					<dim>1</dim>
					<dim>64</dim>
					<dim>48</dim>
					<dim>80</dim>
				</port>
			</output>
		</layer>
		<layer id="269" name="Mul_253" type="Multiply" version="opset1">
			<data auto_broadcast="numpy"/>
			<input>
				<port id="0" precision="FP16">
					<dim>1</dim>
					<dim>64</dim>
					<dim>48</dim>
					<dim>80</dim>
				</port>
				<port id="1" precision="FP16">
					<dim>1</dim>
					<dim>64</dim>
					<dim>48</dim>
					<dim>80</dim>
				</port>
			</input>
			<output>
				<port id="2" names="925" precision="FP16">
					<dim>1</dim>
					<dim>64</dim>
					<dim>48</dim>
					<dim>80</dim>
				</port>
			</output>
		</layer>
		<layer id="270" name="1883" type="Const" version="opset1">
			<data element_type="f16" offset="46852" shape="64, 1, 1, 3, 3" size="1152"/>
			<output>
				<port id="0" names="1883" precision="FP16">
					<dim>64</dim>
					<dim>1</dim>
					<dim>1</dim>
					<dim>3</dim>
					<dim>3</dim>
				</port>
			</output>
		</layer>
		<layer id="271" name="Conv_254/WithoutBiases" type="GroupConvolution" version="opset1">
			<data auto_pad="explicit" dilations="1, 1" pads_begin="1, 1" pads_end="1, 1" strides="2, 2"/>
			<input>
				<port id="0" precision="FP16">
					<dim>1</dim>
					<dim>64</dim>
					<dim>48</dim>
					<dim>80</dim>
				</port>
				<port id="1" precision="FP16">
					<dim>64</dim>
					<dim>1</dim>
					<dim>1</dim>
					<dim>3</dim>
					<dim>3</dim>
				</port>
			</input>
			<output>
				<port id="2" precision="FP16">
					<dim>1</dim>
					<dim>64</dim>
					<dim>24</dim>
					<dim>40</dim>
				</port>
			</output>
		</layer>
		<layer id="272" name="Conv_254/Dims11519" type="Const" version="opset1">
			<data element_type="f16" offset="48004" shape="1, 64, 1, 1" size="128"/>
			<output>
				<port id="0" precision="FP16">
					<dim>1</dim>
					<dim>64</dim>
					<dim>1</dim>
					<dim>1</dim>
				</port>
			</output>
		</layer>
		<layer id="273" name="Conv_254" type="Add" version="opset1">
			<data auto_broadcast="numpy"/>
			<input>
				<port id="0" precision="FP16">
					<dim>1</dim>
					<dim>64</dim>
					<dim>24</dim>
					<dim>40</dim>
				</port>
				<port id="1" precision="FP16">
					<dim>1</dim>
					<dim>64</dim>
					<dim>1</dim>
					<dim>1</dim>
				</port>
			</input>
			<output>
				<port id="2" names="1882" precision="FP16">
					<dim>1</dim>
					<dim>64</dim>
					<dim>24</dim>
					<dim>40</dim>
				</port>
			</output>
		</layer>
		<layer id="274" name="69249485" type="Const" version="opset1">
			<data element_type="f16" offset="3712" shape="1, 1, 1, 1" size="2"/>
			<output>
				<port id="0" names="692" precision="FP16">
					<dim>1</dim>
					<dim>1</dim>
					<dim>1</dim>
					<dim>1</dim>
				</port>
			</output>
		</layer>
		<layer id="275" name="Add_256" type="Add" version="opset1">
			<data auto_broadcast="numpy"/>
			<input>
				<port id="0" precision="FP16">
					<dim>1</dim>
					<dim>64</dim>
					<dim>24</dim>
					<dim>40</dim>
				</port>
				<port id="1" precision="FP16">
					<dim>1</dim>
					<dim>1</dim>
					<dim>1</dim>
					<dim>1</dim>
				</port>
			</input>
			<output>
				<port id="2" names="929" precision="FP16">
					<dim>1</dim>
					<dim>64</dim>
					<dim>24</dim>
					<dim>40</dim>
				</port>
			</output>
		</layer>
		<layer id="276" name="Clip_259" type="Clamp" version="opset1">
			<data max="6" min="0"/>
			<input>
				<port id="0" precision="FP16">
					<dim>1</dim>
					<dim>64</dim>
					<dim>24</dim>
					<dim>40</dim>
				</port>
			</input>
			<output>
				<port id="1" names="932" precision="FP16">
					<dim>1</dim>
					<dim>64</dim>
					<dim>24</dim>
					<dim>40</dim>
				</port>
			</output>
		</layer>
		<layer id="277" name="69550247" type="Const" version="opset1">
			<data element_type="f16" offset="3714" shape="1, 1, 1, 1" size="2"/>
			<output>
				<port id="0" names="695" precision="FP16">
					<dim>1</dim>
					<dim>1</dim>
					<dim>1</dim>
					<dim>1</dim>
				</port>
			</output>
		</layer>
		<layer id="278" name="Div_261" type="Multiply" version="opset1">
			<data auto_broadcast="numpy"/>
			<input>
				<port id="0" precision="FP16">
					<dim>1</dim>
					<dim>64</dim>
					<dim>24</dim>
					<dim>40</dim>
				</port>
				<port id="1" precision="FP16">
					<dim>1</dim>
					<dim>1</dim>
					<dim>1</dim>
					<dim>1</dim>
				</port>
			</input>
			<output>
				<port id="2" names="934" precision="FP16">
					<dim>1</dim>
					<dim>64</dim>
					<dim>24</dim>
					<dim>40</dim>
				</port>
			</output>
		</layer>
		<layer id="279" name="Mul_262" type="Multiply" version="opset1">
			<data auto_broadcast="numpy"/>
			<input>
				<port id="0" precision="FP16">
					<dim>1</dim>
					<dim>64</dim>
					<dim>24</dim>
					<dim>40</dim>
				</port>
				<port id="1" precision="FP16">
					<dim>1</dim>
					<dim>64</dim>
					<dim>24</dim>
					<dim>40</dim>
				</port>
			</input>
			<output>
				<port id="2" names="935" precision="FP16">
					<dim>1</dim>
					<dim>64</dim>
					<dim>24</dim>
					<dim>40</dim>
				</port>
			</output>
		</layer>
		<layer id="280" name="1886" type="Const" version="opset1">
			<data element_type="f16" offset="48132" shape="128, 64, 1, 1" size="16384"/>
			<output>
				<port id="0" names="1886" precision="FP16">
					<dim>128</dim>
					<dim>64</dim>
					<dim>1</dim>
					<dim>1</dim>
				</port>
			</output>
		</layer>
		<layer id="281" name="Conv_263/WithoutBiases" type="Convolution" version="opset1">
			<data auto_pad="explicit" dilations="1, 1" pads_begin="0, 0" pads_end="0, 0" strides="1, 1"/>
			<input>
				<port id="0" precision="FP16">
					<dim>1</dim>
					<dim>64</dim>
					<dim>24</dim>
					<dim>40</dim>
				</port>
				<port id="1" precision="FP16">
					<dim>128</dim>
					<dim>64</dim>
					<dim>1</dim>
					<dim>1</dim>
				</port>
			</input>
			<output>
				<port id="2" precision="FP16">
					<dim>1</dim>
					<dim>128</dim>
					<dim>24</dim>
					<dim>40</dim>
				</port>
			</output>
		</layer>
		<layer id="282" name="Conv_263/Dims11423" type="Const" version="opset1">
			<data element_type="f16" offset="64516" shape="1, 128, 1, 1" size="256"/>
			<output>
				<port id="0" precision="FP16">
					<dim>1</dim>
					<dim>128</dim>
					<dim>1</dim>
					<dim>1</dim>
				</port>
			</output>
		</layer>
		<layer id="283" name="Conv_263" type="Add" version="opset1">
			<data auto_broadcast="numpy"/>
			<input>
				<port id="0" precision="FP16">
					<dim>1</dim>
					<dim>128</dim>
					<dim>24</dim>
					<dim>40</dim>
				</port>
				<port id="1" precision="FP16">
					<dim>1</dim>
					<dim>128</dim>
					<dim>1</dim>
					<dim>1</dim>
				</port>
			</input>
			<output>
				<port id="2" names="1885" precision="FP16">
					<dim>1</dim>
					<dim>128</dim>
					<dim>24</dim>
					<dim>40</dim>
				</port>
			</output>
		</layer>
		<layer id="284" name="69249620" type="Const" version="opset1">
			<data element_type="f16" offset="3712" shape="1, 1, 1, 1" size="2"/>
			<output>
				<port id="0" names="692" precision="FP16">
					<dim>1</dim>
					<dim>1</dim>
					<dim>1</dim>
					<dim>1</dim>
				</port>
			</output>
		</layer>
		<layer id="285" name="Add_265" type="Add" version="opset1">
			<data auto_broadcast="numpy"/>
			<input>
				<port id="0" precision="FP16">
					<dim>1</dim>
					<dim>128</dim>
					<dim>24</dim>
					<dim>40</dim>
				</port>
				<port id="1" precision="FP16">
					<dim>1</dim>
					<dim>1</dim>
					<dim>1</dim>
					<dim>1</dim>
				</port>
			</input>
			<output>
				<port id="2" names="939" precision="FP16">
					<dim>1</dim>
					<dim>128</dim>
					<dim>24</dim>
					<dim>40</dim>
				</port>
			</output>
		</layer>
		<layer id="286" name="Clip_268" type="Clamp" version="opset1">
			<data max="6" min="0"/>
			<input>
				<port id="0" precision="FP16">
					<dim>1</dim>
					<dim>128</dim>
					<dim>24</dim>
					<dim>40</dim>
				</port>
			</input>
			<output>
				<port id="1" names="942" precision="FP16">
					<dim>1</dim>
					<dim>128</dim>
					<dim>24</dim>
					<dim>40</dim>
				</port>
			</output>
		</layer>
		<layer id="287" name="69550229" type="Const" version="opset1">
			<data element_type="f16" offset="3714" shape="1, 1, 1, 1" size="2"/>
			<output>
				<port id="0" names="695" precision="FP16">
					<dim>1</dim>
					<dim>1</dim>
					<dim>1</dim>
					<dim>1</dim>
				</port>
			</output>
		</layer>
		<layer id="288" name="Div_270" type="Multiply" version="opset1">
			<data auto_broadcast="numpy"/>
			<input>
				<port id="0" precision="FP16">
					<dim>1</dim>
					<dim>128</dim>
					<dim>24</dim>
					<dim>40</dim>
				</port>
				<port id="1" precision="FP16">
					<dim>1</dim>
					<dim>1</dim>
					<dim>1</dim>
					<dim>1</dim>
				</port>
			</input>
			<output>
				<port id="2" names="944" precision="FP16">
					<dim>1</dim>
					<dim>128</dim>
					<dim>24</dim>
					<dim>40</dim>
				</port>
			</output>
		</layer>
		<layer id="289" name="Mul_271" type="Multiply" version="opset1">
			<data auto_broadcast="numpy"/>
			<input>
				<port id="0" precision="FP16">
					<dim>1</dim>
					<dim>128</dim>
					<dim>24</dim>
					<dim>40</dim>
				</port>
				<port id="1" precision="FP16">
					<dim>1</dim>
					<dim>128</dim>
					<dim>24</dim>
					<dim>40</dim>
				</port>
			</input>
			<output>
				<port id="2" names="945" precision="FP16">
					<dim>1</dim>
					<dim>128</dim>
					<dim>24</dim>
					<dim>40</dim>
				</port>
			</output>
		</layer>
		<layer id="290" name="1889" type="Const" version="opset1">
			<data element_type="f16" offset="64772" shape="64, 128, 1, 1" size="16384"/>
			<output>
				<port id="0" names="1889" precision="FP16">
					<dim>64</dim>
					<dim>128</dim>
					<dim>1</dim>
					<dim>1</dim>
				</port>
			</output>
		</layer>
		<layer id="291" name="Conv_272/WithoutBiases" type="Convolution" version="opset1">
			<data auto_pad="explicit" dilations="1, 1" pads_begin="0, 0" pads_end="0, 0" strides="1, 1"/>
			<input>
				<port id="0" precision="FP16">
					<dim>1</dim>
					<dim>128</dim>
					<dim>24</dim>
					<dim>40</dim>
				</port>
				<port id="1" precision="FP16">
					<dim>64</dim>
					<dim>128</dim>
					<dim>1</dim>
					<dim>1</dim>
				</port>
			</input>
			<output>
				<port id="2" precision="FP16">
					<dim>1</dim>
					<dim>64</dim>
					<dim>24</dim>
					<dim>40</dim>
				</port>
			</output>
		</layer>
		<layer id="292" name="Conv_272/Dims11291" type="Const" version="opset1">
			<data element_type="f16" offset="81156" shape="1, 64, 1, 1" size="128"/>
			<output>
				<port id="0" precision="FP16">
					<dim>1</dim>
					<dim>64</dim>
					<dim>1</dim>
					<dim>1</dim>
				</port>
			</output>
		</layer>
		<layer id="293" name="Conv_272" type="Add" version="opset1">
			<data auto_broadcast="numpy"/>
			<input>
				<port id="0" precision="FP16">
					<dim>1</dim>
					<dim>64</dim>
					<dim>24</dim>
					<dim>40</dim>
				</port>
				<port id="1" precision="FP16">
					<dim>1</dim>
					<dim>64</dim>
					<dim>1</dim>
					<dim>1</dim>
				</port>
			</input>
			<output>
				<port id="2" names="1888" precision="FP16">
					<dim>1</dim>
					<dim>64</dim>
					<dim>24</dim>
					<dim>40</dim>
				</port>
			</output>
		</layer>
		<layer id="294" name="69249257" type="Const" version="opset1">
			<data element_type="f16" offset="3712" shape="1, 1, 1, 1" size="2"/>
			<output>
				<port id="0" names="692" precision="FP16">
					<dim>1</dim>
					<dim>1</dim>
					<dim>1</dim>
					<dim>1</dim>
				</port>
			</output>
		</layer>
		<layer id="295" name="Add_274" type="Add" version="opset1">
			<data auto_broadcast="numpy"/>
			<input>
				<port id="0" precision="FP16">
					<dim>1</dim>
					<dim>64</dim>
					<dim>24</dim>
					<dim>40</dim>
				</port>
				<port id="1" precision="FP16">
					<dim>1</dim>
					<dim>1</dim>
					<dim>1</dim>
					<dim>1</dim>
				</port>
			</input>
			<output>
				<port id="2" names="949" precision="FP16">
					<dim>1</dim>
					<dim>64</dim>
					<dim>24</dim>
					<dim>40</dim>
				</port>
			</output>
		</layer>
		<layer id="296" name="Clip_277" type="Clamp" version="opset1">
			<data max="6" min="0"/>
			<input>
				<port id="0" precision="FP16">
					<dim>1</dim>
					<dim>64</dim>
					<dim>24</dim>
					<dim>40</dim>
				</port>
			</input>
			<output>
				<port id="1" names="952" precision="FP16">
					<dim>1</dim>
					<dim>64</dim>
					<dim>24</dim>
					<dim>40</dim>
				</port>
			</output>
		</layer>
		<layer id="297" name="69549533" type="Const" version="opset1">
			<data element_type="f16" offset="3714" shape="1, 1, 1, 1" size="2"/>
			<output>
				<port id="0" names="695" precision="FP16">
					<dim>1</dim>
					<dim>1</dim>
					<dim>1</dim>
					<dim>1</dim>
				</port>
			</output>
		</layer>
		<layer id="298" name="Div_279" type="Multiply" version="opset1">
			<data auto_broadcast="numpy"/>
			<input>
				<port id="0" precision="FP16">
					<dim>1</dim>
					<dim>64</dim>
					<dim>24</dim>
					<dim>40</dim>
				</port>
				<port id="1" precision="FP16">
					<dim>1</dim>
					<dim>1</dim>
					<dim>1</dim>
					<dim>1</dim>
				</port>
			</input>
			<output>
				<port id="2" names="954" precision="FP16">
					<dim>1</dim>
					<dim>64</dim>
					<dim>24</dim>
					<dim>40</dim>
				</port>
			</output>
		</layer>
		<layer id="299" name="Mul_280" type="Multiply" version="opset1">
			<data auto_broadcast="numpy"/>
			<input>
				<port id="0" precision="FP16">
					<dim>1</dim>
					<dim>64</dim>
					<dim>24</dim>
					<dim>40</dim>
				</port>
				<port id="1" precision="FP16">
					<dim>1</dim>
					<dim>64</dim>
					<dim>24</dim>
					<dim>40</dim>
				</port>
			</input>
			<output>
				<port id="2" names="955" precision="FP16">
					<dim>1</dim>
					<dim>64</dim>
					<dim>24</dim>
					<dim>40</dim>
				</port>
			</output>
		</layer>
		<layer id="300" name="1895" type="Const" version="opset1">
			<data element_type="f16" offset="81284" shape="64, 64, 1, 1" size="8192"/>
			<output>
				<port id="0" names="1895" precision="FP16">
					<dim>64</dim>
					<dim>64</dim>
					<dim>1</dim>
					<dim>1</dim>
				</port>
			</output>
		</layer>
		<layer id="301" name="Conv_290/WithoutBiases" type="Convolution" version="opset1">
			<data auto_pad="explicit" dilations="1, 1" pads_begin="0, 0" pads_end="0, 0" strides="1, 1"/>
			<input>
				<port id="0" precision="FP16">
					<dim>1</dim>
					<dim>64</dim>
					<dim>24</dim>
					<dim>40</dim>
				</port>
				<port id="1" precision="FP16">
					<dim>64</dim>
					<dim>64</dim>
					<dim>1</dim>
					<dim>1</dim>
				</port>
			</input>
			<output>
				<port id="2" precision="FP16">
					<dim>1</dim>
					<dim>64</dim>
					<dim>24</dim>
					<dim>40</dim>
				</port>
			</output>
		</layer>
		<layer id="302" name="Conv_290/Dims11039" type="Const" version="opset1">
			<data element_type="f16" offset="89476" shape="1, 64, 1, 1" size="128"/>
			<output>
				<port id="0" precision="FP16">
					<dim>1</dim>
					<dim>64</dim>
					<dim>1</dim>
					<dim>1</dim>
				</port>
			</output>
		</layer>
		<layer id="303" name="Conv_290" type="Add" version="opset1">
			<data auto_broadcast="numpy"/>
			<input>
				<port id="0" precision="FP16">
					<dim>1</dim>
					<dim>64</dim>
					<dim>24</dim>
					<dim>40</dim>
				</port>
				<port id="1" precision="FP16">
					<dim>1</dim>
					<dim>64</dim>
					<dim>1</dim>
					<dim>1</dim>
				</port>
			</input>
			<output>
				<port id="2" names="1894" precision="FP16">
					<dim>1</dim>
					<dim>64</dim>
					<dim>24</dim>
					<dim>40</dim>
				</port>
			</output>
		</layer>
		<layer id="304" name="69249209" type="Const" version="opset1">
			<data element_type="f16" offset="3712" shape="1, 1, 1, 1" size="2"/>
			<output>
				<port id="0" names="692" precision="FP16">
					<dim>1</dim>
					<dim>1</dim>
					<dim>1</dim>
					<dim>1</dim>
				</port>
			</output>
		</layer>
		<layer id="305" name="Add_292" type="Add" version="opset1">
			<data auto_broadcast="numpy"/>
			<input>
				<port id="0" precision="FP16">
					<dim>1</dim>
					<dim>64</dim>
					<dim>24</dim>
					<dim>40</dim>
				</port>
				<port id="1" precision="FP16">
					<dim>1</dim>
					<dim>1</dim>
					<dim>1</dim>
					<dim>1</dim>
				</port>
			</input>
			<output>
				<port id="2" names="969" precision="FP16">
					<dim>1</dim>
					<dim>64</dim>
					<dim>24</dim>
					<dim>40</dim>
				</port>
			</output>
		</layer>
		<layer id="306" name="Clip_295" type="Clamp" version="opset1">
			<data max="6" min="0"/>
			<input>
				<port id="0" precision="FP16">
					<dim>1</dim>
					<dim>64</dim>
					<dim>24</dim>
					<dim>40</dim>
				</port>
			</input>
			<output>
				<port id="1" names="972" precision="FP16">
					<dim>1</dim>
					<dim>64</dim>
					<dim>24</dim>
					<dim>40</dim>
				</port>
			</output>
		</layer>
		<layer id="307" name="69549230" type="Const" version="opset1">
			<data element_type="f16" offset="3714" shape="1, 1, 1, 1" size="2"/>
			<output>
				<port id="0" names="695" precision="FP16">
					<dim>1</dim>
					<dim>1</dim>
					<dim>1</dim>
					<dim>1</dim>
				</port>
			</output>
		</layer>
		<layer id="308" name="Div_297" type="Multiply" version="opset1">
			<data auto_broadcast="numpy"/>
			<input>
				<port id="0" precision="FP16">
					<dim>1</dim>
					<dim>64</dim>
					<dim>24</dim>
					<dim>40</dim>
				</port>
				<port id="1" precision="FP16">
					<dim>1</dim>
					<dim>1</dim>
					<dim>1</dim>
					<dim>1</dim>
				</port>
			</input>
			<output>
				<port id="2" names="974" precision="FP16">
					<dim>1</dim>
					<dim>64</dim>
					<dim>24</dim>
					<dim>40</dim>
				</port>
			</output>
		</layer>
		<layer id="309" name="Mul_298" type="Multiply" version="opset1">
			<data auto_broadcast="numpy"/>
			<input>
				<port id="0" precision="FP16">
					<dim>1</dim>
					<dim>64</dim>
					<dim>24</dim>
					<dim>40</dim>
				</port>
				<port id="1" precision="FP16">
					<dim>1</dim>
					<dim>64</dim>
					<dim>24</dim>
					<dim>40</dim>
				</port>
			</input>
			<output>
				<port id="2" names="975" precision="FP16">
					<dim>1</dim>
					<dim>64</dim>
					<dim>24</dim>
					<dim>40</dim>
				</port>
			</output>
		</layer>
		<layer id="310" name="1898" type="Const" version="opset1">
			<data element_type="f16" offset="89604" shape="64, 1, 1, 3, 3" size="1152"/>
			<output>
				<port id="0" names="1898" precision="FP16">
					<dim>64</dim>
					<dim>1</dim>
					<dim>1</dim>
					<dim>3</dim>
					<dim>3</dim>
				</port>
			</output>
		</layer>
		<layer id="311" name="Conv_299/WithoutBiases" type="GroupConvolution" version="opset1">
			<data auto_pad="explicit" dilations="1, 1" pads_begin="1, 1" pads_end="1, 1" strides="1, 1"/>
			<input>
				<port id="0" precision="FP16">
					<dim>1</dim>
					<dim>64</dim>
					<dim>24</dim>
					<dim>40</dim>
				</port>
				<port id="1" precision="FP16">
					<dim>64</dim>
					<dim>1</dim>
					<dim>1</dim>
					<dim>3</dim>
					<dim>3</dim>
				</port>
			</input>
			<output>
				<port id="2" precision="FP16">
					<dim>1</dim>
					<dim>64</dim>
					<dim>24</dim>
					<dim>40</dim>
				</port>
			</output>
		</layer>
		<layer id="312" name="Conv_299/Dims11003" type="Const" version="opset1">
			<data element_type="f16" offset="90756" shape="1, 64, 1, 1" size="128"/>
			<output>
				<port id="0" precision="FP16">
					<dim>1</dim>
					<dim>64</dim>
					<dim>1</dim>
					<dim>1</dim>
				</port>
			</output>
		</layer>
		<layer id="313" name="Conv_299" type="Add" version="opset1">
			<data auto_broadcast="numpy"/>
			<input>
				<port id="0" precision="FP16">
					<dim>1</dim>
					<dim>64</dim>
					<dim>24</dim>
					<dim>40</dim>
				</port>
				<port id="1" precision="FP16">
					<dim>1</dim>
					<dim>64</dim>
					<dim>1</dim>
					<dim>1</dim>
				</port>
			</input>
			<output>
				<port id="2" names="1897" precision="FP16">
					<dim>1</dim>
					<dim>64</dim>
					<dim>24</dim>
					<dim>40</dim>
				</port>
			</output>
		</layer>
		<layer id="314" name="69249857" type="Const" version="opset1">
			<data element_type="f16" offset="3712" shape="1, 1, 1, 1" size="2"/>
			<output>
				<port id="0" names="692" precision="FP16">
					<dim>1</dim>
					<dim>1</dim>
					<dim>1</dim>
					<dim>1</dim>
				</port>
			</output>
		</layer>
		<layer id="315" name="Add_301" type="Add" version="opset1">
			<data auto_broadcast="numpy"/>
			<input>
				<port id="0" precision="FP16">
					<dim>1</dim>
					<dim>64</dim>
					<dim>24</dim>
					<dim>40</dim>
				</port>
				<port id="1" precision="FP16">
					<dim>1</dim>
					<dim>1</dim>
					<dim>1</dim>
					<dim>1</dim>
				</port>
			</input>
			<output>
				<port id="2" names="979" precision="FP16">
					<dim>1</dim>
					<dim>64</dim>
					<dim>24</dim>
					<dim>40</dim>
				</port>
			</output>
		</layer>
		<layer id="316" name="Clip_304" type="Clamp" version="opset1">
			<data max="6" min="0"/>
			<input>
				<port id="0" precision="FP16">
					<dim>1</dim>
					<dim>64</dim>
					<dim>24</dim>
					<dim>40</dim>
				</port>
			</input>
			<output>
				<port id="1" names="982" precision="FP16">
					<dim>1</dim>
					<dim>64</dim>
					<dim>24</dim>
					<dim>40</dim>
				</port>
			</output>
		</layer>
		<layer id="317" name="69550457" type="Const" version="opset1">
			<data element_type="f16" offset="3714" shape="1, 1, 1, 1" size="2"/>
			<output>
				<port id="0" names="695" precision="FP16">
					<dim>1</dim>
					<dim>1</dim>
					<dim>1</dim>
					<dim>1</dim>
				</port>
			</output>
		</layer>
		<layer id="318" name="Div_306" type="Multiply" version="opset1">
			<data auto_broadcast="numpy"/>
			<input>
				<port id="0" precision="FP16">
					<dim>1</dim>
					<dim>64</dim>
					<dim>24</dim>
					<dim>40</dim>
				</port>
				<port id="1" precision="FP16">
					<dim>1</dim>
					<dim>1</dim>
					<dim>1</dim>
					<dim>1</dim>
				</port>
			</input>
			<output>
				<port id="2" names="984" precision="FP16">
					<dim>1</dim>
					<dim>64</dim>
					<dim>24</dim>
					<dim>40</dim>
				</port>
			</output>
		</layer>
		<layer id="319" name="Mul_307" type="Multiply" version="opset1">
			<data auto_broadcast="numpy"/>
			<input>
				<port id="0" precision="FP16">
					<dim>1</dim>
					<dim>64</dim>
					<dim>24</dim>
					<dim>40</dim>
				</port>
				<port id="1" precision="FP16">
					<dim>1</dim>
					<dim>64</dim>
					<dim>24</dim>
					<dim>40</dim>
				</port>
			</input>
			<output>
				<port id="2" names="985" precision="FP16">
					<dim>1</dim>
					<dim>64</dim>
					<dim>24</dim>
					<dim>40</dim>
				</port>
			</output>
		</layer>
		<layer id="320" name="1901" type="Const" version="opset1">
			<data element_type="f16" offset="90884" shape="64, 64, 1, 1" size="8192"/>
			<output>
				<port id="0" names="1901" precision="FP16">
					<dim>64</dim>
					<dim>64</dim>
					<dim>1</dim>
					<dim>1</dim>
				</port>
			</output>
		</layer>
		<layer id="321" name="Conv_308/WithoutBiases" type="Convolution" version="opset1">
			<data auto_pad="explicit" dilations="1, 1" pads_begin="0, 0" pads_end="0, 0" strides="1, 1"/>
			<input>
				<port id="0" precision="FP16">
					<dim>1</dim>
					<dim>64</dim>
					<dim>24</dim>
					<dim>40</dim>
				</port>
				<port id="1" precision="FP16">
					<dim>64</dim>
					<dim>64</dim>
					<dim>1</dim>
					<dim>1</dim>
				</port>
			</input>
			<output>
				<port id="2" precision="FP16">
					<dim>1</dim>
					<dim>64</dim>
					<dim>24</dim>
					<dim>40</dim>
				</port>
			</output>
		</layer>
		<layer id="322" name="Conv_308/Dims11459" type="Const" version="opset1">
			<data element_type="f16" offset="99076" shape="1, 64, 1, 1" size="128"/>
			<output>
				<port id="0" precision="FP16">
					<dim>1</dim>
					<dim>64</dim>
					<dim>1</dim>
					<dim>1</dim>
				</port>
			</output>
		</layer>
		<layer id="323" name="Conv_308" type="Add" version="opset1">
			<data auto_broadcast="numpy"/>
			<input>
				<port id="0" precision="FP16">
					<dim>1</dim>
					<dim>64</dim>
					<dim>24</dim>
					<dim>40</dim>
				</port>
				<port id="1" precision="FP16">
					<dim>1</dim>
					<dim>64</dim>
					<dim>1</dim>
					<dim>1</dim>
				</port>
			</input>
			<output>
				<port id="2" names="1900" precision="FP16">
					<dim>1</dim>
					<dim>64</dim>
					<dim>24</dim>
					<dim>40</dim>
				</port>
			</output>
		</layer>
		<layer id="324" name="69249248" type="Const" version="opset1">
			<data element_type="f16" offset="3712" shape="1, 1, 1, 1" size="2"/>
			<output>
				<port id="0" names="692" precision="FP16">
					<dim>1</dim>
					<dim>1</dim>
					<dim>1</dim>
					<dim>1</dim>
				</port>
			</output>
		</layer>
		<layer id="325" name="Add_310" type="Add" version="opset1">
			<data auto_broadcast="numpy"/>
			<input>
				<port id="0" precision="FP16">
					<dim>1</dim>
					<dim>64</dim>
					<dim>24</dim>
					<dim>40</dim>
				</port>
				<port id="1" precision="FP16">
					<dim>1</dim>
					<dim>1</dim>
					<dim>1</dim>
					<dim>1</dim>
				</port>
			</input>
			<output>
				<port id="2" names="989" precision="FP16">
					<dim>1</dim>
					<dim>64</dim>
					<dim>24</dim>
					<dim>40</dim>
				</port>
			</output>
		</layer>
		<layer id="326" name="Clip_313" type="Clamp" version="opset1">
			<data max="6" min="0"/>
			<input>
				<port id="0" precision="FP16">
					<dim>1</dim>
					<dim>64</dim>
					<dim>24</dim>
					<dim>40</dim>
				</port>
			</input>
			<output>
				<port id="1" names="992" precision="FP16">
					<dim>1</dim>
					<dim>64</dim>
					<dim>24</dim>
					<dim>40</dim>
				</port>
			</output>
		</layer>
		<layer id="327" name="69550259" type="Const" version="opset1">
			<data element_type="f16" offset="3714" shape="1, 1, 1, 1" size="2"/>
			<output>
				<port id="0" names="695" precision="FP16">
					<dim>1</dim>
					<dim>1</dim>
					<dim>1</dim>
					<dim>1</dim>
				</port>
			</output>
		</layer>
		<layer id="328" name="Div_315" type="Multiply" version="opset1">
			<data auto_broadcast="numpy"/>
			<input>
				<port id="0" precision="FP16">
					<dim>1</dim>
					<dim>64</dim>
					<dim>24</dim>
					<dim>40</dim>
				</port>
				<port id="1" precision="FP16">
					<dim>1</dim>
					<dim>1</dim>
					<dim>1</dim>
					<dim>1</dim>
				</port>
			</input>
			<output>
				<port id="2" names="994" precision="FP16">
					<dim>1</dim>
					<dim>64</dim>
					<dim>24</dim>
					<dim>40</dim>
				</port>
			</output>
		</layer>
		<layer id="329" name="Mul_316" type="Multiply" version="opset1">
			<data auto_broadcast="numpy"/>
			<input>
				<port id="0" precision="FP16">
					<dim>1</dim>
					<dim>64</dim>
					<dim>24</dim>
					<dim>40</dim>
				</port>
				<port id="1" precision="FP16">
					<dim>1</dim>
					<dim>64</dim>
					<dim>24</dim>
					<dim>40</dim>
				</port>
			</input>
			<output>
				<port id="2" names="995" precision="FP16">
					<dim>1</dim>
					<dim>64</dim>
					<dim>24</dim>
					<dim>40</dim>
				</port>
			</output>
		</layer>
		<layer id="330" name="Add_317" type="Add" version="opset1">
			<data auto_broadcast="numpy"/>
			<input>
				<port id="0" precision="FP16">
					<dim>1</dim>
					<dim>64</dim>
					<dim>24</dim>
					<dim>40</dim>
				</port>
				<port id="1" precision="FP16">
					<dim>1</dim>
					<dim>64</dim>
					<dim>24</dim>
					<dim>40</dim>
				</port>
			</input>
			<output>
				<port id="2" names="996" precision="FP16">
					<dim>1</dim>
					<dim>64</dim>
					<dim>24</dim>
					<dim>40</dim>
				</port>
			</output>
		</layer>
		<layer id="331" name="1904" type="Const" version="opset1">
			<data element_type="f16" offset="99204" shape="64, 64, 1, 1" size="8192"/>
			<output>
				<port id="0" names="1904" precision="FP16">
					<dim>64</dim>
					<dim>64</dim>
					<dim>1</dim>
					<dim>1</dim>
				</port>
			</output>
		</layer>
		<layer id="332" name="Conv_318/WithoutBiases" type="Convolution" version="opset1">
			<data auto_pad="explicit" dilations="1, 1" pads_begin="0, 0" pads_end="0, 0" strides="1, 1"/>
			<input>
				<port id="0" precision="FP16">
					<dim>1</dim>
					<dim>64</dim>
					<dim>24</dim>
					<dim>40</dim>
				</port>
				<port id="1" precision="FP16">
					<dim>64</dim>
					<dim>64</dim>
					<dim>1</dim>
					<dim>1</dim>
				</port>
			</input>
			<output>
				<port id="2" precision="FP16">
					<dim>1</dim>
					<dim>64</dim>
					<dim>24</dim>
					<dim>40</dim>
				</port>
			</output>
		</layer>
		<layer id="333" name="Conv_318/Dims10997" type="Const" version="opset1">
			<data element_type="f16" offset="107396" shape="1, 64, 1, 1" size="128"/>
			<output>
				<port id="0" precision="FP16">
					<dim>1</dim>
					<dim>64</dim>
					<dim>1</dim>
					<dim>1</dim>
				</port>
			</output>
		</layer>
		<layer id="334" name="Conv_318" type="Add" version="opset1">
			<data auto_broadcast="numpy"/>
			<input>
				<port id="0" precision="FP16">
					<dim>1</dim>
					<dim>64</dim>
					<dim>24</dim>
					<dim>40</dim>
				</port>
				<port id="1" precision="FP16">
					<dim>1</dim>
					<dim>64</dim>
					<dim>1</dim>
					<dim>1</dim>
				</port>
			</input>
			<output>
				<port id="2" names="1903" precision="FP16">
					<dim>1</dim>
					<dim>64</dim>
					<dim>24</dim>
					<dim>40</dim>
				</port>
			</output>
		</layer>
		<layer id="335" name="69249278" type="Const" version="opset1">
			<data element_type="f16" offset="3712" shape="1, 1, 1, 1" size="2"/>
			<output>
				<port id="0" names="692" precision="FP16">
					<dim>1</dim>
					<dim>1</dim>
					<dim>1</dim>
					<dim>1</dim>
				</port>
			</output>
		</layer>
		<layer id="336" name="Add_320" type="Add" version="opset1">
			<data auto_broadcast="numpy"/>
			<input>
				<port id="0" precision="FP16">
					<dim>1</dim>
					<dim>64</dim>
					<dim>24</dim>
					<dim>40</dim>
				</port>
				<port id="1" precision="FP16">
					<dim>1</dim>
					<dim>1</dim>
					<dim>1</dim>
					<dim>1</dim>
				</port>
			</input>
			<output>
				<port id="2" names="1000" precision="FP16">
					<dim>1</dim>
					<dim>64</dim>
					<dim>24</dim>
					<dim>40</dim>
				</port>
			</output>
		</layer>
		<layer id="337" name="Clip_323" type="Clamp" version="opset1">
			<data max="6" min="0"/>
			<input>
				<port id="0" precision="FP16">
					<dim>1</dim>
					<dim>64</dim>
					<dim>24</dim>
					<dim>40</dim>
				</port>
			</input>
			<output>
				<port id="1" names="1003" precision="FP16">
					<dim>1</dim>
					<dim>64</dim>
					<dim>24</dim>
					<dim>40</dim>
				</port>
			</output>
		</layer>
		<layer id="338" name="69550040" type="Const" version="opset1">
			<data element_type="f16" offset="3714" shape="1, 1, 1, 1" size="2"/>
			<output>
				<port id="0" names="695" precision="FP16">
					<dim>1</dim>
					<dim>1</dim>
					<dim>1</dim>
					<dim>1</dim>
				</port>
			</output>
		</layer>
		<layer id="339" name="Div_325" type="Multiply" version="opset1">
			<data auto_broadcast="numpy"/>
			<input>
				<port id="0" precision="FP16">
					<dim>1</dim>
					<dim>64</dim>
					<dim>24</dim>
					<dim>40</dim>
				</port>
				<port id="1" precision="FP16">
					<dim>1</dim>
					<dim>1</dim>
					<dim>1</dim>
					<dim>1</dim>
				</port>
			</input>
			<output>
				<port id="2" names="1005" precision="FP16">
					<dim>1</dim>
					<dim>64</dim>
					<dim>24</dim>
					<dim>40</dim>
				</port>
			</output>
		</layer>
		<layer id="340" name="Mul_326" type="Multiply" version="opset1">
			<data auto_broadcast="numpy"/>
			<input>
				<port id="0" precision="FP16">
					<dim>1</dim>
					<dim>64</dim>
					<dim>24</dim>
					<dim>40</dim>
				</port>
				<port id="1" precision="FP16">
					<dim>1</dim>
					<dim>64</dim>
					<dim>24</dim>
					<dim>40</dim>
				</port>
			</input>
			<output>
				<port id="2" names="1006" precision="FP16">
					<dim>1</dim>
					<dim>64</dim>
					<dim>24</dim>
					<dim>40</dim>
				</port>
			</output>
		</layer>
		<layer id="341" name="1907" type="Const" version="opset1">
			<data element_type="f16" offset="107524" shape="64, 1, 1, 3, 3" size="1152"/>
			<output>
				<port id="0" names="1907" precision="FP16">
					<dim>64</dim>
					<dim>1</dim>
					<dim>1</dim>
					<dim>3</dim>
					<dim>3</dim>
				</port>
			</output>
		</layer>
		<layer id="342" name="Conv_327/WithoutBiases" type="GroupConvolution" version="opset1">
			<data auto_pad="explicit" dilations="1, 1" pads_begin="1, 1" pads_end="1, 1" strides="1, 1"/>
			<input>
				<port id="0" precision="FP16">
					<dim>1</dim>
					<dim>64</dim>
					<dim>24</dim>
					<dim>40</dim>
				</port>
				<port id="1" precision="FP16">
					<dim>64</dim>
					<dim>1</dim>
					<dim>1</dim>
					<dim>3</dim>
					<dim>3</dim>
				</port>
			</input>
			<output>
				<port id="2" precision="FP16">
					<dim>1</dim>
					<dim>64</dim>
					<dim>24</dim>
					<dim>40</dim>
				</port>
			</output>
		</layer>
		<layer id="343" name="Conv_327/Dims11369" type="Const" version="opset1">
			<data element_type="f16" offset="108676" shape="1, 64, 1, 1" size="128"/>
			<output>
				<port id="0" precision="FP16">
					<dim>1</dim>
					<dim>64</dim>
					<dim>1</dim>
					<dim>1</dim>
				</port>
			</output>
		</layer>
		<layer id="344" name="Conv_327" type="Add" version="opset1">
			<data auto_broadcast="numpy"/>
			<input>
				<port id="0" precision="FP16">
					<dim>1</dim>
					<dim>64</dim>
					<dim>24</dim>
					<dim>40</dim>
				</port>
				<port id="1" precision="FP16">
					<dim>1</dim>
					<dim>64</dim>
					<dim>1</dim>
					<dim>1</dim>
				</port>
			</input>
			<output>
				<port id="2" names="1906" precision="FP16">
					<dim>1</dim>
					<dim>64</dim>
					<dim>24</dim>
					<dim>40</dim>
				</port>
			</output>
		</layer>
		<layer id="345" name="69250340" type="Const" version="opset1">
			<data element_type="f16" offset="3712" shape="1, 1, 1, 1" size="2"/>
			<output>
				<port id="0" names="692" precision="FP16">
…
		<edge from-layer="555" from-port="0" to-layer="556" to-port="1"/>
		<edge from-layer="556" from-port="2" to-layer="558" to-port="0"/>
		<edge from-layer="557" from-port="0" to-layer="558" to-port="1"/>
		<edge from-layer="558" from-port="2" to-layer="560" to-port="0"/>
		<edge from-layer="558" from-port="2" to-layer="564" to-port="0"/>
		<edge from-layer="559" from-port="0" to-layer="560" to-port="1"/>
		<edge from-layer="560" from-port="2" to-layer="561" to-port="0"/>
		<edge from-layer="561" from-port="1" to-layer="563" to-port="0"/>
		<edge from-layer="562" from-port="0" to-layer="563" to-port="1"/>
		<edge from-layer="563" from-port="2" to-layer="564" to-port="1"/>
		<edge from-layer="564" from-port="2" to-layer="566" to-port="0"/>
		<edge from-layer="565" from-port="0" to-layer="566" to-port="1"/>
		<edge from-layer="566" from-port="2" to-layer="568" to-port="0"/>
		<edge from-layer="567" from-port="0" to-layer="568" to-port="1"/>
		<edge from-layer="568" from-port="2" to-layer="574" to-port="0"/>
		<edge from-layer="568" from-port="2" to-layer="570" to-port="0"/>
		<edge from-layer="569" from-port="0" to-layer="570" to-port="1"/>
		<edge from-layer="570" from-port="2" to-layer="571" to-port="0"/>
		<edge from-layer="571" from-port="1" to-layer="573" to-port="0"/>
		<edge from-layer="572" from-port="0" to-layer="573" to-port="1"/>
		<edge from-layer="573" from-port="2" to-layer="574" to-port="1"/>
		<edge from-layer="574" from-port="2" to-layer="576" to-port="0"/>
		<edge from-layer="575" from-port="0" to-layer="576" to-port="1"/>
		<edge from-layer="576" from-port="2" to-layer="578" to-port="0"/>
		<edge from-layer="577" from-port="0" to-layer="578" to-port="1"/>
		<edge from-layer="578" from-port="2" to-layer="584" to-port="0"/>
		<edge from-layer="578" from-port="2" to-layer="580" to-port="0"/>
		<edge from-layer="579" from-port="0" to-layer="580" to-port="1"/>
		<edge from-layer="580" from-port="2" to-layer="581" to-port="0"/>
		<edge from-layer="581" from-port="1" to-layer="583" to-port="0"/>
		<edge from-layer="582" from-port="0" to-layer="583" to-port="1"/>
		<edge from-layer="583" from-port="2" to-layer="584" to-port="1"/>
		<edge from-layer="584" from-port="2" to-layer="595" to-port="0"/>
		<edge from-layer="585" from-port="0" to-layer="586" to-port="1"/>
		<edge from-layer="586" from-port="2" to-layer="588" to-port="0"/>
		<edge from-layer="587" from-port="0" to-layer="588" to-port="1"/>
		<edge from-layer="588" from-port="2" to-layer="590" to-port="0"/>
		<edge from-layer="588" from-port="2" to-layer="594" to-port="0"/>
		<edge from-layer="589" from-port="0" to-layer="590" to-port="1"/>
		<edge from-layer="590" from-port="2" to-layer="591" to-port="0"/>
		<edge from-layer="591" from-port="1" to-layer="593" to-port="0"/>
		<edge from-layer="592" from-port="0" to-layer="593" to-port="1"/>
		<edge from-layer="593" from-port="2" to-layer="594" to-port="1"/>
		<edge from-layer="594" from-port="2" to-layer="595" to-port="1"/>
		<edge from-layer="595" from-port="2" to-layer="597" to-port="0"/>
		<edge from-layer="596" from-port="0" to-layer="597" to-port="1"/>
		<edge from-layer="597" from-port="2" to-layer="599" to-port="0"/>
		<edge from-layer="598" from-port="0" to-layer="599" to-port="1"/>
		<edge from-layer="599" from-port="2" to-layer="601" to-port="0"/>
		<edge from-layer="599" from-port="2" to-layer="605" to-port="0"/>
		<edge from-layer="600" from-port="0" to-layer="601" to-port="1"/>
		<edge from-layer="601" from-port="2" to-layer="602" to-port="0"/>
		<edge from-layer="602" from-port="1" to-layer="604" to-port="0"/>
		<edge from-layer="603" from-port="0" to-layer="604" to-port="1"/>
		<edge from-layer="604" from-port="2" to-layer="605" to-port="1"/>
		<edge from-layer="605" from-port="2" to-layer="607" to-port="0"/>
		<edge from-layer="606" from-port="0" to-layer="607" to-port="1"/>
		<edge from-layer="607" from-port="2" to-layer="609" to-port="0"/>
		<edge from-layer="608" from-port="0" to-layer="609" to-port="1"/>
		<edge from-layer="609" from-port="2" to-layer="611" to-port="0"/>
		<edge from-layer="609" from-port="2" to-layer="615" to-port="0"/>
		<edge from-layer="610" from-port="0" to-layer="611" to-port="1"/>
		<edge from-layer="611" from-port="2" to-layer="612" to-port="0"/>
		<edge from-layer="612" from-port="1" to-layer="614" to-port="0"/>
		<edge from-layer="613" from-port="0" to-layer="614" to-port="1"/>
		<edge from-layer="614" from-port="2" to-layer="615" to-port="1"/>
		<edge from-layer="615" from-port="2" to-layer="825" to-port="1"/>
		<edge from-layer="615" from-port="2" to-layer="616" to-port="0"/>
		<edge from-layer="615" from-port="2" to-layer="630" to-port="0"/>
		<edge from-layer="616" from-port="1" to-layer="617" to-port="0"/>
		<edge from-layer="617" from-port="1" to-layer="619" to-port="0"/>
		<edge from-layer="618" from-port="0" to-layer="619" to-port="1"/>
		<edge from-layer="619" from-port="2" to-layer="621" to-port="0"/>
		<edge from-layer="620" from-port="0" to-layer="621" to-port="1"/>
		<edge from-layer="621" from-port="2" to-layer="622" to-port="0"/>
		<edge from-layer="622" from-port="1" to-layer="623" to-port="0"/>
		<edge from-layer="623" from-port="1" to-layer="627" to-port="0"/>
		<edge from-layer="624" from-port="0" to-layer="627" to-port="1"/>
		<edge from-layer="625" from-port="0" to-layer="627" to-port="2"/>
		<edge from-layer="626" from-port="0" to-layer="627" to-port="3"/>
		<edge from-layer="627" from-port="4" to-layer="630" to-port="1"/>
		<edge from-layer="628" from-port="0" to-layer="630" to-port="2"/>
		<edge from-layer="629" from-port="0" to-layer="630" to-port="3"/>
		<edge from-layer="630" from-port="4" to-layer="631" to-port="0"/>
		<edge from-layer="631" from-port="2" to-layer="673" to-port="0"/>
		<edge from-layer="631" from-port="2" to-layer="633" to-port="0"/>
		<edge from-layer="632" from-port="0" to-layer="633" to-port="1"/>
		<edge from-layer="633" from-port="2" to-layer="635" to-port="0"/>
		<edge from-layer="634" from-port="0" to-layer="635" to-port="1"/>
		<edge from-layer="635" from-port="2" to-layer="637" to-port="0"/>
		<edge from-layer="635" from-port="2" to-layer="641" to-port="0"/>
		<edge from-layer="636" from-port="0" to-layer="637" to-port="1"/>
		<edge from-layer="637" from-port="2" to-layer="638" to-port="0"/>
		<edge from-layer="638" from-port="1" to-layer="640" to-port="0"/>
		<edge from-layer="639" from-port="0" to-layer="640" to-port="1"/>
		<edge from-layer="640" from-port="2" to-layer="641" to-port="1"/>
		<edge from-layer="641" from-port="2" to-layer="643" to-port="0"/>
		<edge from-layer="642" from-port="0" to-layer="643" to-port="1"/>
		<edge from-layer="643" from-port="2" to-layer="645" to-port="0"/>
		<edge from-layer="644" from-port="0" to-layer="645" to-port="1"/>
		<edge from-layer="645" from-port="2" to-layer="647" to-port="0"/>
		<edge from-layer="645" from-port="2" to-layer="651" to-port="0"/>
		<edge from-layer="646" from-port="0" to-layer="647" to-port="1"/>
		<edge from-layer="647" from-port="2" to-layer="648" to-port="0"/>
		<edge from-layer="648" from-port="1" to-layer="650" to-port="0"/>
		<edge from-layer="649" from-port="0" to-layer="650" to-port="1"/>
		<edge from-layer="650" from-port="2" to-layer="651" to-port="1"/>
		<edge from-layer="651" from-port="2" to-layer="653" to-port="0"/>
		<edge from-layer="652" from-port="0" to-layer="653" to-port="1"/>
		<edge from-layer="653" from-port="2" to-layer="655" to-port="0"/>
		<edge from-layer="654" from-port="0" to-layer="655" to-port="1"/>
		<edge from-layer="655" from-port="2" to-layer="657" to-port="0"/>
		<edge from-layer="655" from-port="2" to-layer="661" to-port="0"/>
		<edge from-layer="656" from-port="0" to-layer="657" to-port="1"/>
		<edge from-layer="657" from-port="2" to-layer="658" to-port="0"/>
		<edge from-layer="658" from-port="1" to-layer="660" to-port="0"/>
		<edge from-layer="659" from-port="0" to-layer="660" to-port="1"/>
		<edge from-layer="660" from-port="2" to-layer="661" to-port="1"/>
		<edge from-layer="661" from-port="2" to-layer="663" to-port="0"/>
		<edge from-layer="662" from-port="0" to-layer="663" to-port="1"/>
		<edge from-layer="663" from-port="2" to-layer="665" to-port="0"/>
		<edge from-layer="664" from-port="0" to-layer="665" to-port="1"/>
		<edge from-layer="665" from-port="2" to-layer="671" to-port="0"/>
		<edge from-layer="665" from-port="2" to-layer="667" to-port="0"/>
		<edge from-layer="666" from-port="0" to-layer="667" to-port="1"/>
		<edge from-layer="667" from-port="2" to-layer="668" to-port="0"/>
		<edge from-layer="668" from-port="1" to-layer="670" to-port="0"/>
		<edge from-layer="669" from-port="0" to-layer="670" to-port="1"/>
		<edge from-layer="670" from-port="2" to-layer="671" to-port="1"/>
		<edge from-layer="671" from-port="2" to-layer="682" to-port="0"/>
		<edge from-layer="672" from-port="0" to-layer="673" to-port="1"/>
		<edge from-layer="673" from-port="2" to-layer="675" to-port="0"/>
		<edge from-layer="674" from-port="0" to-layer="675" to-port="1"/>
		<edge from-layer="675" from-port="2" to-layer="677" to-port="0"/>
		<edge from-layer="675" from-port="2" to-layer="681" to-port="0"/>
		<edge from-layer="676" from-port="0" to-layer="677" to-port="1"/>
		<edge from-layer="677" from-port="2" to-layer="678" to-port="0"/>
		<edge from-layer="678" from-port="1" to-layer="680" to-port="0"/>
		<edge from-layer="679" from-port="0" to-layer="680" to-port="1"/>
		<edge from-layer="680" from-port="2" to-layer="681" to-port="1"/>
		<edge from-layer="681" from-port="2" to-layer="682" to-port="1"/>
		<edge from-layer="682" from-port="2" to-layer="684" to-port="0"/>
		<edge from-layer="683" from-port="0" to-layer="684" to-port="1"/>
		<edge from-layer="684" from-port="2" to-layer="686" to-port="0"/>
		<edge from-layer="685" from-port="0" to-layer="686" to-port="1"/>
		<edge from-layer="686" from-port="2" to-layer="688" to-port="0"/>
		<edge from-layer="686" from-port="2" to-layer="692" to-port="0"/>
		<edge from-layer="687" from-port="0" to-layer="688" to-port="1"/>
		<edge from-layer="688" from-port="2" to-layer="689" to-port="0"/>
		<edge from-layer="689" from-port="1" to-layer="691" to-port="0"/>
		<edge from-layer="690" from-port="0" to-layer="691" to-port="1"/>
		<edge from-layer="691" from-port="2" to-layer="692" to-port="1"/>
		<edge from-layer="692" from-port="2" to-layer="694" to-port="0"/>
		<edge from-layer="692" from-port="2" to-layer="806" to-port="0"/>
		<edge from-layer="693" from-port="0" to-layer="694" to-port="1"/>
		<edge from-layer="694" from-port="2" to-layer="696" to-port="0"/>
		<edge from-layer="695" from-port="0" to-layer="696" to-port="1"/>
		<edge from-layer="696" from-port="2" to-layer="702" to-port="0"/>
		<edge from-layer="696" from-port="2" to-layer="698" to-port="0"/>
		<edge from-layer="697" from-port="0" to-layer="698" to-port="1"/>
		<edge from-layer="698" from-port="2" to-layer="699" to-port="0"/>
		<edge from-layer="699" from-port="1" to-layer="701" to-port="0"/>
		<edge from-layer="700" from-port="0" to-layer="701" to-port="1"/>
		<edge from-layer="701" from-port="2" to-layer="702" to-port="1"/>
		<edge from-layer="702" from-port="2" to-layer="753" to-port="0"/>
		<edge from-layer="702" from-port="2" to-layer="704" to-port="0"/>
		<edge from-layer="703" from-port="0" to-layer="704" to-port="1"/>
		<edge from-layer="704" from-port="2" to-layer="706" to-port="0"/>
		<edge from-layer="705" from-port="0" to-layer="706" to-port="1"/>
		<edge from-layer="706" from-port="2" to-layer="712" to-port="0"/>
		<edge from-layer="706" from-port="2" to-layer="708" to-port="0"/>
		<edge from-layer="707" from-port="0" to-layer="708" to-port="1"/>
		<edge from-layer="708" from-port="2" to-layer="709" to-port="0"/>
		<edge from-layer="709" from-port="1" to-layer="711" to-port="0"/>
		<edge from-layer="710" from-port="0" to-layer="711" to-port="1"/>
		<edge from-layer="711" from-port="2" to-layer="712" to-port="1"/>
		<edge from-layer="712" from-port="2" to-layer="714" to-port="0"/>
		<edge from-layer="713" from-port="0" to-layer="714" to-port="1"/>
		<edge from-layer="714" from-port="2" to-layer="716" to-port="0"/>
		<edge from-layer="715" from-port="0" to-layer="716" to-port="1"/>
		<edge from-layer="716" from-port="2" to-layer="722" to-port="0"/>
		<edge from-layer="716" from-port="2" to-layer="718" to-port="0"/>
		<edge from-layer="717" from-port="0" to-layer="718" to-port="1"/>
		<edge from-layer="718" from-port="2" to-layer="719" to-port="0"/>
		<edge from-layer="719" from-port="1" to-layer="721" to-port="0"/>
		<edge from-layer="720" from-port="0" to-layer="721" to-port="1"/>
		<edge from-layer="721" from-port="2" to-layer="722" to-port="1"/>
		<edge from-layer="722" from-port="2" to-layer="724" to-port="0"/>
		<edge from-layer="723" from-port="0" to-layer="724" to-port="1"/>
		<edge from-layer="724" from-port="2" to-layer="726" to-port="0"/>
		<edge from-layer="725" from-port="0" to-layer="726" to-port="1"/>
		<edge from-layer="726" from-port="2" to-layer="732" to-port="0"/>
		<edge from-layer="726" from-port="2" to-layer="728" to-port="0"/>
		<edge from-layer="727" from-port="0" to-layer="728" to-port="1"/>
		<edge from-layer="728" from-port="2" to-layer="729" to-port="0"/>
		<edge from-layer="729" from-port="1" to-layer="731" to-port="0"/>
		<edge from-layer="730" from-port="0" to-layer="731" to-port="1"/>
		<edge from-layer="731" from-port="2" to-layer="732" to-port="1"/>
		<edge from-layer="732" from-port="2" to-layer="734" to-port="0"/>
		<edge from-layer="733" from-port="0" to-layer="734" to-port="1"/>
		<edge from-layer="734" from-port="2" to-layer="736" to-port="0"/>
		<edge from-layer="735" from-port="0" to-layer="736" to-port="1"/>
		<edge from-layer="736" from-port="2" to-layer="742" to-port="0"/>
		<edge from-layer="736" from-port="2" to-layer="738" to-port="0"/>
		<edge from-layer="737" from-port="0" to-layer="738" to-port="1"/>
		<edge from-layer="738" from-port="2" to-layer="739" to-port="0"/>
		<edge from-layer="739" from-port="1" to-layer="741" to-port="0"/>
		<edge from-layer="740" from-port="0" to-layer="741" to-port="1"/>
		<edge from-layer="741" from-port="2" to-layer="742" to-port="1"/>
		<edge from-layer="742" from-port="2" to-layer="744" to-port="0"/>
		<edge from-layer="742" from-port="2" to-layer="748" to-port="0"/>
		<edge from-layer="743" from-port="0" to-layer="744" to-port="1"/>
		<edge from-layer="744" from-port="2" to-layer="746" to-port="0"/>
		<edge from-layer="745" from-port="0" to-layer="746" to-port="1"/>
		<edge from-layer="746" from-port="2" to-layer="802" to-port="0"/>
		<edge from-layer="747" from-port="0" to-layer="748" to-port="1"/>
		<edge from-layer="748" from-port="2" to-layer="750" to-port="0"/>
		<edge from-layer="749" from-port="0" to-layer="750" to-port="1"/>
		<edge from-layer="750" from-port="2" to-layer="751" to-port="0"/>
		<edge from-layer="751" from-port="1" to-layer="802" to-port="1"/>
		<edge from-layer="752" from-port="0" to-layer="753" to-port="1"/>
		<edge from-layer="753" from-port="2" to-layer="755" to-port="0"/>
		<edge from-layer="754" from-port="0" to-layer="755" to-port="1"/>
		<edge from-layer="755" from-port="2" to-layer="761" to-port="0"/>
		<edge from-layer="755" from-port="2" to-layer="757" to-port="0"/>
		<edge from-layer="756" from-port="0" to-layer="757" to-port="1"/>
		<edge from-layer="757" from-port="2" to-layer="758" to-port="0"/>
		<edge from-layer="758" from-port="1" to-layer="760" to-port="0"/>
		<edge from-layer="759" from-port="0" to-layer="760" to-port="1"/>
		<edge from-layer="760" from-port="2" to-layer="761" to-port="1"/>
		<edge from-layer="761" from-port="2" to-layer="763" to-port="0"/>
		<edge from-layer="762" from-port="0" to-layer="763" to-port="1"/>
		<edge from-layer="763" from-port="2" to-layer="765" to-port="0"/>
		<edge from-layer="764" from-port="0" to-layer="765" to-port="1"/>
		<edge from-layer="765" from-port="2" to-layer="771" to-port="0"/>
		<edge from-layer="765" from-port="2" to-layer="767" to-port="0"/>
		<edge from-layer="766" from-port="0" to-layer="767" to-port="1"/>
		<edge from-layer="767" from-port="2" to-layer="768" to-port="0"/>
		<edge from-layer="768" from-port="1" to-layer="770" to-port="0"/>
		<edge from-layer="769" from-port="0" to-layer="770" to-port="1"/>
		<edge from-layer="770" from-port="2" to-layer="771" to-port="1"/>
		<edge from-layer="771" from-port="2" to-layer="773" to-port="0"/>
		<edge from-layer="772" from-port="0" to-layer="773" to-port="1"/>
		<edge from-layer="773" from-port="2" to-layer="775" to-port="0"/>
		<edge from-layer="774" from-port="0" to-layer="775" to-port="1"/>
		<edge from-layer="775" from-port="2" to-layer="777" to-port="0"/>
		<edge from-layer="775" from-port="2" to-layer="781" to-port="0"/>
		<edge from-layer="776" from-port="0" to-layer="777" to-port="1"/>
		<edge from-layer="777" from-port="2" to-layer="778" to-port="0"/>
		<edge from-layer="778" from-port="1" to-layer="780" to-port="0"/>
		<edge from-layer="779" from-port="0" to-layer="780" to-port="1"/>
		<edge from-layer="780" from-port="2" to-layer="781" to-port="1"/>
		<edge from-layer="781" from-port="2" to-layer="783" to-port="0"/>
		<edge from-layer="782" from-port="0" to-layer="783" to-port="1"/>
		<edge from-layer="783" from-port="2" to-layer="785" to-port="0"/>
		<edge from-layer="784" from-port="0" to-layer="785" to-port="1"/>
		<edge from-layer="785" from-port="2" to-layer="791" to-port="0"/>
		<edge from-layer="785" from-port="2" to-layer="787" to-port="0"/>
		<edge from-layer="786" from-port="0" to-layer="787" to-port="1"/>
		<edge from-layer="787" from-port="2" to-layer="788" to-port="0"/>
		<edge from-layer="788" from-port="1" to-layer="790" to-port="0"/>
		<edge from-layer="789" from-port="0" to-layer="790" to-port="1"/>
		<edge from-layer="790" from-port="2" to-layer="791" to-port="1"/>
		<edge from-layer="791" from-port="2" to-layer="793" to-port="0"/>
		<edge from-layer="791" from-port="2" to-layer="798" to-port="0"/>
		<edge from-layer="792" from-port="0" to-layer="793" to-port="1"/>
		<edge from-layer="793" from-port="2" to-layer="795" to-port="0"/>
		<edge from-layer="794" from-port="0" to-layer="795" to-port="1"/>
		<edge from-layer="795" from-port="2" to-layer="796" to-port="0"/>
		<edge from-layer="796" from-port="1" to-layer="802" to-port="2"/>
		<edge from-layer="797" from-port="0" to-layer="798" to-port="1"/>
		<edge from-layer="798" from-port="2" to-layer="800" to-port="0"/>
		<edge from-layer="799" from-port="0" to-layer="800" to-port="1"/>
		<edge from-layer="800" from-port="2" to-layer="801" to-port="0"/>
		<edge from-layer="801" from-port="1" to-layer="802" to-port="3"/>
		<edge from-layer="802" from-port="4" to-layer="804" to-port="0"/>
		<edge from-layer="803" from-port="0" to-layer="804" to-port="1"/>
		<edge from-layer="804" from-port="2" to-layer="1193" to-port="0"/>
		<edge from-layer="805" from-port="0" to-layer="806" to-port="1"/>
		<edge from-layer="806" from-port="2" to-layer="808" to-port="0"/>
		<edge from-layer="807" from-port="0" to-layer="808" to-port="1"/>
		<edge from-layer="808" from-port="2" to-layer="810" to-port="0"/>
		<edge from-layer="808" from-port="2" to-layer="814" to-port="0"/>
		<edge from-layer="809" from-port="0" to-layer="810" to-port="1"/>
		<edge from-layer="810" from-port="2" to-layer="811" to-port="0"/>
		<edge from-layer="811" from-port="1" to-layer="813" to-port="0"/>
		<edge from-layer="812" from-port="0" to-layer="813" to-port="1"/>
		<edge from-layer="813" from-port="2" to-layer="814" to-port="1"/>
		<edge from-layer="814" from-port="2" to-layer="816" to-port="0"/>
		<edge from-layer="815" from-port="0" to-layer="816" to-port="1"/>
		<edge from-layer="816" from-port="2" to-layer="818" to-port="0"/>
		<edge from-layer="817" from-port="0" to-layer="818" to-port="1"/>
		<edge from-layer="818" from-port="2" to-layer="820" to-port="0"/>
		<edge from-layer="818" from-port="2" to-layer="824" to-port="0"/>
		<edge from-layer="819" from-port="0" to-layer="820" to-port="1"/>
		<edge from-layer="820" from-port="2" to-layer="821" to-port="0"/>
		<edge from-layer="821" from-port="1" to-layer="823" to-port="0"/>
		<edge from-layer="822" from-port="0" to-layer="823" to-port="1"/>
		<edge from-layer="823" from-port="2" to-layer="824" to-port="1"/>
		<edge from-layer="824" from-port="2" to-layer="825" to-port="0"/>
		<edge from-layer="825" from-port="2" to-layer="827" to-port="0"/>
		<edge from-layer="825" from-port="2" to-layer="867" to-port="0"/>
		<edge from-layer="826" from-port="0" to-layer="827" to-port="1"/>
		<edge from-layer="827" from-port="2" to-layer="829" to-port="0"/>
		<edge from-layer="828" from-port="0" to-layer="829" to-port="1"/>
		<edge from-layer="829" from-port="2" to-layer="831" to-port="0"/>
		<edge from-layer="829" from-port="2" to-layer="835" to-port="0"/>
		<edge from-layer="830" from-port="0" to-layer="831" to-port="1"/>
		<edge from-layer="831" from-port="2" to-layer="832" to-port="0"/>
		<edge from-layer="832" from-port="1" to-layer="834" to-port="0"/>
		<edge from-layer="833" from-port="0" to-layer="834" to-port="1"/>
		<edge from-layer="834" from-port="2" to-layer="835" to-port="1"/>
		<edge from-layer="835" from-port="2" to-layer="837" to-port="0"/>
		<edge from-layer="836" from-port="0" to-layer="837" to-port="1"/>
		<edge from-layer="837" from-port="2" to-layer="839" to-port="0"/>
		<edge from-layer="838" from-port="0" to-layer="839" to-port="1"/>
		<edge from-layer="839" from-port="2" to-layer="841" to-port="0"/>
		<edge from-layer="839" from-port="2" to-layer="845" to-port="0"/>
		<edge from-layer="840" from-port="0" to-layer="841" to-port="1"/>
		<edge from-layer="841" from-port="2" to-layer="842" to-port="0"/>
		<edge from-layer="842" from-port="1" to-layer="844" to-port="0"/>
		<edge from-layer="843" from-port="0" to-layer="844" to-port="1"/>
		<edge from-layer="844" from-port="2" to-layer="845" to-port="1"/>
		<edge from-layer="845" from-port="2" to-layer="847" to-port="0"/>
		<edge from-layer="846" from-port="0" to-layer="847" to-port="1"/>
		<edge from-layer="847" from-port="2" to-layer="849" to-port="0"/>
		<edge from-layer="848" from-port="0" to-layer="849" to-port="1"/>
		<edge from-layer="849" from-port="2" to-layer="855" to-port="0"/>
		<edge from-layer="849" from-port="2" to-layer="851" to-port="0"/>
		<edge from-layer="850" from-port="0" to-layer="851" to-port="1"/>
		<edge from-layer="851" from-port="2" to-layer="852" to-port="0"/>
		<edge from-layer="852" from-port="1" to-layer="854" to-port="0"/>
		<edge from-layer="853" from-port="0" to-layer="854" to-port="1"/>
		<edge from-layer="854" from-port="2" to-layer="855" to-port="1"/>
		<edge from-layer="855" from-port="2" to-layer="857" to-port="0"/>
		<edge from-layer="856" from-port="0" to-layer="857" to-port="1"/>
		<edge from-layer="857" from-port="2" to-layer="859" to-port="0"/>
		<edge from-layer="858" from-port="0" to-layer="859" to-port="1"/>
		<edge from-layer="859" from-port="2" to-layer="861" to-port="0"/>
		<edge from-layer="859" from-port="2" to-layer="865" to-port="0"/>
		<edge from-layer="860" from-port="0" to-layer="861" to-port="1"/>
		<edge from-layer="861" from-port="2" to-layer="862" to-port="0"/>
		<edge from-layer="862" from-port="1" to-layer="864" to-port="0"/>
		<edge from-layer="863" from-port="0" to-layer="864" to-port="1"/>
		<edge from-layer="864" from-port="2" to-layer="865" to-port="1"/>
		<edge from-layer="865" from-port="2" to-layer="876" to-port="0"/>
		<edge from-layer="866" from-port="0" to-layer="867" to-port="1"/>
		<edge from-layer="867" from-port="2" to-layer="869" to-port="0"/>
		<edge from-layer="868" from-port="0" to-layer="869" to-port="1"/>
		<edge from-layer="869" from-port="2" to-layer="875" to-port="0"/>
		<edge from-layer="869" from-port="2" to-layer="871" to-port="0"/>
		<edge from-layer="870" from-port="0" to-layer="871" to-port="1"/>
		<edge from-layer="871" from-port="2" to-layer="872" to-port="0"/>
		<edge from-layer="872" from-port="1" to-layer="874" to-port="0"/>
		<edge from-layer="873" from-port="0" to-layer="874" to-port="1"/>
		<edge from-layer="874" from-port="2" to-layer="875" to-port="1"/>
		<edge from-layer="875" from-port="2" to-layer="876" to-port="1"/>
		<edge from-layer="876" from-port="2" to-layer="878" to-port="0"/>
		<edge from-layer="877" from-port="0" to-layer="878" to-port="1"/>
		<edge from-layer="878" from-port="2" to-layer="880" to-port="0"/>
		<edge from-layer="879" from-port="0" to-layer="880" to-port="1"/>
		<edge from-layer="880" from-port="2" to-layer="882" to-port="0"/>
		<edge from-layer="880" from-port="2" to-layer="886" to-port="0"/>
		<edge from-layer="881" from-port="0" to-layer="882" to-port="1"/>
		<edge from-layer="882" from-port="2" to-layer="883" to-port="0"/>
		<edge from-layer="883" from-port="1" to-layer="885" to-port="0"/>
		<edge from-layer="884" from-port="0" to-layer="885" to-port="1"/>
		<edge from-layer="885" from-port="2" to-layer="886" to-port="1"/>
		<edge from-layer="886" from-port="2" to-layer="1000" to-port="0"/>
		<edge from-layer="886" from-port="2" to-layer="888" to-port="0"/>
		<edge from-layer="887" from-port="0" to-layer="888" to-port="1"/>
		<edge from-layer="888" from-port="2" to-layer="890" to-port="0"/>
		<edge from-layer="889" from-port="0" to-layer="890" to-port="1"/>
		<edge from-layer="890" from-port="2" to-layer="892" to-port="0"/>
		<edge from-layer="890" from-port="2" to-layer="896" to-port="0"/>
		<edge from-layer="891" from-port="0" to-layer="892" to-port="1"/>
		<edge from-layer="892" from-port="2" to-layer="893" to-port="0"/>
		<edge from-layer="893" from-port="1" to-layer="895" to-port="0"/>
		<edge from-layer="894" from-port="0" to-layer="895" to-port="1"/>
		<edge from-layer="895" from-port="2" to-layer="896" to-port="1"/>
		<edge from-layer="896" from-port="2" to-layer="898" to-port="0"/>
		<edge from-layer="896" from-port="2" to-layer="947" to-port="0"/>
		<edge from-layer="897" from-port="0" to-layer="898" to-port="1"/>
		<edge from-layer="898" from-port="2" to-layer="900" to-port="0"/>
		<edge from-layer="899" from-port="0" to-layer="900" to-port="1"/>
		<edge from-layer="900" from-port="2" to-layer="906" to-port="0"/>
		<edge from-layer="900" from-port="2" to-layer="902" to-port="0"/>
		<edge from-layer="901" from-port="0" to-layer="902" to-port="1"/>
		<edge from-layer="902" from-port="2" to-layer="903" to-port="0"/>
		<edge from-layer="903" from-port="1" to-layer="905" to-port="0"/>
		<edge from-layer="904" from-port="0" to-layer="905" to-port="1"/>
		<edge from-layer="905" from-port="2" to-layer="906" to-port="1"/>
		<edge from-layer="906" from-port="2" to-layer="908" to-port="0"/>
		<edge from-layer="907" from-port="0" to-layer="908" to-port="1"/>
		<edge from-layer="908" from-port="2" to-layer="910" to-port="0"/>
		<edge from-layer="909" from-port="0" to-layer="910" to-port="1"/>
		<edge from-layer="910" from-port="2" to-layer="912" to-port="0"/>
		<edge from-layer="910" from-port="2" to-layer="916" to-port="0"/>
		<edge from-layer="911" from-port="0" to-layer="912" to-port="1"/>
		<edge from-layer="912" from-port="2" to-layer="913" to-port="0"/>
		<edge from-layer="913" from-port="1" to-layer="915" to-port="0"/>
		<edge from-layer="914" from-port="0" to-layer="915" to-port="1"/>
		<edge from-layer="915" from-port="2" to-layer="916" to-port="1"/>
		<edge from-layer="916" from-port="2" to-layer="918" to-port="0"/>
		<edge from-layer="917" from-port="0" to-layer="918" to-port="1"/>
		<edge from-layer="918" from-port="2" to-layer="920" to-port="0"/>
		<edge from-layer="919" from-port="0" to-layer="920" to-port="1"/>
		<edge from-layer="920" from-port="2" to-layer="922" to-port="0"/>
		<edge from-layer="920" from-port="2" to-layer="926" to-port="0"/>
		<edge from-layer="921" from-port="0" to-layer="922" to-port="1"/>
		<edge from-layer="922" from-port="2" to-layer="923" to-port="0"/>
		<edge from-layer="923" from-port="1" to-layer="925" to-port="0"/>
		<edge from-layer="924" from-port="0" to-layer="925" to-port="1"/>
		<edge from-layer="925" from-port="2" to-layer="926" to-port="1"/>
		<edge from-layer="926" from-port="2" to-layer="928" to-port="0"/>
		<edge from-layer="927" from-port="0" to-layer="928" to-port="1"/>
		<edge from-layer="928" from-port="2" to-layer="930" to-port="0"/>
		<edge from-layer="929" from-port="0" to-layer="930" to-port="1"/>
		<edge from-layer="930" from-port="2" to-layer="936" to-port="0"/>
		<edge from-layer="930" from-port="2" to-layer="932" to-port="0"/>
		<edge from-layer="931" from-port="0" to-layer="932" to-port="1"/>
		<edge from-layer="932" from-port="2" to-layer="933" to-port="0"/>
		<edge from-layer="933" from-port="1" to-layer="935" to-port="0"/>
		<edge from-layer="934" from-port="0" to-layer="935" to-port="1"/>
		<edge from-layer="935" from-port="2" to-layer="936" to-port="1"/>
		<edge from-layer="936" from-port="2" to-layer="938" to-port="0"/>
		<edge from-layer="936" from-port="2" to-layer="942" to-port="0"/>
		<edge from-layer="937" from-port="0" to-layer="938" to-port="1"/>
		<edge from-layer="938" from-port="2" to-layer="940" to-port="0"/>
		<edge from-layer="939" from-port="0" to-layer="940" to-port="1"/>
		<edge from-layer="940" from-port="2" to-layer="996" to-port="0"/>
		<edge from-layer="941" from-port="0" to-layer="942" to-port="1"/>
		<edge from-layer="942" from-port="2" to-layer="944" to-port="0"/>
		<edge from-layer="943" from-port="0" to-layer="944" to-port="1"/>
		<edge from-layer="944" from-port="2" to-layer="945" to-port="0"/>
		<edge from-layer="945" from-port="1" to-layer="996" to-port="1"/>
		<edge from-layer="946" from-port="0" to-layer="947" to-port="1"/>
		<edge from-layer="947" from-port="2" to-layer="949" to-port="0"/>
		<edge from-layer="948" from-port="0" to-layer="949" to-port="1"/>
		<edge from-layer="949" from-port="2" to-layer="955" to-port="0"/>
		<edge from-layer="949" from-port="2" to-layer="951" to-port="0"/>
		<edge from-layer="950" from-port="0" to-layer="951" to-port="1"/>
		<edge from-layer="951" from-port="2" to-layer="952" to-port="0"/>
		<edge from-layer="952" from-port="1" to-layer="954" to-port="0"/>
		<edge from-layer="953" from-port="0" to-layer="954" to-port="1"/>
		<edge from-layer="954" from-port="2" to-layer="955" to-port="1"/>
		<edge from-layer="955" from-port="2" to-layer="957" to-port="0"/>
		<edge from-layer="956" from-port="0" to-layer="957" to-port="1"/>
		<edge from-layer="957" from-port="2" to-layer="959" to-port="0"/>
		<edge from-layer="958" from-port="0" to-layer="959" to-port="1"/>
		<edge from-layer="959" from-port="2" to-layer="961" to-port="0"/>
		<edge from-layer="959" from-port="2" to-layer="965" to-port="0"/>
		<edge from-layer="960" from-port="0" to-layer="961" to-port="1"/>
		<edge from-layer="961" from-port="2" to-layer="962" to-port="0"/>
		<edge from-layer="962" from-port="1" to-layer="964" to-port="0"/>
		<edge from-layer="963" from-port="0" to-layer="964" to-port="1"/>
		<edge from-layer="964" from-port="2" to-layer="965" to-port="1"/>
		<edge from-layer="965" from-port="2" to-layer="967" to-port="0"/>
		<edge from-layer="966" from-port="0" to-layer="967" to-port="1"/>
		<edge from-layer="967" from-port="2" to-layer="969" to-port="0"/>
		<edge from-layer="968" from-port="0" to-layer="969" to-port="1"/>
		<edge from-layer="969" from-port="2" to-layer="975" to-port="0"/>
		<edge from-layer="969" from-port="2" to-layer="971" to-port="0"/>
		<edge from-layer="970" from-port="0" to-layer="971" to-port="1"/>
		<edge from-layer="971" from-port="2" to-layer="972" to-port="0"/>
		<edge from-layer="972" from-port="1" to-layer="974" to-port="0"/>
		<edge from-layer="973" from-port="0" to-layer="974" to-port="1"/>
		<edge from-layer="974" from-port="2" to-layer="975" to-port="1"/>
		<edge from-layer="975" from-port="2" to-layer="977" to-port="0"/>
		<edge from-layer="976" from-port="0" to-layer="977" to-port="1"/>
		<edge from-layer="977" from-port="2" to-layer="979" to-port="0"/>
		<edge from-layer="978" from-port="0" to-layer="979" to-port="1"/>
		<edge from-layer="979" from-port="2" to-layer="981" to-port="0"/>
		<edge from-layer="979" from-port="2" to-layer="985" to-port="0"/>
		<edge from-layer="980" from-port="0" to-layer="981" to-port="1"/>
		<edge from-layer="981" from-port="2" to-layer="982" to-port="0"/>
		<edge from-layer="982" from-port="1" to-layer="984" to-port="0"/>
		<edge from-layer="983" from-port="0" to-layer="984" to-port="1"/>
		<edge from-layer="984" from-port="2" to-layer="985" to-port="1"/>
		<edge from-layer="985" from-port="2" to-layer="992" to-port="0"/>
		<edge from-layer="985" from-port="2" to-layer="987" to-port="0"/>
		<edge from-layer="986" from-port="0" to-layer="987" to-port="1"/>
		<edge from-layer="987" from-port="2" to-layer="989" to-port="0"/>
		<edge from-layer="988" from-port="0" to-layer="989" to-port="1"/>
		<edge from-layer="989" from-port="2" to-layer="990" to-port="0"/>
		<edge from-layer="990" from-port="1" to-layer="996" to-port="2"/>
		<edge from-layer="991" from-port="0" to-layer="992" to-port="1"/>
		<edge from-layer="992" from-port="2" to-layer="994" to-port="0"/>
		<edge from-layer="993" from-port="0" to-layer="994" to-port="1"/>
		<edge from-layer="994" from-port="2" to-layer="995" to-port="0"/>
		<edge from-layer="995" from-port="1" to-layer="996" to-port="3"/>
		<edge from-layer="996" from-port="4" to-layer="998" to-port="0"/>
		<edge from-layer="997" from-port="0" to-layer="998" to-port="1"/>
		<edge from-layer="998" from-port="2" to-layer="1193" to-port="1"/>
		<edge from-layer="999" from-port="0" to-layer="1000" to-port="1"/>
		<edge from-layer="1000" from-port="2" to-layer="1002" to-port="0"/>
		<edge from-layer="1001" from-port="0" to-layer="1002" to-port="1"/>
		<edge from-layer="1002" from-port="2" to-layer="1004" to-port="0"/>
		<edge from-layer="1002" from-port="2" to-layer="1008" to-port="0"/>
		<edge from-layer="1003" from-port="0" to-layer="1004" to-port="1"/>
		<edge from-layer="1004" from-port="2" to-layer="1005" to-port="0"/>
		<edge from-layer="1005" from-port="1" to-layer="1007" to-port="0"/>
		<edge from-layer="1006" from-port="0" to-layer="1007" to-port="1"/>
		<edge from-layer="1007" from-port="2" to-layer="1008" to-port="1"/>
		<edge from-layer="1008" from-port="2" to-layer="1010" to-port="0"/>
		<edge from-layer="1009" from-port="0" to-layer="1010" to-port="1"/>
		<edge from-layer="1010" from-port="2" to-layer="1012" to-port="0"/>
		<edge from-layer="1011" from-port="0" to-layer="1012" to-port="1"/>
		<edge from-layer="1012" from-port="2" to-layer="1018" to-port="0"/>
		<edge from-layer="1012" from-port="2" to-layer="1014" to-port="0"/>
		<edge from-layer="1013" from-port="0" to-layer="1014" to-port="1"/>
		<edge from-layer="1014" from-port="2" to-layer="1015" to-port="0"/>
		<edge from-layer="1015" from-port="1" to-layer="1017" to-port="0"/>
		<edge from-layer="1016" from-port="0" to-layer="1017" to-port="1"/>
		<edge from-layer="1017" from-port="2" to-layer="1018" to-port="1"/>
		<edge from-layer="1018" from-port="2" to-layer="1019" to-port="0"/>
		<edge from-layer="1019" from-port="2" to-layer="1061" to-port="0"/>
		<edge from-layer="1019" from-port="2" to-layer="1021" to-port="0"/>
		<edge from-layer="1020" from-port="0" to-layer="1021" to-port="1"/>
		<edge from-layer="1021" from-port="2" to-layer="1023" to-port="0"/>
		<edge from-layer="1022" from-port="0" to-layer="1023" to-port="1"/>
		<edge from-layer="1023" from-port="2" to-layer="1025" to-port="0"/>
		<edge from-layer="1023" from-port="2" to-layer="1029" to-port="0"/>
		<edge from-layer="1024" from-port="0" to-layer="1025" to-port="1"/>
		<edge from-layer="1025" from-port="2" to-layer="1026" to-port="0"/>
		<edge from-layer="1026" from-port="1" to-layer="1028" to-port="0"/>
		<edge from-layer="1027" from-port="0" to-layer="1028" to-port="1"/>
		<edge from-layer="1028" from-port="2" to-layer="1029" to-port="1"/>
		<edge from-layer="1029" from-port="2" to-layer="1031" to-port="0"/>
		<edge from-layer="1030" from-port="0" to-layer="1031" to-port="1"/>
		<edge from-layer="1031" from-port="2" to-layer="1033" to-port="0"/>
		<edge from-layer="1032" from-port="0" to-layer="1033" to-port="1"/>
		<edge from-layer="1033" from-port="2" to-layer="1035" to-port="0"/>
		<edge from-layer="1033" from-port="2" to-layer="1039" to-port="0"/>
		<edge from-layer="1034" from-port="0" to-layer="1035" to-port="1"/>
		<edge from-layer="1035" from-port="2" to-layer="1036" to-port="0"/>
		<edge from-layer="1036" from-port="1" to-layer="1038" to-port="0"/>
		<edge from-layer="1037" from-port="0" to-layer="1038" to-port="1"/>
		<edge from-layer="1038" from-port="2" to-layer="1039" to-port="1"/>
		<edge from-layer="1039" from-port="2" to-layer="1041" to-port="0"/>
		<edge from-layer="1040" from-port="0" to-layer="1041" to-port="1"/>
		<edge from-layer="1041" from-port="2" to-layer="1043" to-port="0"/>
		<edge from-layer="1042" from-port="0" to-layer="1043" to-port="1"/>
		<edge from-layer="1043" from-port="2" to-layer="1045" to-port="0"/>
		<edge from-layer="1043" from-port="2" to-layer="1049" to-port="0"/>
		<edge from-layer="1044" from-port="0" to-layer="1045" to-port="1"/>
		<edge from-layer="1045" from-port="2" to-layer="1046" to-port="0"/>
		<edge from-layer="1046" from-port="1" to-layer="1048" to-port="0"/>
		<edge from-layer="1047" from-port="0" to-layer="1048" to-port="1"/>
		<edge from-layer="1048" from-port="2" to-layer="1049" to-port="1"/>
		<edge from-layer="1049" from-port="2" to-layer="1051" to-port="0"/>
		<edge from-layer="1050" from-port="0" to-layer="1051" to-port="1"/>
		<edge from-layer="1051" from-port="2" to-layer="1053" to-port="0"/>
		<edge from-layer="1052" from-port="0" to-layer="1053" to-port="1"/>
		<edge from-layer="1053" from-port="2" to-layer="1059" to-port="0"/>
		<edge from-layer="1053" from-port="2" to-layer="1055" to-port="0"/>
		<edge from-layer="1054" from-port="0" to-layer="1055" to-port="1"/>
		<edge from-layer="1055" from-port="2" to-layer="1056" to-port="0"/>
		<edge from-layer="1056" from-port="1" to-layer="1058" to-port="0"/>
		<edge from-layer="1057" from-port="0" to-layer="1058" to-port="1"/>
		<edge from-layer="1058" from-port="2" to-layer="1059" to-port="1"/>
		<edge from-layer="1059" from-port="2" to-layer="1070" to-port="0"/>
		<edge from-layer="1060" from-port="0" to-layer="1061" to-port="1"/>
		<edge from-layer="1061" from-port="2" to-layer="1063" to-port="0"/>
		<edge from-layer="1062" from-port="0" to-layer="1063" to-port="1"/>
		<edge from-layer="1063" from-port="2" to-layer="1069" to-port="0"/>
		<edge from-layer="1063" from-port="2" to-layer="1065" to-port="0"/>
		<edge from-layer="1064" from-port="0" to-layer="1065" to-port="1"/>
		<edge from-layer="1065" from-port="2" to-layer="1066" to-port="0"/>
		<edge from-layer="1066" from-port="1" to-layer="1068" to-port="0"/>
		<edge from-layer="1067" from-port="0" to-layer="1068" to-port="1"/>
		<edge from-layer="1068" from-port="2" to-layer="1069" to-port="1"/>
		<edge from-layer="1069" from-port="2" to-layer="1070" to-port="1"/>
		<edge from-layer="1070" from-port="2" to-layer="1072" to-port="0"/>
		<edge from-layer="1071" from-port="0" to-layer="1072" to-port="1"/>
		<edge from-layer="1072" from-port="2" to-layer="1074" to-port="0"/>
		<edge from-layer="1073" from-port="0" to-layer="1074" to-port="1"/>
		<edge from-layer="1074" from-port="2" to-layer="1076" to-port="0"/>
		<edge from-layer="1074" from-port="2" to-layer="1080" to-port="0"/>
		<edge from-layer="1075" from-port="0" to-layer="1076" to-port="1"/>
		<edge from-layer="1076" from-port="2" to-layer="1077" to-port="0"/>
		<edge from-layer="1077" from-port="1" to-layer="1079" to-port="0"/>
		<edge from-layer="1078" from-port="0" to-layer="1079" to-port="1"/>
		<edge from-layer="1079" from-port="2" to-layer="1080" to-port="1"/>
		<edge from-layer="1080" from-port="2" to-layer="1082" to-port="0"/>
		<edge from-layer="1081" from-port="0" to-layer="1082" to-port="1"/>
		<edge from-layer="1082" from-port="2" to-layer="1084" to-port="0"/>
		<edge from-layer="1083" from-port="0" to-layer="1084" to-port="1"/>
		<edge from-layer="1084" from-port="2" to-layer="1086" to-port="0"/>
		<edge from-layer="1084" from-port="2" to-layer="1090" to-port="0"/>
		<edge from-layer="1085" from-port="0" to-layer="1086" to-port="1"/>
		<edge from-layer="1086" from-port="2" to-layer="1087" to-port="0"/>
		<edge from-layer="1087" from-port="1" to-layer="1089" to-port="0"/>
		<edge from-layer="1088" from-port="0" to-layer="1089" to-port="1"/>
		<edge from-layer="1089" from-port="2" to-layer="1090" to-port="1"/>
		<edge from-layer="1090" from-port="2" to-layer="1141" to-port="0"/>
		<edge from-layer="1090" from-port="2" to-layer="1092" to-port="0"/>
		<edge from-layer="1091" from-port="0" to-layer="1092" to-port="1"/>
		<edge from-layer="1092" from-port="2" to-layer="1094" to-port="0"/>
		<edge from-layer="1093" from-port="0" to-layer="1094" to-port="1"/>
		<edge from-layer="1094" from-port="2" to-layer="1096" to-port="0"/>
		<edge from-layer="1094" from-port="2" to-layer="1100" to-port="0"/>
		<edge from-layer="1095" from-port="0" to-layer="1096" to-port="1"/>
		<edge from-layer="1096" from-port="2" to-layer="1097" to-port="0"/>
		<edge from-layer="1097" from-port="1" to-layer="1099" to-port="0"/>
		<edge from-layer="1098" from-port="0" to-layer="1099" to-port="1"/>
		<edge from-layer="1099" from-port="2" to-layer="1100" to-port="1"/>
		<edge from-layer="1100" from-port="2" to-layer="1102" to-port="0"/>
		<edge from-layer="1101" from-port="0" to-layer="1102" to-port="1"/>
		<edge from-layer="1102" from-port="2" to-layer="1104" to-port="0"/>
		<edge from-layer="1103" from-port="0" to-layer="1104" to-port="1"/>
		<edge from-layer="1104" from-port="2" to-layer="1106" to-port="0"/>
		<edge from-layer="1104" from-port="2" to-layer="1110" to-port="0"/>
		<edge from-layer="1105" from-port="0" to-layer="1106" to-port="1"/>
		<edge from-layer="1106" from-port="2" to-layer="1107" to-port="0"/>
		<edge from-layer="1107" from-port="1" to-layer="1109" to-port="0"/>
		<edge from-layer="1108" from-port="0" to-layer="1109" to-port="1"/>
		<edge from-layer="1109" from-port="2" to-layer="1110" to-port="1"/>
		<edge from-layer="1110" from-port="2" to-layer="1112" to-port="0"/>
		<edge from-layer="1111" from-port="0" to-layer="1112" to-port="1"/>
		<edge from-layer="1112" from-port="2" to-layer="1114" to-port="0"/>
		<edge from-layer="1113" from-port="0" to-layer="1114" to-port="1"/>
		<edge from-layer="1114" from-port="2" to-layer="1120" to-port="0"/>
		<edge from-layer="1114" from-port="2" to-layer="1116" to-port="0"/>
		<edge from-layer="1115" from-port="0" to-layer="1116" to-port="1"/>
		<edge from-layer="1116" from-port="2" to-layer="1117" to-port="0"/>
		<edge from-layer="1117" from-port="1" to-layer="1119" to-port="0"/>
		<edge from-layer="1118" from-port="0" to-layer="1119" to-port="1"/>
		<edge from-layer="1119" from-port="2" to-layer="1120" to-port="1"/>
		<edge from-layer="1120" from-port="2" to-layer="1122" to-port="0"/>
		<edge from-layer="1121" from-port="0" to-layer="1122" to-port="1"/>
		<edge from-layer="1122" from-port="2" to-layer="1124" to-port="0"/>
		<edge from-layer="1123" from-port="0" to-layer="1124" to-port="1"/>
		<edge from-layer="1124" from-port="2" to-layer="1126" to-port="0"/>
		<edge from-layer="1124" from-port="2" to-layer="1130" to-port="0"/>
		<edge from-layer="1125" from-port="0" to-layer="1126" to-port="1"/>
		<edge from-layer="1126" from-port="2" to-layer="1127" to-port="0"/>
		<edge from-layer="1127" from-port="1" to-layer="1129" to-port="0"/>
		<edge from-layer="1128" from-port="0" to-layer="1129" to-port="1"/>
		<edge from-layer="1129" from-port="2" to-layer="1130" to-port="1"/>
		<edge from-layer="1130" from-port="2" to-layer="1136" to-port="0"/>
		<edge from-layer="1130" from-port="2" to-layer="1132" to-port="0"/>
		<edge from-layer="1131" from-port="0" to-layer="1132" to-port="1"/>
		<edge from-layer="1132" from-port="2" to-layer="1134" to-port="0"/>
		<edge from-layer="1133" from-port="0" to-layer="1134" to-port="1"/>
		<edge from-layer="1134" from-port="2" to-layer="1190" to-port="0"/>
		<edge from-layer="1135" from-port="0" to-layer="1136" to-port="1"/>
		<edge from-layer="1136" from-port="2" to-layer="1138" to-port="0"/>
		<edge from-layer="1137" from-port="0" to-layer="1138" to-port="1"/>
		<edge from-layer="1138" from-port="2" to-layer="1139" to-port="0"/>
		<edge from-layer="1139" from-port="1" to-layer="1190" to-port="1"/>
		<edge from-layer="1140" from-port="0" to-layer="1141" to-port="1"/>
		<edge from-layer="1141" from-port="2" to-layer="1143" to-port="0"/>
		<edge from-layer="1142" from-port="0" to-layer="1143" to-port="1"/>
		<edge from-layer="1143" from-port="2" to-layer="1149" to-port="0"/>
		<edge from-layer="1143" from-port="2" to-layer="1145" to-port="0"/>
		<edge from-layer="1144" from-port="0" to-layer="1145" to-port="1"/>
		<edge from-layer="1145" from-port="2" to-layer="1146" to-port="0"/>
		<edge from-layer="1146" from-port="1" to-layer="1148" to-port="0"/>
		<edge from-layer="1147" from-port="0" to-layer="1148" to-port="1"/>
		<edge from-layer="1148" from-port="2" to-layer="1149" to-port="1"/>
		<edge from-layer="1149" from-port="2" to-layer="1151" to-port="0"/>
		<edge from-layer="1150" from-port="0" to-layer="1151" to-port="1"/>
		<edge from-layer="1151" from-port="2" to-layer="1153" to-port="0"/>
		<edge from-layer="1152" from-port="0" to-layer="1153" to-port="1"/>
		<edge from-layer="1153" from-port="2" to-layer="1159" to-port="0"/>
		<edge from-layer="1153" from-port="2" to-layer="1155" to-port="0"/>
		<edge from-layer="1154" from-port="0" to-layer="1155" to-port="1"/>
		<edge from-layer="1155" from-port="2" to-layer="1156" to-port="0"/>
		<edge from-layer="1156" from-port="1" to-layer="1158" to-port="0"/>
		<edge from-layer="1157" from-port="0" to-layer="1158" to-port="1"/>
		<edge from-layer="1158" from-port="2" to-layer="1159" to-port="1"/>
		<edge from-layer="1159" from-port="2" to-layer="1161" to-port="0"/>
		<edge from-layer="1160" from-port="0" to-layer="1161" to-port="1"/>
		<edge from-layer="1161" from-port="2" to-layer="1163" to-port="0"/>
		<edge from-layer="1162" from-port="0" to-layer="1163" to-port="1"/>
		<edge from-layer="1163" from-port="2" to-layer="1165" to-port="0"/>
		<edge from-layer="1163" from-port="2" to-layer="1169" to-port="0"/>
		<edge from-layer="1164" from-port="0" to-layer="1165" to-port="1"/>
		<edge from-layer="1165" from-port="2" to-layer="1166" to-port="0"/>
		<edge from-layer="1166" from-port="1" to-layer="1168" to-port="0"/>
		<edge from-layer="1167" from-port="0" to-layer="1168" to-port="1"/>
		<edge from-layer="1168" from-port="2" to-layer="1169" to-port="1"/>
		<edge from-layer="1169" from-port="2" to-layer="1171" to-port="0"/>
		<edge from-layer="1170" from-port="0" to-layer="1171" to-port="1"/>
		<edge from-layer="1171" from-port="2" to-layer="1173" to-port="0"/>
		<edge from-layer="1172" from-port="0" to-layer="1173" to-port="1"/>
		<edge from-layer="1173" from-port="2" to-layer="1179" to-port="0"/>
		<edge from-layer="1173" from-port="2" to-layer="1175" to-port="0"/>
		<edge from-layer="1174" from-port="0" to-layer="1175" to-port="1"/>
		<edge from-layer="1175" from-port="2" to-layer="1176" to-port="0"/>
		<edge from-layer="1176" from-port="1" to-layer="1178" to-port="0"/>
		<edge from-layer="1177" from-port="0" to-layer="1178" to-port="1"/>
		<edge from-layer="1178" from-port="2" to-layer="1179" to-port="1"/>
		<edge from-layer="1179" from-port="2" to-layer="1181" to-port="0"/>
		<edge from-layer="1179" from-port="2" to-layer="1186" to-port="0"/>
		<edge from-layer="1180" from-port="0" to-layer="1181" to-port="1"/>
		<edge from-layer="1181" from-port="2" to-layer="1183" to-port="0"/>
		<edge from-layer="1182" from-port="0" to-layer="1183" to-port="1"/>
		<edge from-layer="1183" from-port="2" to-layer="1184" to-port="0"/>
		<edge from-layer="1184" from-port="1" to-layer="1190" to-port="2"/>
		<edge from-layer="1185" from-port="0" to-layer="1186" to-port="1"/>
		<edge from-layer="1186" from-port="2" to-layer="1188" to-port="0"/>
		<edge from-layer="1187" from-port="0" to-layer="1188" to-port="1"/>
		<edge from-layer="1188" from-port="2" to-layer="1189" to-port="0"/>
		<edge from-layer="1189" from-port="1" to-layer="1190" to-port="3"/>
		<edge from-layer="1190" from-port="4" to-layer="1192" to-port="0"/>
		<edge from-layer="1191" from-port="0" to-layer="1192" to-port="1"/>
		<edge from-layer="1192" from-port="2" to-layer="1193" to-port="2"/>
		<edge from-layer="1193" from-port="3" to-layer="1195" to-port="0"/>
		<edge from-layer="1194" from-port="0" to-layer="1195" to-port="1"/>
		<edge from-layer="1195" from-port="2" to-layer="1196" to-port="0"/>
	</edges>
	<meta_data>
		<MO_version value="2021.4.1-3926-14e67d86634-releases/2021/4"/>
		<cli_parameters>
			<data_type value="FP16"/>
			<disable_resnet_optimization value="False"/>
			<disable_weights_compression value="False"/>
			<enable_concat_optimization value="False"/>
			<extensions value="DIR"/>
			<framework value="onnx"/>
			<freeze_placeholder_with_value value="{}"/>
			<generate_deprecated_IR_V7 value="False"/>
			<input_model value="DIR/yolox.onnx"/>
			<keep_shape_ops value="True"/>
			<legacy_ir_generation value="False"/>
			<log_level value="ERROR"/>
			<mean_scale_values value="{}"/>
			<mean_values value="()"/>
			<model_name value="yolox"/>
			<output_dir value="DIR"/>
			<placeholder_data_types value="{}"/>
			<progress value="False"/>
			<reverse_input_channels value="False"/>
			<scale_values value="()"/>
			<silent value="False"/>
			<static_shape value="False"/>
			<stream_output value="False"/>
			<transform value=""/>
			<unset unset_cli_parameters="batch, disable_fusing, disable_gfusing, finegrain_fusing, input, input_shape, move_to_preprocess, output, placeholder_shapes, scale, transformations_config"/>
		</cli_parameters>
	</meta_data>
</net>
